AONN_BFGS/BFGSNN/steady_NS/results/AONN/AONN_t1/p.pt (torch, 19347 bytes, 8 tensors)

weight f8 [30, 2]
00000000: 88f3 be98 c65c a8bf f28d 1e8c e408 b13f
00000010: 6de0 fc44 d770 c1bf 3bc4 0297 f2ff c8bf
00000020: cb38 183e b44a d1bf d633 d8ca e020 843f
00000030: 43aa ba29 d941 d3bf e1cb 147b d127 c3bf
00000040: dc3e 5266 3b4c cf3f f6a8 16af 6533 c33f
00000050: 935a ecf2 c4fb d3bf 8040 1389 e33f d63f
00000060: 6da5 4008 e793 b63f 4551 0af9 546b d3bf
00000070: 0740 fc1a 316e b53f 30bb 65cd 87d7 d93f
00000080: 67fe 64be 79c7 babf 3b43 230f 6dbc b6bf
00000090: f108 03a9 92ac c13f ffbf b619 29de c03f
000000a0: fae8 0171 63dd d33f db0b 6a26 7e16 c8bf
000000b0: ff7d 5d97 d4cb d8bf 54de 051d b2ec c3bf
000000c0: ef1d 44f0 0d25 a4bf 2b1c 1a79 b17c d5bf
000000d0: 1953 ae3a a348 d8bf 26a6 fc26 41cf 98bf
000000e0: 8c0b 54ff 93a5 84bf 0bd8 a204 d8cb b4bf
000000f0: 3030 35be 0f43 b63f 77b3 d420 f8d1 b2bf
00000100: 2bfb 615c bad6 c3bf ad72 5354 386f c33f
00000110: 45bd ca2e 6c5d bd3f 82b6 3a67 e8db c93f
00000120: 1f83 c4ea 4f85 b73f 368d 2572 ee3c dcbf
00000130: 7b11 ec66 52d1 ca3f 3312 f851 bef4 c5bf
00000140: 4a9d 66a6 033f cc3f 6f2c f661 3f1c 96bf
00000150: c4eb 8b93 e962 cc3f 4d12 d9e2 a943 dc3f
00000160: 5c13 5ff0 1254 d3bf 104e 4ccf cbd2 bc3f
00000170: c75a 74f5 e5b1 d03f 40aa 0265 db13 d2bf
00000180: 7aa8 3c55 b7e2 d8bf 2786 9e7e 27a4 c9bf
00000190: 8df4 f067 9df7 da3f 3161 ef35 f1c3 9cbf
000001a0: dcfd 63e1 c56d af3f f7e7 4fa0 3307 cebf
000001b0: dbc9 69c0 0a2f c33f 6426 9957 4b9a d03f
000001c0: 1aab 860b 7fd3 dcbf 0450 2d6a c165 d43f
000001d0: 6e2d dfd4 2e89 d33f 87c9 0fe2 aab3 d7bf
-0.047582822938671276 0.06654194279558803 -0.13625613087220093 -0.19531090138983295 -0.2701845747368565 0.00982833498985684 -0.3008940608512242 -0.1496526576025579
0.24451391693263858 0.15000601815456321 -0.3122417805001671 0.347649463522437 0.08819431258657114 -0.3034260208162503 0.08371264370748586 0.40377993639315246
-0.1046062555151309 -0.08881265277456134 0.13807900669605247 0.13177980189857405 0.31038747821698076 -0.18818642497725943 -0.38744082242735084 -0.15566088120589205
-0.03934520299850052 -0.33573567224852024 -0.3794334481292921 -0.024228113178798825 -0.010081440190793399 -0.08123540986238724 0.08696077722305584 -0.07351637650999786
-0.1549904776656715 0.15183166615942892 0.1147067655790482 0.20202355423446156 0.09187793237334717 -0.4412189593042116 0.20951299691672517 -0.1715314769973176
0.22067304253617187 -0.02159213099870921 0.2217685671274393 0.4416298594772215 -0.30200646852272484 0.11259149371135657 0.2608580491081906 -0.28246197571084863
-0.38883765529556735 -0.20032209093646822 0.4213632121134843 -0.028091210286079252 0.06138437630033497 -0.23459477737179643 0.14987310786416583 0.25941737703815293
-0.4504087078627649 0.31871066445205565 0.30524798191318936 -0.3703410346635327

bias f8 [30]
00000000: ef91 7c6f ba17 783f fa0f 05e5 82e4 c0bf
00000010: 72b8 b283 41d8 b23f 97f7 0a01 574a 7bbf
00000020: 81f5 d468 c51a b23f 23a8 5ec2 9907 ac3f
00000030: 8189 d883 026b 913f 05a8 5d2f de56 ba3f
00000040: b042 a2ba 28ef 98bf 4c64 8ce7 bbaf 82bf
00000050: 0065 7956 00c1 b4bf 2765 be45 b472 9cbf
00000060: 80a2 2ab4 9ab6 b9bf c2fc b7ac 2ab8 b3bf
00000070: 929d 214c 6ed2 b0bf 5c4c 5a5a bbab abbf
00000080: 5cac 7153 b4db 9b3f c5a7 e223 c040 9b3f
00000090: 0a87 b13f a2be c5bf 113d f6eb 4c54 aabf
000000a0: 2b78 ed58 78ec a63f e923 b285 d14e ba3f
000000b0: 3c79 40e3 9ca6 b63f a6a1 b7d2 f813 b3bf
000000c0: f994 b829 a9dc b8bf dfcd 6c7c f260 84bf
000000d0: a7b3 1472 a665 a8bf 2233 dd22 fe60 a43f
000000e0: 2703 844c 12dd b7bf 985d be19 f7da aebf
0.005882004035616436 -0.13197361166578486 0.07361230340277006 -0.006662692889845354 0.07072099503871777 0.054745488144661424 0.017009772584182684 0.10288799911873532
-0.024349819556450825 -0.009124248508259346 -0.08106996642290554 -0.027781311756915585 -0.10044257067296236 -0.07702891079678678 -0.06571091993975234 -0.054044585017572117
0.027205293267268935 0.02661419123675281 -0.16988018140823896 -0.05142441158670342 0.04477287374059843 0.1027651740461263 0.08847981022015444 -0.07452349800553879
-0.09711701649264971 -0.009950537130499036 -0.04765052931393337 0.03980249572359741 -0.09321703308161187 -0.06026432217839356

weight f8 [30, 30]
00000000: 5870 6f8b aeb5 d0bf b5e5 bb81 5be3 c43f
00000010: b8ee daa0 ec70 b83f ecad 8c42 6912 9abf
00000020: 2477 fbdd 6fd7 923f d062 6e89 3003 bd3f
00000030: 4950 5a2a 5a4c b73f 7324 39b0 2236 c6bf
00000040: e833 df87 d80e 74bf a629 cd7d 0f69 b33f
00000050: 83c2 f81e 8832 c23f 138b 7e2e 2332 b4bf
00000060: 98d6 c906 9bda d23f fb76 34fd c30f a63f
00000070: f8cc 8a98 6495 b8bf 8653 21cd 873b d03f
00000080: 93e9 af9f 7189 ccbf 82e4 e42d a781 8cbf
00000090: 556b be0d 9aca c2bf ad1a 38fe 8071 d03f
000000a0: 10a5 8855 46f8 9d3f 3b88 805b 36dd bbbf
000000b0: ab22 fd25 6fdf d23f 3bd2 346e c992 ce3f
000000c0: 5de3 12e8 6134 d0bf f1b8 a0cb 7d51 c8bf
000000d0: f2d9 e142 344d d23f c1e9 70f8 49ff ce3f
000000e0: 3f7a 2e8a 2302 ccbf 3b4d 9ede 5253 c9bf
000000f0: c765 696d 1726 b3bf 8a18 4be7 57fd b3bf
00000100: bc29 df82 dbc1 d23f a514 1e3c dcc0 c23f
00000110: c9b3 a110 9df3 b2bf 652b 5160 92eb babf
00000120: 296b 65d1 cf48 d13f 3a68 165d 6a1c babf
00000130: 782e 68cd 2aef d2bf a940 b5cc 0967 953f
00000140: 2703 7e82 ba17 cbbf 7254 326a 1840 c2bf
00000150: ef24 8c20 148d b1bf b34e d38c 462d c23f
00000160: 57d5 21f8 9c77 c83f ddff 4f62 9f9f a03f
00000170: 4bd6 1fbc 111f a23f cfde 39ba b789 8fbf
00000180: 7e2d d481 d8d6 c5bf 2046 6f96 1d83 cdbf
00000190: db6b 53f3 e65a a13f 4f4f 12e8 fb16 b93f
000001a0: a325 99e4 9288 d13f a11b 2ae1 784b 8ebf
000001b0: be8d 932d 332d b03f 8820 18f2 fe4a 843f
000001c0: 61fb 155a ca95 c03f c308 cf31 b196 cb3f
000001d0: 9057 5de4 8249 d4bf a5e6 5fef 3b71 a73f
000001e0: 9589 56c4 089d a5bf 2736 29a7 7f71 d2bf
000001f0: ec45 fc26 d346 c63f 8a03 ac6f deeb a83f
00000200: a685 d3d0 4af0 b03f 3d87 1a88 2a33 aebf
00000210: 5b0a d6af 5a9e c03f 68fb 0912 97a1 c63f
00000220: 7cd3 f227 6893 cd3f 4cd0 4aef 2a64 ce3f
00000230: 5cc8 610c 534c ba3f c63c 2390 4bbd c83f
00000240: b4ee f0e3 3ce8 8a3f af4b 368c 8719 cf3f
00000250: a1a1 2c46 5203 d0bf 1eb9 c183 fc3d c03f
00000260: caed 2e7e 474e c2bf c191 7b6b 006b d03f
00000270: 6e2d a46c 102e cbbf f6f6 35c1 4a6f cbbf
00000280: d829 f763 2e35 c5bf 08bc 18ee f7b1 98bf
00000290: 8f69 4385 53fc cd3f cc41 9513 a005 c3bf
000002a0: 3a5e 2a8d 84a2 8d3f a597 d5c0 975b d33f
000002b0: c8c6 b1b5 34b6 cc3f b0b8 1313 f0fa bc3f
000002c0: 76ff 4f9d 498f abbf ee93 f2f0 0a72 bfbf
000002d0: 0f23 3ee2 5285 b53f a2b1 e3bc f1f0 72bf
000002e0: 3b57 2042 0ae9 ccbf 26f1 dc24 88b1 d1bf
000002f0: 7ca0 b3a2 6ffe 9c3f 2bc8 de74 2071 a1bf
00000300: f449 f066 f731 d03f 07d5 857e 7f89 cabf
00000310: f00d 575a f3ce 6a3f d5fd 9144 ebcc 933f
00000320: e7fb 7577 20db c0bf 9684 16ad a9f7 ca3f
00000330: 2d0e 0a1d f92d 803f f9ee b160 37ac c1bf
00000340: 9b84 9d3f 5589 c1bf 11a5 4165 506d d2bf
00000350: be58 c1aa 11b9 96bf 032a 3f28 5af6 833f
00000360: 6e34 ea25 8df8 cbbf 9f46 aa64 0aa9 c13f
00000370: 52a6 db74 f05b d33f 91c8 2ebf c303 cf3f
00000380: 1936 29e4 c8bb cabf 93e2 94d6 2ae2 d13f
00000390: 49f1 fe7d c785 a53f ef5b d55a 54c5 b33f
000003a0: 10a0 e5d9 24e9 a53f 7c3b 9614 4289 c83f
000003b0: 14d0 21d1 bd01 abbf 2389 3e4d 2e10 933f
000003c0: 0f98 6d0a ef06 5c3f 4c2f 5161 4100 c1bf
000003d0: 87cb 4bc4 60eb cabf 4cbf 1285 7f9c c5bf
000003e0: 807e ae1a 96ef bcbf e9a3 cb75 9a3d ad3f
000003f0: dc72 c173 5afe c03f 1216 ac15 c995 a73f
00000400: c692 a582 d415 d1bf 406d 8cd1 633f b93f
00000410: 401a 9aef 2364 c0bf cb90 ebf3 c7af 9abf
00000420: 9021 2b97 89e2 d1bf 3ad1 936d b616 c8bf
00000430: aa3f 292c dfe1 a0bf 4b67 eacd cf2f d23f
00000440: 3101 659e 4675 b83f 867a 29e4 7c98 c83f
00000450: 2423 d11a 3ef4 d1bf a9f8 7e3a c09b c83f
00000460: c54b a0fb 1444 c93f cbb4 47a7 6606 d23f
00000470: d05b f41a 781f a7bf dd62 406c 8b75 c63f
00000480: c926 e603 c94f aa3f f61f 87d0 03e5 d4bf
00000490: d7cb ba42 dd12 c1bf 748f 3d40 e937 bdbf
000004a0: ea67 3c02 5274 d0bf 64c8 14aa 0de6 a2bf
000004b0: 3db1 6658 58c2 a53f dc86 127e 05d1 c13f
000004c0: 9877 78cb 9ca8 a83f f2cd a6d0 2154 ce3f
000004d0: 21d1 446a 32f7 ce3f 332a fe73 9401 953f
000004e0: e623 c4cc 9805 b63f d6f7 a4d8 36d4 c93f
000004f0: 3671 111a cfd2 b7bf fcb5 c8c3 76c3 af3f
00000500: 8aca 25a7 9022 ccbf 3249 d01c cbe2 abbf
00000510: 2bbe 0998 3710 d2bf ee32 628e 2ccc 7dbf
00000520: 48ab 9c6f be15 c5bf 1673 a365 07cb d1bf
00000530: 0522 158a ca0c d13f 1399 8640 af2e c1bf
00000540: 53a0 dc10 3816 c73f bdc9 bdb0 70be c7bf
00000550: a7a7 97dc 0504 be3f 6a9a 59f0 f11e 92bf
00000560: 696e af9e 6b1d c93f 143d c43c b10f bc3f
00000570: 2db2 5b47 abd2 7cbf aaa7 ae84 2525 d13f
00000580: d212 ca8e 09ab c1bf 8db4 99c6 6ac8 d2bf
00000590: 9102 f963 0078 bd3f 2eba 2f58 2a94 a13f
000005a0: 1fb3 27e0 12a8 c83f 229b 35f3 7407 c9bf
000005b0: f000 6540 ff11 cdbf f044 c647 34de b03f
000005c0: edcd dc11 68f7 cebf cf8f 9f6d e17c d0bf
000005d0: 9471 4942 e197 9a3f 87b2 dc03 7b25 b9bf
000005e0: f67b 4b55 89fb c63f 45cb 6696 9960 b6bf
000005f0: aafa f35b 93f6 bb3f 7a70 3373 1f7d c8bf
00000600: b00d 227b 5f45 c33f 96f4 534b 0005 a03f
00000610: 3915 f7f8 c7df cebf 520c e8be 1aad babf
00000620: 3e3d 8a27 5876 ccbf 6a16 bce9 c93b b9bf
00000630: 2321 01fc 908b c33f 9a89 4e4a b07d cb3f
00000640: a615 e614 1645 c3bf 681f def7 7afa cebf
00000650: e1c6 d4d3 fa1a ca3f 28ad e59e 376b bf3f
00000660: bf74 40bc 4608 d2bf 5ec3 6fd9 b105 c4bf
00000670: 6e9c 907c 700c d0bf 4701 51af 4ae4 ab3f
00000680: a38b d3bb 8834 933f a392 99cd 866e d0bf
00000690: ee1b 9dc6 4b33 c43f 09f2 b538 b679 c6bf
000006a0: df7b 8108 7ee5 c8bf b52e 55c6 3b23 bc3f
000006b0: 5235 f7f8 4a6a a4bf 7257 5af6 2bda be3f
000006c0: 0eee 54be 7af6 d13f b0d7 bec5 bdb6 b2bf
000006d0: 50f9 378c 0753 c13f 0106 14ba 4038 c33f
000006e0: 2efe b628 3d46 cdbf 9288 b3f9 7f3f ccbf
000006f0: ead1 a978 075d c63f c81c 9d33 a498 d0bf
00000700: 5239 ec9f 8a4a c8bf c07c 7839 dcdd 84bf
00000710: 932b 38e0 8e01 c73f 7206 c14c 9983 c3bf
00000720: 5bb0 ea13 ddb9 d1bf de52 2a4c 332a d4bf
00000730: c08d c43d 65af c73f 1d58 3dc6 b02c a13f
00000740: e2a6 2ee4 121a 99bf 16ff 21f5 c064 a1bf
00000750: 02a2 df5c 601a b7bf 2aa9 6c24 8270 c5bf
00000760: d57f 64ae cd0e 8f3f e56d e53c 7b8e bcbf
00000770: 5b7f fcec cfdb b33f ebfa 97b2 d28c d3bf
00000780: 9a8f ae3e d3d1 d0bf 6518 0046 c6c7 b43f
00000790: 905a 71dd ef1c c9bf e1b9 aa26 fba6 d33f
000007a0: 2d3a f976 c7f2 ccbf 73f5 6fa1 0fe6 a7bf
000007b0: a24a c1ad fb2c cabf e690 9a52 c520 a6bf
000007c0: 2104 13a6 54a4 9cbf 2aca 487c 0120 b83f
000007d0: 97a0 8515 e324 ba3f ce2e 9ed8 1980 c3bf
000007e0: 9055 ee6b a273 c2bf c2d7 2f8c a466 d33f
000007f0: 6592 40bc 32c3 96bf d600 192f c0e3 c63f
-0.2610889779732637 0.16318839869181337 0.09547308852318792 -0.025460858046399013 0.018399951862071565 0.11332991938833037 0.09100879224780657 -0.17352708439492268
-0.004896970580330319 0.07582184621165897 0.142167105791959 -0.07889003644099217 0.2945926252644795 0.04308903184776899 -0.09602955555128634 0.25363345176929675
-0.2229444532129717 -0.013919168556286946 -0.14680791541180818 0.25692772699441485 0.029267405481879172 -0.10884418233811825 0.29488733968586683 0.23885457879227254
-0.2531971708627248 -0.18998691981091256 0.2859621670862956 0.2421658003893992 -0.21881527182718405 -0.19785533781087303 -0.07479998036560352 -0.07808446308908593
0.2930821207088703 0.14651062903809478 -0.07402974754377491 -0.10515704013338974 0.2700690789112508 -0.10199608585972522 -0.2958476072242102 0.02090087234438501
-0.21166163798991386 -0.14258103547459516 -0.06855893892874908 0.14200670124283973 0.1911503039915867 0.03246782374480948 0.03539328977050767 -0.015399394388836111
-0.17061907138154803 -0.23056382985537116 0.033896653368820494 0.09800695815857562 0.27396080326124145 -0.014792389270281538 0.0631896959562743 0.009908668292169645
0.12957124136661505 0.21553625995699663 -0.3169867735026566 0.045785782785924746 -0.0422137012167411 -0.28817740749659254 0.1740364017828563 0.04867453683073737
0.06616656873986546 -0.058984116663181464 0.12983258805987216 0.1768063390809076 0.2310610003529766 0.23743187603179405 0.10272711803716689 0.19327683008166313
0.013138271051608676 0.24296659799855777 -0.2502027211471845 0.12689167436060073 -0.1430138937119934 0.25653086181980816 -0.2123432665324389 -0.2143338626300914
-0.16568546181799948 -0.024116395861877776 0.23426288611410626 -0.14860917049601452 0.014470134313611206 0.30246538001517315 0.2243104827098732 0.11320400682208986
-0.05382757230108741 -0.1228339040995505 0.08406560920242277 -0.004624313629602391 -0.22586181858849294 -0.27646068191440276 0.02831434660484476 -0.03406621386183447
0.25304970791435655 -0.2073211066996594 0.0032725098596715282 0.019336391506383627 -0.13168721993494545 0.21068306876717163 0.007900186728199443 -0.138068124975568
-0.13700357061592147 -0.2879219998199725 -0.022190357253145214 0.009747223237259744 -0.21852268554031035 0.13797120967187923 0.30248652851023394 0.2423023875722419
-0.20885573521302161 0.2794291587374939 0.042036279802661065 0.07722975938428055 0.042794372175933515 0.19168878560273217 -0.05274766137964107 0.018616412605873777
0.0017106375105071547 -0.13282029392063988 -0.21030816635865454 -0.16883844373432522 -0.11303079749495204 0.057110621337251484 0.1327622475827387 0.046064647574933684
-0.2669574046943065 0.09862350336009218 -0.12805604171099283 -0.02606117655058497 -0.2794517494444557 -0.18819313383540665 -0.0329732648284556 0.28416819676350674
0.09553948752455167 0.19215356007312695 -0.2805323850521282 0.19225314003228292 0.1973901966708508 0.28164068542430404 -0.045161965647075086 0.17546217714040938
0.05138996288867543 -0.32647796024366416 -0.13338819273266608 -0.11413438623782018 -0.2570996305308869 -0.03691141797243416 0.042498360434680006 0.139191328581595
0.048161411130634935 0.2369425076300185 0.24191885174662622 0.020513839320793713 0.08602290152715816 0.20178876474704904 -0.09306043993405386 0.062038146399895994
-0.21980484162812203 -0.05446467138985368 -0.2822398171183262 -0.0072747936702739335 -0.1647260708790219 -0.27801690030700976 0.2664057110273748 -0.134237200266576
0.18036557029086228 -0.1854992735857887 0.1172488845401448 -0.01769617108802849 0.19621033905319799 0.10961444600637932 -0.007036847169484645 0.26789224583864757
-0.13803214523445334 -0.2934824885804311 0.11511232796420702 0.03433353735441745 0.1926292032725536 -0.19554006457766443 -0.22711172718300743 0.06589056732470389
-0.24192524788087102 -0.25762210564994076 0.025970000906782767 -0.0982281574658349 0.17955128350055788 -0.0874114982787378 0.1092311954016433 -0.19131844639821677
0.15055459511141356 0.03128815574198389 -0.24120425850393604 -0.1042038646774455 -0.22236158304847636 -0.09856855350889196 0.15269672684576915 0.2147732127023801
-0.15054584522674225 -0.24201905348695196 0.2039483579952082 0.1227297556812813 -0.28175514587367084 -0.15642378918667083 -0.2507592407659506 0.054476102734499814
0.018755089248667322 -0.256746006756922 0.15781542966780598 -0.17558934945181218 -0.1945035497219285 0.10991262046916968 -0.039873450175586314 0.12051653637385387
0.28066891276441275 -0.07310091092844462 0.13534635874379797 0.15015420041895314 -0.22870602119472622 -0.22068786327787798 0.17471402541890707 -0.25931649246599564
-0.18977482613304147 -0.010188789848199042 0.1797350497075426 -0.15245357749704486 -0.27696921296115357 -0.3150757068445226 0.18504014507298727 0.033544086646245065
-0.02451352613176184 -0.03397181503623707 -0.09024622218533554 -0.16749598291910078 0.015164954075373696 -0.1115490935966857 0.07757281814383303 -0.30547015610493017
-0.26280671235348907 0.08117331704133475 -0.19619558632503642 0.3070667150122102 -0.22615903195624423 -0.04667710157080309 -0.2044977758801752 -0.04321877129885525
-0.027970621715898262 0.09423836979184644 0.10212535167159086 -0.15234683110280972 -0.1441538836485674 0.3031398171436842 -0.02222899698257876 0.17882540034952993

bias f8 [30]
00000000: 8ac5 1302 5b92 afbf 5c1c 500d c72a 9a3f
00000010: 9771 6e61 cbe8 b23f adfe f5e9 bcaf 5cbf
00000020: 3735 187a 4f97 a23f 5480 1240 e04e 90bf
00000030: 5f30 3750 f661 a4bf f043 c26e a1e6 b03f
00000040: c47d 9d5e 55fb a9bf fe85 b9b3 c028 a5bf
00000050: 4a84 5939 ff0f 843f 4baf 7421 ced2 87bf
00000060: 2ba5 7595 0d81 933f a947 4de5 b7c6 a53f
00000070: a037 53e0 3038 a6bf c665 6c41 ae71 b33f
00000080: 0073 9527 1972 94bf d414 f6c2 230f 9abf
00000090: 13bd 123c 3ab7 8b3f f5b4 933a 94b1 9c3f
000000a0: 4d8a 44a6 486c b8bf 8716 8465 162f 86bf
000000b0: c791 6a67 f690 6bbf a642 806a 262b ad3f
000000c0: 10b8 46d0 7fd2 94bf 257f d32c 417e ae3f
000000d0: f086 9b5c 371f b9bf 3f47 26a2 1981 92bf
000000e0: 5f64 42ec 0023 9abf 743f 2009 ffdb 853f
-0.06166347885472152 0.0255538083911485 0.07386466149040981 -0.00175088356613166 0.036310657171365106 -0.015925887976323175 -0.0398098919791614 0.06601914362023797
-0.050745647239405695 -0.04132654374985732 0.009796136796639616 -0.011632547756185515 0.01904698586205204 0.04253172563643599 -0.04339745272009954 0.07595337960483226
-0.01996650032139069 -0.0254483783478648 0.013533072431839465 0.0280211601975013 -0.09540227946539766 -0.010831999753018863 -0.003365021951440481 0.05696983385144465
-0.020334240996525976 0.059556996080344406 -0.09813257227827044 -0.018070602914640018 -0.02552415315640066 0.010673515764238785

weight f8 [30, 30]
00000000: 232d 4905 59e3 c53f 3e10 8cb1 567a c7bf
00000010: a05a bd94 58c4 c1bf 61e6 31c2 748c c5bf
00000020: 7c0c 24e8 7a01 d33f 7309 d239 a6e1 a13f
00000030: 1688 9775 5c89 c0bf 6cb5 52c6 5657 c9bf
00000040: b7f9 29ca c034 9e3f 3b55 7e42 e3b3 cdbf
00000050: 184b bc91 7999 bc3f 476e ff81 6689 d1bf
00000060: dbb7 6f08 3611 bc3f 1d7d ed60 1348 d23f
00000070: cb2e 9a72 4004 d0bf fed8 f0b7 0c1d 80bf
00000080: 1248 7f0b 731b b5bf fa0c 76b7 785c c4bf
00000090: 937f b9bb 9335 c1bf e8be 2778 cf66 d33f
000000a0: c5ea ae62 d841 ac3f 4184 82d4 1673 ccbf
000000b0: d5ff f283 1a61 c3bf 44e0 211a 201a c13f
000000c0: b11c 16bf cf7d c5bf bd5d 868f 47f6 aabf
000000d0: 4aae e19d 3ce3 c8bf 3701 7842 0697 b13f
000000e0: 36ae 782f 4e59 8a3f 3b79 189d 2361 9cbf
000000f0: aeb3 56e5 7c50 abbf f85f 472e 89b3 bb3f
00000100: 00fe 0d00 5c52 aebf f9ce 988d ca0e d2bf
00000110: e31f fe2f 450a b4bf 830e e165 23ee ba3f
00000120: c689 90ac da3d d23f badd 4cff b589 cf3f
00000130: 0f62 c45d d132 d53f 0015 e05c db42 b93f
00000140: 6e49 cac8 2c06 c63f 2487 0b72 f137 c93f
00000150: 7cde b282 cedc b2bf a559 f10b a3bc c13f
00000160: 25ec 5d2f 478c b63f dba3 8df8 c8de c03f
00000170: ca74 d0b6 440c b2bf a393 3f1a f457 d2bf
00000180: 2d24 f21b 8ab1 c43f fb53 02f8 9e15 c43f
00000190: a0dd 95a7 da44 b9bf 723f 4c45 7561 c13f
000001a0: 1849 6146 2533 c7bf 89e4 6992 491f a0bf
000001b0: 8420 ef82 ffad c5bf 1442 9705 2a87 adbf
000001c0: 9eb1 ea24 781b 90bf d81d bcdc 4e46 c7bf
000001d0: 014e 31ce ed80 c03f a673 0882 a3cc a2bf
000001e0: 093e 4599 ec22 c13f 230b e542 f1c9 c53f
000001f0: 6447 e20c 2bc9 c2bf d5ae 4ab1 e303 b3bf
00000200: deee 53ad 2003 c73f c414 e096 ecab b7bf
00000210: 993c 795f 0132 b7bf d81c d363 cec9 c43f
00000220: d370 3c4d bb04 933f f492 3ac3 55a4 ba3f
00000230: 78d2 0260 3804 c6bf 1eef 4815 ccd7 cbbf
00000240: 5190 e792 3051 d13f b9ee bd4f 2b1f d13f
00000250: 4c5e 31b5 75a5 c1bf b6c3 66cd 5b3a d33f
00000260: 95ec 671f 2e0b 92bf c04a c369 6e19 a93f
00000270: da41 809d 6169 cb3f 2266 878c 3a9f c4bf
00000280: 52c6 806f 90bf cabf c512 a8b8 b63f 71bf
00000290: 1a96 ab29 09f5 a0bf ee42 d20c 5af9 d33f
000002a0: 73ac ee18 a474 883f 9846 a995 3e69 a33f
000002b0: 12f7 3eba aa48 c73f 3bda d5dd 55b2 b63f
000002c0: 30d7 bbdb d867 be3f 40df c6de 7b19 633f
000002d0: e64a 35c3 e15d bcbf e936 d465 87df d2bf
000002e0: 5934 d162 b368 cbbf c71a 4d76 8611 cfbf
000002f0: fa8a 20a6 7dee c63f c96f 53d2 9c51 bcbf
00000300: fcb1 2b99 c1c3 c73f 9f42 aa8c deed cc3f
00000310: c8d0 911e 3a4e cc3f 10cb 01e6 921e c4bf
00000320: 75b1 8ffd 3ef1 bf3f 2bff 837f f0e4 8e3f
00000330: 0656 b8e6 2ba4 c3bf f7fa 5f29 cfec bf3f
00000340: 4941 1c0e 0a6b bfbf da91 26c2 e2cd c7bf
00000350: d435 4826 0598 d3bf 90ac a909 e2ec a9bf
00000360: cd6f 5fa1 7e2a bb3f 2498 3513 eb1c d3bf
00000370: fe91 e3cd 3a3a d03f b0f7 6c00 a912 b63f
00000380: 1535 1e86 2dd3 c53f 55d2 1a8e d31c c2bf
00000390: ef73 4e84 4d23 bd3f 5b5e b18d 47ac 703f
000003a0: 23b1 5372 8f47 d03f 4966 3cec 6be0 d2bf
000003b0: 2aa3 3c4d 4d20 d33f db4c 23e4 a7a6 c63f
000003c0: 6f11 5038 fa4d bf3f caf5 5989 e6da d03f
000003d0: ecdc e6d7 01f7 cd3f d3c0 460c ffe8 cd3f
000003e0: b5cd 5708 0c94 d1bf 943e dbd2 8a11 c2bf
000003f0: 29fc 5899 1802 c1bf 7067 3291 7d4a ba3f
00000400: a38d 0ed2 54f7 cd3f 8ec4 fe2c 0b1b 643f
00000410: 7c32 6b09 a69b c1bf 6847 9a2a ead2 b3bf
00000420: ad1e 1fce 24a9 d0bf d77b f4b3 7465 d03f
00000430: 9098 8bc8 4e12 d0bf 327d 6b17 020f a1bf
00000440: 3b9f 6340 877c 90bf 343e 196e c4fd babf
00000450: 123f 372c 6aa2 ab3f 5969 9c70 4587 bf3f
00000460: 42cc 99b9 a1f4 cbbf dfcf 5fb1 f4f2 cebf
00000470: 29da f30b 8ea4 cdbf 08ed f8ba 7219 d03f
00000480: 9251 e97f f970 b73f 2020 4c0c 7457 d1bf
00000490: e9bc 2d8c 2da7 ae3f 2b79 a633 9597 b4bf
000004a0: 9c61 a4eb 8b75 ccbf a176 b88a 30c5 a63f
000004b0: cf7b b46a e829 c7bf c5f3 93b5 be2b c13f
000004c0: 4533 c9e9 4ea3 c63f b80f fd29 181a a0bf
000004d0: 5e1b 8d7a 9022 933f dd08 e487 330f d33f
000004e0: 88f1 4586 71e4 aa3f a3e4 4d1b 8f02 c8bf
000004f0: 8a11 5927 3b1d cfbf d384 e1ec a3db adbf
00000500: d985 a5f3 9125 d2bf 32d8 0cb5 6734 c8bf
00000510: 16a6 0a9a 6900 d1bf 11dd 996a e4c0 d0bf
00000520: 86a5 fcca 33c1 c6bf 6d26 ed6c f71e ae3f
00000530: 97a0 4447 643b c23f e9df fbf0 6dee 8bbf
00000540: 1e4d 5aa0 2913 9dbf 56e7 e631 837a 443f
00000550: d72b 1677 a65d b23f f5ff 616b fb38 b9bf
00000560: 65c6 e86b 3288 d33f 6f13 04e4 4c03 ca3f
00000570: 3dee a0bb a070 b93f fa41 b32f a6f3 c93f
00000580: eeb7 96dd 6128 c1bf 5b70 3d0c 9442 c8bf
00000590: ff0c 004d e5dd 603f 5c0f 8e9c 9a33 c33f
000005a0: c0d1 a1e5 e897 c0bf e268 1529 26e4 cabf
000005b0: 87b2 19ac b7a1 9cbf 5762 f41f dee7 c23f
000005c0: 73e6 c810 f3ef b3bf f0a1 c550 6539 c5bf
000005d0: 9561 9f5a ba93 d33f ff6f 7400 bc9d d13f
000005e0: 95b3 a1ed 7039 d3bf 2155 417d dd59 d53f
000005f0: 0f8a ff2b f61d ac3f b730 183a aecc d03f
00000600: 1e2a 9839 cb52 a0bf 902c aa7c e686 91bf
00000610: 7881 01ca ee04 c53f 1aa0 caab 178c 923f
00000620: c806 878b b7f1 c63f 5fd5 cfc8 ee94 d03f
00000630: 62d6 3aec ec1f aabf 5332 e154 b0f9 b53f
00000640: d7ca 2656 5f2d 71bf b009 057a 4af2 c73f
00000650: 0cfe b9bd 8874 d13f 4436 da2e 0f71 c73f
00000660: dc62 12f0 b7fe 8bbf 141c 5ef4 001b a3bf
00000670: 8b83 8eb1 52be a1bf a642 2efd 4815 d03f
00000680: 6f69 ceb0 f2d3 c63f 4074 cd39 2626 b2bf
00000690: d558 164c 0aba abbf 5d62 cf7a 1be9 d13f
000006a0: b96a dc8d 3f5a c23f 10be d67f ece5 c2bf
000006b0: 183c 53ad a08d ce3f 95df c20e 6e93 ae3f
000006c0: 49d6 ed26 0ad6 c5bf 0382 3a16 3e8b c9bf
000006d0: d577 8563 38e7 a53f 0b4a e9a8 1c06 b1bf
000006e0: d834 5d18 107c c43f 54f6 a009 4645 c7bf
000006f0: 7574 92a7 edda ba3f 4a1f 565b 2d87 b73f
00000700: 5230 87dd 95d7 c93f 64ab 9210 21d9 cbbf
00000710: 2b41 37a2 8fbb cc3f 6682 6f6e 1fb6 b6bf
00000720: b30f 33e1 6821 b33f 9b66 ddc7 b90b a8bf
00000730: f6c9 986c c475 c43f 63f3 3f55 bc8b cb3f
00000740: 09e9 fda1 d497 d33f 96fd f351 7dcc c93f
00000750: d9dc 71e9 50b1 ccbf 032f d1d7 d11f b5bf
00000760: c764 28a5 4d15 b3bf 117d bcb4 e48f 953f
00000770: e88c bd51 05ac cfbf 4055 f079 af73 c7bf
00000780: bb4e 2114 1fde c2bf 0d2f 719e a45f c8bf
00000790: 163e e3cf e382 c9bf 1d65 0970 996b d1bf
000007a0: 3f70 722b 03b8 b8bf 4fa3 25ad 9b40 b6bf
000007b0: 5c7a 3781 3df8 c33f fa8d 2c8f 941a b83f
000007c0: 0919 415f c660 c7bf 3670 e674 cee5 acbf
000007d0: b6ff 93eb 835a ccbf 90e5 4679 7762 d0bf
000007e0: 1ea3 56dd d41f cdbf 1825 095d 90d8 cbbf
000007f0: 7661 fa54 993d a83f 9d91 c3ee 6535 c2bf
0.1710006023225584 -0.18342097920697314 -0.13880450499228392 -0.16834887964414505 0.29696533842088235 0.03492469268623468 -0.12919193021576864 -0.19797787364715747
0.029498112048253335 -0.23205223795654625 0.11171684082027544 -0.2740112561711822 0.10963762002913262 0.28564915147394904 -0.2502595061457497 -0.007867907870700904
-0.08245009451573562 -0.15907200773299462 -0.1344475428222692 0.3031500504866771 0.055189859434411605 -0.22226224304634637 -0.1514008659632952 0.13360978389732925
-0.16790196257008952 -0.052660213728070705 -0.19443471631108117 0.06871070025227231 0.01286564905520669 -0.027714306319574816 -0.05334844874901222 0.10820824985364641
-0.05922210217158508 -0.2821527846128756 -0.07828171178527969 0.10519620168002501 0.2850252804948038 0.2463901039679806 0.331226674622969 0.09867640511955145
0.1720634441777053 0.1970197493420126 -0.07368174258123789 0.13856924136298435 0.08807797342699127 0.13179885994330118 -0.07049970114936169 -0.28661825717272843
0.16166807522339025 0.15690981969660797 -0.0987068804878306 0.13578668483432527 -0.18124834000133982 -0.03148870384479447 -0.1693725003553973 -0.05767184561011987
-0.015729787114354125 -0.18183313158100023 0.12893459861753345 -0.036717519400759444 0.133878302420712 0.1702252937921794 -0.14676416520211 -0.07427809790049918
0.1797829481437167 -0.09246710475425163 -0.09060677128694507 0.16240863680125162 0.01857273730193827 0.1040700532563042 -0.17200379074133187 -0.21752310790349666
0.27058042856356673 0.2675274161081052 -0.13786193225199594 0.3004369264481811 -0.017620773951403896 0.049022150431161204 0.21415348234633208 -0.16110927449953844
-0.208971075482213 -0.004211152796874178 -0.033119474732114365 0.3120942235191667 0.011941225062250127 0.03791232659262994 0.18190511793175596 0.08865868249800084
0.11877208103745995 0.002331487592723308 -0.11080752387833179 -0.2948931211875406 -0.21413271260317648 -0.24272232796120916 0.1791531621139127 -0.11062030920896783
0.18566150645291646 0.22600919598018707 0.2211372994676195 -0.15718303900538233 0.12477487268887962 0.015085104838817273 -0.15344761624935205 0.1247071720135685
-0.12272703976146206 -0.18597063522351115 -0.30615357149585276 -0.05063539855913135 0.10611716689839952 -0.2986400306311927 0.25355405908911155 0.08622223148719743
0.17050713585596414 -0.14150471152028624 0.11381992797983263 0.004070548539935349 0.25436769642580453 -0.29494760579982376 0.2988465551630265 0.1769609321550892
0.1222835910303439 0.26336062825415907 0.23410056154327863 0.23367298221047025 -0.27466107191795724 -0.14116034789775667 -0.13287646758723895 0.10269913477750747
0.23411045319253984 0.002454301669751197 -0.1375625177373826 -0.07743705310920534 -0.2603237164407613 0.25619237493259334 -0.25111741623403194 -0.033317628249046286
-0.016100037865640387 -0.10543468177751764 0.053973501107632896 0.12315782546321453 -0.21840306818521255 -0.24178942356922925 -0.23158431609745492 0.2515532327558536
0.09156760571324288 -0.2709627266017396 0.059869216310170455 -0.08043797026627846 -0.2223372364612829 0.04447318738332951 -0.18096642694669504 0.13414749017820618
0.17685877242402107 -0.031449084401657 0.01868654010766179 0.2978028132494169 0.05252413524701455 -0.18757809479919726 -0.24307956143651338 -0.05831634775746299
-0.28354309838877395 -0.18909927692738077 -0.26565017741322217 -0.26177320871598037 -0.17777106677503357 0.0588300056902654 0.14243749122511382 -0.013638361851448582
-0.028393412029413694 0.0006249561882249826 0.07174148948085644 -0.09852572795534782 0.305187802677301 0.2032257188185684 0.09937481480385997 0.20274808243858883
-0.13404486961138623 -0.18953180883079565 0.0020589331179522437 0.15001232761653227 -0.12963591778283323 -0.21008755689655972 -0.027960653189824682 0.14770103988918734
-0.07788008842262588 -0.16581407970376416 0.30589159822331996 0.2752523426477182 -0.30038092809882616 0.33360993606523165 0.05491608893477828 0.26249271081247677
-0.03188166692787696 -0.017116166457111393 0.16421303618973204 0.018112535343476656 0.17925161660064348 0.2590901337674349 -0.051024822079324364 0.08584119865663213
-0.004193661125486434 0.1870816322135176 0.2727376797483607 0.18313779628481275 -0.013669430745993187 -0.037315397100478404 -0.034655174421693045 0.25129914021185085
0.17834313996429382 -0.07089461241908257 -0.054153749263763075 0.2798527430836993 0.1433791582756692 -0.14764171831255668 0.23869713271275894 0.05971855096998905
-0.1705944719393975 -0.19956184468630064 0.042779695652583584 -0.06649951099215216 0.1600360983815452 -0.1818015620246337 0.10490308133235422 0.09190638999836867
0.20189164463806947 -0.21756375607705103 0.22447390957541677 -0.08871647306615102 0.07472854135545397 -0.046964460036815946 0.1598439722307174 0.21520189440334567
0.3061420041991743 0.20155302526107438 -0.22416125677748402 -0.08251678008053535 -0.07454381258175423 0.02105672219397287 -0.24743715754730222 -0.18321793989222535
-0.14740360720553788 -0.19041879402572484 -0.19930694247021624 -0.2721923441036596 -0.09655780611723318 -0.08692334153387303 0.1560131913128825 0.09415558333835597
-0.18264083529556555 -0.056440784235036665 -0.22151230814779205 -0.2560099300713654 -0.22753392035999637 -0.2175465063358295 0.047344962714478564 -0.1422545829619936

bias f8 [30]
00000000: 3ec5 acb9 c903 b93f ad48 2681 ad6e 6e3f
00000010: ff04 e48a 1a49 9a3f 4fab 6e9a 643a 8abf
00000020: 5bb4 9e12 67f6 6b3f 9b0d 3ff3 7044 943f
00000030: 78cd 212b ec0a 77bf 280e 73c6 3fc0 16bf
00000040: 55f8 2441 cc13 54bf da67 d342 f015 983f
00000050: 36b3 7b3c 53ae 9fbf 374e 0ed5 1e8e 843f
00000060: 3492 1a1d c722 65bf 8c03 b66d 3ef7 663f
00000070: d398 0e04 97c3 8fbf cd84 5b8a 39dd 66bf
00000080: 25d7 2188 1d38 ad3f 2297 c851 1771 c2bf
00000090: 1c35 c02c 8363 913f 7eb8 d4ed f137 7cbf
000000a0: ca5a 4c26 7641 88bf 4cdd 8875 ca2e 59bf
000000b0: 39cb 7001 3f79 733f f8a2 169c 348d 76bf
000000c0: 536e 5900 2eb3 8b3f ffd9 7ad5 9ced 9cbf
000000d0: f0d5 2d43 be02 a53f 987d 3a31 4b6d a0bf
000000e0: 3185 7195 1a51 833f 84c3 69a1 f85c 6e3f
0.09771405013159026 0.0037148846396997865 0.025669493415084507 -0.012806688273334336 0.00341339236634623 0.01979233250291444 -0.00562565091432831 -8.678807499778367e-05
-0.0012254233048021497 0.023521188811038353 -0.030938435141183628 0.01003669822401952 -0.0025800599040215703 0.002803441935327949 -0.015509776889143378 -0.002791035064419667
0.05706875120897185 -0.14407626622522068 0.016981172186253266 -0.0068892908432599525 -0.011843607944269325 -0.0015370347156372253 0.004754301181537462 -0.0055057578150943184
0.013525351892148018 -0.028250170259264348 0.041036554050986385 -0.03208384490903454 0.009432037053729832 0.0037064415039868587

weight f8 [1, 30]
00000000: 7478 6402 7863 d1bf 6ba5 cb78 80c3 cc3f
00000010: e631 f731 afab bf3f 8fac e4d4 5451 a53f
00000020: de7c c735 8650 c0bf 0bff 01cc 86dd b2bf
00000030: ba7a 3548 bd04 d1bf 87db 6c72 fe22 a8bf
00000040: 61ab 273e d661 8b3f 5f26 d7af 6539 d53f
00000050: 3944 c5ea 81ba c3bf f5fa 0c49 dedd cf3f
00000060: 3c9a b850 c454 a83f 12d2 e278 bbfc c7bf
00000070: 91d6 e432 668a a9bf 9466 67d2 4a49 c63f
00000080: 2cb0 35d5 fc7f d53f 876a 902f 0f73 d73f
00000090: 6426 b54f 2270 ab3f 91fa 03c1 5dfd 983f
000000a0: 498b c149 5b28 babf 0729 bdf8 8004 c0bf
000000b0: 6a46 cb7e 14cd c73f 5d7f c661 c698 b03f
000000c0: f57f 66e2 c30a ca3f 3886 0840 8200 d03f
000000d0: c33e 54db 6911 d2bf 9005 f39d a1eb c5bf
000000e0: 831a 0343 6c1b cd3f c22f 34e5 3c09 91bf
-0.27169609292639696 0.2247162427732222 0.1237134453760472 0.041636134136148965 -0.12745740533771416 -0.0736927269044793 -0.2659142689862325 -0.047141982524798336
0.013370202800577937 0.33162824794690055 -0.15412925685316894 0.24895838324479028 0.04752171979298622 -0.18740027811658472 -0.04988402720702568 0.17411170266750686
0.3359367448927084 0.3663976635449803 0.05358988974564907 0.024404015451177378 -0.10217829275783887 -0.12513744492964227 0.1859460467444934 0.0648311604222704
0.20345352701860944 0.25003105405093917 -0.2823128358731816 -0.17125339710586873 0.22739938041759808 -0.016636802186482454

bias f8 [1]
00000000: 0000 0000 0000 0000
0.0
