AONN_BFGS/BFGSNN/steady_NS/results/AONN/AONN_t1/u.pt (torch, 19603 bytes, 8 tensors)

weight f8 [30, 2]
00000000: c205 44cf 80cb b83f dc85 eb98 a150 d9bf
00000010: b240 9ad4 040b a23f e0f3 c894 6066 d6bf
00000020: 7aeb 406a e96f e0bf 6007 85ba 374d b2bf
00000030: cd4e 5596 eb58 e33f a20f 0299 5270 d03f
00000040: 383b f5c3 348f dcbf 9b1f 0423 4a2e c0bf
00000050: 3294 46c3 f0be dc3f bfc8 906a 3752 c53f
00000060: c37e 35a9 cfe7 cdbf 2906 271e cceb d7bf
00000070: 2c55 d09e 7879 b7bf 0ce6 26ca e6dc c9bf
00000080: 6f33 a3ae 3bdb d73f ac9d 5bf1 752f d5bf
00000090: 9bd5 662c 0d02 c0bf d573 f478 2c77 dc3f
000000a0: a867 9d3d 19bb debf ff15 3b91 6c08 cfbf
000000b0: 380c c916 d51c 70bf 5936 19fd b288 c33f
000000c0: 67d2 1cb6 d437 a4bf 05d5 57ab f648 d4bf
000000d0: d35c d9cf a642 d9bf 99cc 8224 4976 bd3f
000000e0: e157 e071 a51f e1bf 695a 58eb 1279 b33f
000000f0: 7be7 29ea d2d2 d73f 0f38 72c4 45cf c8bf
00000100: 0a10 ef1d 7573 93bf 6f05 58e7 f744 c23f
00000110: 81d1 92f2 5f4e d6bf fbdd 66bf 8877 d23f
00000120: 05a7 53f3 8cd5 d3bf b376 6990 bce8 d1bf
00000130: 0aeb e033 1b2c e2bf 3693 46e9 1a90 e13f
00000140: 28b7 433a 4b68 be3f 278c 7a18 1f72 e1bf
00000150: 1b35 acad b0cd db3f 39fc f6b1 d7d5 b83f
00000160: 3da1 b86e 249b b63f ec79 55c3 e1fe b9bf
00000170: f415 2c00 56c7 b0bf 860d 2357 ce96 e03f
00000180: 5e82 9521 beda d23f 02e3 0026 098c d03f
00000190: b6e8 1d57 95e2 ccbf b75a 1ba7 0673 d13f
000001a0: 30db c24a b4c2 aa3f 7e5a 388a a413 e2bf
000001b0: 6e68 39b2 0cd0 e0bf 70f4 dc63 9be8 5bbf
000001c0: 3d43 bdb8 b4b7 e03f ee24 5f95 9009 d2bf
000001d0: 4d6b 05a8 393c dabf 902c cd29 45c9 e9bf
0.09685521183202808 -0.39554634030909397 0.03524031729932754 -0.3499986126878962 -0.5136611056581011 -0.07149074844076386 0.6046045242496462 0.25685563032333836
-0.4462406076099117 -0.12641264638682234 0.4491540820111509 0.1665715475406326 -0.2336368156638767 -0.37376692719053267 -0.09169725301065473 -0.2020538794584329
0.37275592855876644 -0.3310217720995421 -0.12506260555316548 0.4447737866592523 -0.4801695920665403 -0.2424445828566348 -0.003933746699263323 0.15260922773670663
-0.03948845599226019 -0.3169533417961506 -0.3946930913711643 0.11508614674930796 -0.5351130699298176 0.07606619115572645 0.37224266879604045 -0.19382545559022943
-0.018995122863785276 0.1427297477348861 -0.34853361786669984 0.28854578677734793 -0.3099090934980356 -0.27983011343699643 -0.5678840649846688 0.5488409572759341
0.11877889797662233 -0.5451808431720381 0.4344293304464643 0.09701297850459491 0.08830478385119007 -0.10154543894666518 -0.06554162506298394 0.5184089376347607
0.29460099487008573 0.2585471030356957 -0.22566477540732927 0.27264562911060913 0.05226672566043644 -0.5648977946865015 -0.5253966790144327 -0.0017034070474004868
0.522425041979751 -0.28183378779483703 -0.40992585571591605 -0.805819112437705

bias f8 [30]
00000000: 433f edc8 889d b43f afc8 c14b 9311 9abf
00000010: 4779 f8b4 f127 ca3f a8c9 0e64 07d0 e2bf
00000020: bdf9 6af1 357a 873f d449 25a4 49a2 d5bf
00000030: a00f 3466 a9e4 d53f 5970 5728 6a8b 85bf
00000040: d2ba ce13 8556 933f 7217 8487 cd69 b0bf
00000050: a138 0b55 ef7a df3f cdc0 a647 cbcf c1bf
00000060: e016 0a46 62dd b43f f378 80ae cd57 ca3f
00000070: a809 206c f56a dd3f 9c59 ffb2 479d c4bf
00000080: 2e4a 508e 25fe a6bf 4ad3 d2e0 94b1 823f
00000090: 3f42 ddb6 a950 bebf 5836 4eb7 cceb c0bf
000000a0: 03be b7e1 ff69 d13f 8105 d4f6 ff9f 993f
000000b0: 6126 69f2 7336 ba3f 3ab6 7318 80cb 883f
000000c0: c066 4c0b e0f9 b7bf 306b 8645 7b9d c2bf
000000d0: 8229 3a39 4284 e93f b759 3772 f897 d13f
000000e0: 5497 52b4 e647 97bf b692 350e 90db d33f
0.08052878289640568 -0.02545766973384705 0.20434399925665955 -0.5878941492322172 0.011463567190159613 -0.338030252741331 0.3420814035491677 -0.010519818645598077
0.018884734472232996 -0.06411442335601494 0.49187835030614663 -0.13915387152292738 0.08150304994532176 0.20580454845998694 0.4596532398137705 -0.16104980697737126
-0.0449077354643531 0.009127772437162247 -0.11841831888637787 -0.13219603491272625 0.27209469835995054 0.0250244135286315 0.10239338558417323 0.012106896158424186
-0.0936565425476159 -0.14543095488337476 0.7973948590964002 0.27490054277350445 -0.022735218769091972 0.31027604472755443

weight f8 [30, 30]
00000000: 4fae cf1b db68 d4bf 8cb6 099b 8bdf d0bf
00000010: 8570 f304 0d7e bbbf 533d cc7a 76b7 d93f
00000020: 0b42 6821 f4a1 b53f 02fa 5041 2a69 bebf
00000030: 9c20 83e5 15a4 b63f b2df 6647 55b4 c43f
00000040: 6b00 b5a0 9ac3 cd3f 8a40 84e8 99f4 bfbf
00000050: 6a6e c9db 5c5e afbf cae6 049c 3a98 d33f
00000060: bd3d 99a8 b979 d5bf 444e 6be5 7b44 d1bf
00000070: 611b 3625 4f48 d2bf b386 bdf6 4ed5 973f
00000080: 3f18 9fbb 5c39 d33f 6902 c658 5370 d2bf
00000090: f44f 0258 86cd c3bf fdf0 2987 d255 d73f
000000a0: c0cc a0fb 4356 c53f 66c2 8ec4 16e2 d13f
000000b0: 90f4 c7f5 1b53 a8bf 6038 8f0c ffb8 be3f
000000c0: 5ad3 6d32 f21d db3f 6a8c 9500 0993 6abf
000000d0: e1ff 0d90 7ebc c0bf bad1 68ca 44d8 d0bf
000000e0: e036 3017 68d0 c0bf d26b 61b0 9bff bb3f
000000f0: 46d2 72a9 43ae cebf 7244 c555 ec0f d73f
00000100: 3cda a697 159f b73f efd1 213a c724 783f
00000110: 936f 8179 0d51 bb3f c604 a4af 381b bd3f
00000120: 8a19 20a1 3599 d83f 8705 ac1c 9cca ce3f
00000130: f0a6 e616 1641 c03f 5348 79ba c511 a2bf
00000140: c665 e02b 5498 c53f 364e 58d3 be2a b43f
00000150: b16e bba7 66d1 cf3f d18c 17db da15 cf3f
00000160: b3ea 7c3e b5b1 b2bf 01b4 1bea 8668 5abf
00000170: eac2 2298 41a0 cd3f 053c d1a3 1f3c d53f
00000180: edb7 4830 68ac c73f dfce 35ea ca7b ccbf
00000190: 048e 56e6 769a d63f a951 0302 c5f5 cebf
000001a0: b35a 778f d4a5 98bf 9761 dd0d 2cfa d3bf
000001b0: 9d3f 5b89 c6df a63f fc50 2b5b 94b5 cf3f
000001c0: 29d7 eaff c8bf c5bf e436 3614 d671 d13f
000001d0: 8a9b fe4e 7eaa cebf 102f 26d4 1cce b23f
000001e0: 5b51 ffea 7fb3 d03f d48e 4d6f 542b d0bf
000001f0: 787f 9f00 1b68 d03f 2fe2 13e9 7a3a cfbf
00000200: d844 1866 1aa0 c93f 34c4 3f09 3048 c23f
00000210: 27e4 0a0a 14d8 a63f 3be7 440f 6107 d03f
00000220: 32cb e33d 4938 b93f 2617 1cfb 1c02 a2bf
00000230: efac 3538 edc9 d03f 931a 8807 d299 bbbf
00000240: f141 cd1c a6c5 d13f affe 45c7 7325 c63f
00000250: 81d6 f462 1563 b3bf c945 ffb9 eb75 d53f
00000260: 38c0 843b 37d6 a4bf e218 62c3 f087 bd3f
00000270: e0ae 4fa5 2be1 91bf 14bc d1b4 3010 cb3f
00000280: 40ae 6ddb 9123 bcbf 73c2 3da7 6492 b33f
00000290: 896f b168 2f2d c9bf 17c1 5383 2e71 cb3f
000002a0: 237e 8810 17f9 9e3f dfd9 50a2 5baf c73f
000002b0: 1b2c 4688 5e05 cc3f 9c75 58c2 cf65 c6bf
000002c0: eaa3 6a9b 4dcf b13f da1c 531b 8349 bc3f
000002d0: cb5b f79b 638a cabf 1c2c 6d72 9238 c1bf
000002e0: 9c62 161f 4987 d6bf 20fc 477a d43c abbf
000002f0: 9bf0 ceaa 5032 c13f e64e e128 8071 a83f
00000300: 1a07 45ec dc73 d2bf 9a57 4798 8bcc c13f
00000310: ec12 9600 381b cbbf afe2 067b af42 c73f
00000320: 1ed3 18e5 6dc9 97bf 7229 020c 1387 ba3f
00000330: 88b8 8255 7ac4 c13f 5f17 0bee 92ea cf3f
00000340: fe90 ae07 437d c2bf f09c 0c12 f429 cd3f
00000350: cf4e d04c 2fb4 d1bf 3846 136c a7b0 7cbf
00000360: 6e76 40a4 a68c d0bf 554d 4d6b 7868 c5bf
00000370: 000b bad9 c4da cc3f 9667 0b1e ace1 b5bf
00000380: 1be9 d3ff 5af4 b83f b32d 30bf a079 c4bf
00000390: 3b72 8067 2243 be3f 716c 1ede 0cae 883f
000003a0: 4c13 7343 a909 983f f35e 1c35 6c1f 92bf
000003b0: 0706 dddd 4263 b6bf 0c23 caa2 6df6 d7bf
000003c0: ce85 d0c5 b66a c23f 63ad 667f 7a17 cd3f
000003d0: 0087 046e 6649 d6bf 89a7 86f2 8376 de3f
000003e0: d144 7906 11da cdbf 7e44 3dc2 e765 cb3f
000003f0: 5457 125c 192b cebf 18ab 0bc2 4019 b33f
00000400: 73da 5e3b 7dc7 ba3f 5f6c e720 a342 c83f
00000410: 2449 87cf 5a63 dcbf 5278 d999 6706 a03f
00000420: 1abe 1fc8 99ba cebf ecfb 65d1 0ca5 d2bf
00000430: 0560 e4f3 49f3 d5bf 3171 91e6 b977 92bf
00000440: 61a1 f88a 97e3 b73f 5435 ebf5 6471 d4bf
00000450: 56e8 fc03 0fda be3f 3da2 f12f 4360 d8bf
00000460: d12d 9b54 c042 d2bf 045d 4d72 ac08 d93f
00000470: 0a54 21d8 3ad8 b73f d69b e9dd 8f2d b63f
00000480: b7e1 8244 42c3 d73f b7c5 fa99 d7d8 adbf
00000490: 9e4c be3a 9935 c1bf 7d7f e478 e7c3 d7bf
000004a0: d1c1 9c5e 996d c93f e5cf 6083 5dea bbbf
000004b0: fb5a 8b0e 4b5a ba3f 0f07 740e 64fd b6bf
000004c0: f31e 142f 5654 c7bf 6ca2 c0e2 9717 a43f
000004d0: d2ab 344a 5ab5 d7bf 218c 7172 eaa0 c73f
000004e0: 1e68 d0c4 80f6 3cbf 4b40 8d22 ee08 d03f
000004f0: cc83 b994 1da2 c53f 3567 074c 5aba a33f
00000500: c6e3 676a 8f54 923f 6e36 0e8f 4b73 a23f
00000510: 5500 af2e 0e63 b33f 00a0 fe45 0eef cdbf
00000520: 1d8a b701 a16e b53f cab4 e386 9f7e 6fbf
00000530: ad50 10de 01c5 bf3f 6cc4 3047 b6ce c4bf
00000540: 0369 5017 ab8d d5bf 8cab 97bb 5782 9b3f
00000550: 54e4 2f2a 32d3 ce3f c312 8c38 b1e4 9f3f
00000560: 1f21 b5af b2b7 d23f 91c2 c222 8de5 c9bf
00000570: a517 6c88 5f7d 7e3f ad95 0f91 6b2c cdbf
00000580: 2b57 4c9e 7c98 cc3f cf19 1632 f9a5 c93f
00000590: 1114 7740 1335 b63f defd b976 221a c03f
000005a0: c40c 6d71 033a b2bf 8c95 3ebb 4afe bebf
000005b0: b553 212a fff6 d93f ffaa 3e43 abac d7bf
000005c0: d8d8 9c78 0956 94bf 1295 930b 6b82 dabf
000005d0: a514 3e1c 9c8f c63f 488b 0950 b46b ca3f
000005e0: 9cb3 ee69 fefa d23f f59d 468a 058f d4bf
000005f0: 35a3 9e54 8d93 dd3f 4696 b383 3205 d5bf
00000600: 2d35 7c69 1d37 8abf d9c0 6349 13dc c23f
00000610: bcd2 b1cd 9493 c83f 8b7d 1e30 5d7c d2bf
00000620: d74b a25b e0f9 8b3f 0072 8cac c95e b2bf
00000630: c5be aa8c 448e a5bf bd34 5ba8 9090 d2bf
00000640: dd9c 56c4 9004 ab3f b40d 7dee a0fc a83f
00000650: 5ad2 f71d cc21 d33f 5ba9 492b 3b51 bbbf
00000660: 9757 0169 7bf4 91bf 0cb3 0a3f 84cb 84bf
00000670: 1570 16ed 43a5 953f 1df9 fb08 0679 ce3f
00000680: 7679 86f3 b04e c3bf e14d 6a60 1c90 723f
00000690: 455d 439c 148a d2bf 31b4 8c7b 09ff ccbf
000006a0: f4b9 0c62 e4af cb3f 3ac9 5f47 84e2 d93f
000006b0: ed91 01a3 34ce b0bf e3f3 5d55 98ed 9dbf
000006c0: 70c9 3d85 0853 c3bf 1ba7 226d 3250 b73f
000006d0: 9b70 4f99 3d8e c53f 4905 475b 62bf c33f
000006e0: 6237 4d0c 60b3 d8bf 6610 a3af b067 c5bf
000006f0: 2c9b a0a7 aab0 81bf 25f2 9680 21bd cdbf
00000700: 4ec7 bebb 4391 b0bf c340 1ada 30c4 b3bf
00000710: 4517 9e08 3d59 ca3f dee3 e9d2 c39e b63f
00000720: 2b7c 89f9 3b49 b13f ef59 d62f 8946 9f3f
00000730: 741d 9c6a 5877 d3bf 5161 e23e 7013 d63f
00000740: 2d1c cd27 127e c2bf 21c3 b578 f019 d33f
00000750: c69b 77d3 be6e d43f 6a12 23da 3f64 cc3f
00000760: 629d ca21 edc8 af3f 5973 f845 60dc d1bf
00000770: f143 8f6a 7824 b7bf c755 438d 1c93 babf
00000780: e364 f071 d0ca bd3f ff10 3f35 33e4 97bf
00000790: c249 e977 203a bdbf 143b 7d86 470e c9bf
000007a0: 88ed e2ae 36fb ca3f 1b2a a9a0 81d0 c2bf
000007b0: 8d36 c67b 198a d13f 5113 44f6 d302 cfbf
000007c0: bbac 8963 5b07 da3f ed0f cdb1 238a b9bf
000007d0: 6701 255a 3846 cf3f e91f 5ff8 7672 c43f
000007e0: 1877 4bb5 9df0 c93f b034 9272 53fb d5bf
000007f0: a34d ec15 ba27 d3bf 7360 2e86 94b9 703f
-0.31889989582007144 -0.26364412441658014 -0.10739213343498662 0.40182268135045723 0.08450246635062102 -0.11879219145428269 0.08844124654126734 0.16175333010118959
0.23253186080001184 -0.12482606817889255 -0.061266805486153 0.30616631733174116 -0.33555451836306444 -0.26980492977347503 -0.2856634009735242 0.02327464467032909
0.300376113151632 -0.28810580891880605 -0.15470961854282417 0.3646131820639907 0.16669511591462616 0.2794243735798204 -0.04750907302148122 0.12001031929614348
0.4237027637930645 -0.0032439399553126263 -0.13075239213867376 -0.26319999472186917 -0.1313600648140243 0.10936902099767501 -0.23969312452176633 0.3603468740084913
0.09227118446765642 0.00589444945409355 0.10670551506467367 0.11369661605933165 0.38435116515065515 0.24055816078184142 0.12698627584659716 -0.03529184247294439
0.1687112058869344 0.07877724323071153 0.2485779112820317 0.2428544587884063 -0.07302410865387791 -0.0016118352436322871 0.23145313194756706 0.3317946529177223
0.18494894368762918 -0.22252785144848183 0.3531777619739105 -0.24187529180802628 -0.024070092445834756 -0.3121442923925541 0.04467602183069561 0.24772886706944763
-0.16991531845058575 0.2725730130558601 -0.2395780454364423 0.07345752887175316 0.2609557909866191 -0.2526446425383544 0.2563540941318858 -0.24397217159982307
0.20019845948312454 0.14282799197784046 0.044617296434303726 0.25045038691643 0.09851510773641506 -0.03517237248710918 0.26232462395883166 -0.10781586345556553
0.2776885300891357 0.17301795225283942 -0.07573064485480964 0.3353223148706915 -0.04069683648629091 0.11535553712937799 -0.01746051975707885 0.2114315874964353
-0.10991775138034487 0.07645253260649003 -0.1966914426037614 0.21439153110942108 0.03024707830820551 0.18503899980141988 0.2189138570214205 -0.17498204221275848
0.06956944507932375 0.11049670617204602 -0.20734830012835767 -0.13453894221524443 -0.3520071796024611 -0.05319847099962538 0.13434799518825433 0.047740941038368054
-0.2883217150994014 0.13905472693903392 -0.2117681506025727 0.18172257907078435 -0.02322932921215958 0.10362357180762219 0.1388085286648144 0.24934612868508574
-0.1444476878651883 0.22784281617462154 -0.276622605336553 -0.0070044078758698045 -0.2585846523305467 -0.1672506832061155 0.2254262984389115 -0.08547473653325563
0.09747856851382546 -0.1599617894683952 0.11821188952348731 0.012050724533585662 0.023474354497710778 -0.017697993032100134 -0.08745210568033467 -0.3744157876722489
0.14388165148652238 0.2272790071559526 -0.34822998756327195 0.47598360714129534 -0.23321736160372677 0.214047403186246 -0.23569027896581451 0.07460407960358528
0.10460646342731099 0.18953360659256455 -0.4435641314168086 0.03129886391683158 -0.24006960174254816 -0.2913238568216332 -0.34297417466723373 -0.018034844110261964
0.09331652777530543 -0.3194210435438738 0.12051481101380665 -0.38087539369601925 -0.2853241754753216 0.3911543956978252 0.0931431558286279 0.08663272064005353
0.3712926549010506 -0.058294999643645644 -0.13444819801643332 -0.3713320427505023 0.19865719909422677 -0.10904488046145351 0.10294026475035516 -0.08980393746244551
-0.18226125048408157 0.039242502622362035 -0.3704438900628563 0.18459826076568311 -0.0004419388176885047 0.2505450570506624 0.169009873980967 0.038531133442758415
0.01790069662999707 0.036035882199127 0.07573021545158672 -0.2338579026957177 0.08371931354444269 -0.0038445583114624414 0.1240998427531987 -0.1625583503351068
-0.3367717483212262 0.026864405464873495 0.24082018909374148 0.0311458292735718 0.2924620357412255 -0.20231785008720185 0.007443783927333946 -0.22791809638071694
0.22340352754025025 0.20037760682698866 0.08674736331802559 0.1257975654334435 -0.07119771498860233 -0.12106768676183871 0.4057004844119619 -0.36991387907862355
-0.019859455095876694 -0.4142100918819135 0.176257623472485 0.20641187580175768 0.2965694460388535 -0.321229348216064 0.46213086379661955 -0.3284422193667961
-0.012800435811664979 0.14734116633872565 0.1920038227432509 -0.28884057711726346 0.013660195156523542 -0.07175884688007983 -0.04210104195715084 -0.2900735515693887
0.052769206969338824 0.04880240355717139 0.2989378254563114 -0.10670823866681671 -0.017534187587748908 -0.010153802083857431 0.02113824972694552 0.238068346392489
-0.15083896532901137 0.004531966062717414 -0.2896777654654737 -0.22653311283775815 0.21630530154784788 0.4044504830373118 -0.06564644794122616 -0.029226665697468134
-0.15097147470403227 0.09106745876729543 0.16840333925108983 0.15427808243661392 -0.38594819260912605 -0.167226873169173 -0.008637746086674968 -0.2323343160513939
-0.06471656163810488 -0.07721238446015648 0.20584834023264356 0.08836006068476318 0.06752371637547643 0.030542510552175214 -0.3041592637168471 0.34493642941517516
-0.14447237914484515 0.29845821178519044 0.3192593636617257 0.2218093695756978 0.06207982099050004 -0.27907568772370933 -0.09040024377397039 -0.10380724381260285
0.11637594968523816 -0.023331451535129052 -0.11416819503327871 -0.19574827257971406 0.2107914308488541 -0.1469881090618664 0.27405392730074923 -0.24227380299285042
0.4066990348862409 -0.09976409045071906 0.24433044816579327 0.15974318625944697 0.2026555190304229 -0.3434647196634826 -0.29929973736690324 0.0040832330440921825

bias f8 [30]
00000000: 5182 fe6b 4eb8 b8bf 74de e28f 19f4 adbf
00000010: 84c2 3ee2 a67a bc3f a0d5 417f 0069 9ebf
00000020: 27e9 a9fc 5de9 bdbf 5ef3 1a9f 6536 91bf
00000030: 63e9 9983 f456 d43f 754e 8b3d 28b3 533f
00000040: dcbf 0d79 5ad1 c03f 67e4 b0d0 f125 7dbf
00000050: d31f ef73 86ad c53f 5c22 4af3 9570 a33f
00000060: c056 9f09 1e4b bf3f 9d4f fc6c 3a4f ba3f
00000070: 5b1f c083 66a5 c83f 2d09 35f9 51ba a43f
00000080: 662f a8a3 8ae8 cdbf f8cd 7333 9c7c a33f
00000090: e493 4ce6 5484 d23f 72e9 6ecf 51c2 b7bf
000000a0: 2e81 6d5d 399c 8ebf 7455 54bf 8920 bebf
000000b0: 4764 18a2 213b a4bf 2c0f 42f7 223d c5bf
000000c0: 6823 64e8 8205 c73f c5d6 58c4 3722 963f
000000d0: 197c d13a 0df9 b7bf 23f0 1436 426f 893f
000000e0: f9c2 56e9 62f3 913f 41f8 2fa8 bc13 ad3f
-0.09656229149414598 -0.05850295907424377 0.11124651931346291 -0.029697425620232587 -0.11684214991138174 -0.016809070430770283 0.31780732013398544 0.0012023823712085356
0.13138895903421044 -0.007116264906522485 0.16935806904643744 0.03796833605617131 0.12223994955942441 0.1027714267805195 0.19254762108925658 0.04048401038245895
-0.23365910521567484 0.03806007507401071 0.28932688226842473 -0.09280883135116882 -0.01494641128891824 -0.11768399163368831 -0.039513636624356745 -0.1659282405199688
0.17985569331383577 0.021614905699798088 -0.09364397703164719 0.012419240260548808 0.01753000783145617 0.05679120591229082

weight f8 [30, 30]
00000000: 9c88 9b18 53cc c8bf 17c2 a699 dd78 8fbf
00000010: e0a8 a079 4445 7cbf 054b 2c83 6d21 c13f
00000020: 3561 dfc5 968a d3bf 4855 dbdf 257e c2bf
00000030: 6e94 5db5 6949 a13f 3e7b 8d3b 65d6 babf
00000040: aa38 0fd3 c47d d4bf 371f 628a 473a a6bf
00000050: 9e9e 754d 2211 c93f 189f 8618 e3b6 d8bf
00000060: 1fcd f12e 7491 cd3f 0c8a 92c8 b66c d8bf
00000070: 9e5a d8cf 5088 c83f 7819 7301 8575 ba3f
00000080: 9b5e 060e bf0d c73f 1c16 17d2 cac1 c7bf
00000090: f62c 3d75 1305 cfbf 8f01 852c d248 cfbf
000000a0: 6659 5d62 a30d c1bf 5df4 924b 3848 9bbf
000000b0: 8fb2 1ca0 eb99 d4bf 544f 42c3 b75d c5bf
000000c0: 0b62 b5ea e04b d33f 02ab 8019 f015 c83f
000000d0: 04f5 9ed9 aabc acbf 9032 8510 2f08 cbbf
000000e0: 52e0 fe2f 9c05 d0bf 4d72 96e0 7612 da3f
000000f0: 44d0 fb42 37ae 993f 4b38 f92d d17d c0bf
00000100: ea5d af8c 5d99 d13f b1cc 13c8 5032 c53f
00000110: dbd8 4bac 0195 cc3f 2948 4424 16b8 d03f
00000120: 7ca9 5657 b99c c43f 118d 6539 d66a b4bf
00000130: 22eb a173 e046 cd3f c133 e67f 0e7f a6bf
00000140: b558 f011 98aa c43f fdb8 1c0f 4186 be3f
00000150: df96 0ada 6d9d 8a3f cd6f 7e81 3135 d33f
00000160: e2d9 6266 1b98 ccbf 4e67 632f 8879 aa3f
00000170: a5f0 011f e1aa b63f f227 beb9 f7ad bdbf
00000180: b94f 942e f418 c53f d0e2 632f df98 c7bf
00000190: 2b39 4f44 e485 d1bf 7e0b e159 b47c d4bf
000001a0: f3c3 6ddf eb95 b8bf 5905 8323 af20 d2bf
000001b0: 69cb 81db 8d97 bebf c3ce 34e0 d411 33bf
000001c0: 36a6 19b7 5747 d13f 2d1b e094 4394 cbbf
000001d0: 95e9 bc2f 7179 ad3f c6dd b852 18b6 c73f
000001e0: c70f 01ac 010c d03f 2f73 633c cde7 ca3f
000001f0: 4d35 6452 ca8d a6bf b5f7 8286 000c c4bf
00000200: 1264 7f64 f716 ce3f b2ee e82b 74bb a0bf
00000210: 8759 96e9 ca2a a2bf 71ac cc64 f6b5 c6bf
00000220: ba78 e941 4fa1 c3bf 43ec 8778 f5fb b4bf
00000230: b0ff 2a7c 965a d23f e11e 443d 3578 ccbf
00000240: 084c 3ce8 0087 b63f f4b7 6fe4 73ac d0bf
00000250: df65 e595 0e74 7ebf 539f df3b 1b12 c83f
00000260: 7e45 2a12 ece8 af3f 2000 e5c8 40e6 dcbf
00000270: b165 09ea f134 d33f e7ae 996e 2c33 d1bf
00000280: 2ca4 666f bd26 a73f a2ea aaa6 19d7 cabf
00000290: a7a1 a530 63dc d33f df47 0056 bf63 9dbf
000002a0: 36f4 ce4c 078b d13f c8ad ccd8 262f bfbf
000002b0: e71f 3bce f511 ca3f 69c5 8f22 e14f c0bf
000002c0: f5f3 4737 0716 d23f 72ac fb15 b41c c6bf
000002d0: f891 c511 7b55 a1bf 8fc5 4cb5 385b b6bf
000002e0: c4fc 2c41 7e2d a13f 7951 32d2 5046 c4bf
000002f0: 1f77 aed9 3eac 9ebf 9ceb dba1 a624 c2bf
00000300: faf8 207b e791 d1bf 7fcb 0efc 199d acbf
00000310: 2242 46e2 e40a c2bf dfac 54a1 27e3 c63f
00000320: 9b39 f189 63bc cabf 9c4a a653 d190 c63f
00000330: 0735 e442 0f08 c83f b68b ab26 847d d3bf
00000340: f11e 8fa0 0538 d1bf 16af 9cce ef7d bd3f
00000350: 05ee 8413 1986 b9bf 9dea 75e4 52ea d6bf
00000360: e9b0 430d 9e67 a93f 7bed 17fa 2271 bb3f
00000370: a449 8dfe 65ec a13f 3d66 89d2 1b18 ccbf
00000380: 5092 1c69 ab26 b33f 3732 2849 05b6 7f3f
00000390: 5c96 9ea5 445c b03f 8cb0 256f f719 b2bf
000003a0: 56a2 f676 87c8 b7bf c35d c007 1fbf c0bf
000003b0: f11d 3f20 105c c43f ec39 c152 93a3 d03f
000003c0: 0fbb 4999 26b4 c0bf 677f 2a33 8d28 9f3f
000003d0: 5475 6fb3 7ef8 b1bf 4eb0 6aaa 65ef d13f
000003e0: a434 80e8 fcda b53f a1ec e0b2 7b78 cb3f
000003f0: 4d17 69dd c4ad c53f f273 cc01 aaeb d4bf
00000400: 17b3 9aeb b467 db3f cbef 8c69 a552 b4bf
00000410: 03bb 316b 96e2 d73f 7f88 24d5 3fec d7bf
00000420: 7ef8 853d e07f bf3f 2af0 8a04 d410 c83f
00000430: 91a2 ed87 9862 c13f 54e4 012d 8796 bebf
00000440: b903 e42b c051 c93f 1b88 a88d 2cdd e03f
00000450: 95eb 5785 a4fb b6bf 5130 1552 7c00 9c3f
00000460: b764 8de7 cce9 bcbf fa10 c831 1c96 b9bf
00000470: c171 1f16 fc4a bebf e18a b7de d012 e0bf
00000480: e07e 0a90 cbf5 c33f 54d2 aa45 8277 8e3f
00000490: a354 76e9 8beb cc3f 2908 3b2f 7518 b33f
000004a0: 800a a07b a603 c6bf f7e6 f68e 6a73 afbf
000004b0: f1c7 192f 9dd2 d2bf a1b3 4296 f9c5 c43f
000004c0: f8f4 63d4 9297 af3f 19b8 e2d9 9369 9e3f
000004d0: 7964 e197 e1f7 b13f fa5b 534e 79f4 ce3f
000004e0: a990 bc44 5cf7 953f d5de e39e a944 c9bf
000004f0: 9595 073f 37f9 c93f d33e 36cc 9c98 9a3f
00000500: 4701 a867 e379 babf 455e ce3b ad2c b1bf
00000510: 04ab 3078 c61a 5abf 2953 0381 0804 c7bf
00000520: 7e1c cd65 2e50 b23f 4bf9 c6cf abea babf
00000530: 0bfc 9675 b1d0 c1bf ac40 5f32 f4be d43f
00000540: f1fd ea7a 0062 cbbf 3b3c 1780 d916 be3f
00000550: 9423 5a6b d1c5 a13f b89e f893 99df c03f
00000560: f948 ed6e d29d ccbf 69d7 0f5e 5a8d c33f
00000570: 4efc 788c f16a d0bf e677 0df5 2988 cb3f
00000580: fbae a328 71d8 cdbf 0412 6221 60e8 703f
00000590: db9a 9b07 e494 a2bf db01 0bb4 a9bb cd3f
000005a0: 061f 421c ebcb a1bf 2ced 48b9 620a a73f
000005b0: 5b8e ffab cae9 8abf a054 13f6 d07a 823f
000005c0: 1a1e d438 2c3b cebf 8a3e 462a 3c40 d2bf
000005d0: c715 1f71 8333 d13f cc9a 59c6 643c b2bf
000005e0: 56a9 9a5f 5b38 a3bf 4ff5 51a1 d55f 19bf
000005f0: c4b6 333e f5a1 c43f e9a4 27d4 7391 94bf
00000600: a089 326b eff9 d1bf fbe4 9a3d ef23 c53f
00000610: 8a02 d107 6696 cc3f 9584 15ba f4aa a1bf
00000620: ad2f b911 26e8 c4bf e6d9 026d 07bd c03f
00000630: 8363 e919 4790 cbbf 0d41 8b37 f640 be3f
00000640: 27f3 0561 d6c0 d9bf 9772 1de0 8d5f dabf
00000650: ba68 6c7a ea75 a33f 0404 e2f1 939a cebf
00000660: 3cd7 afd2 3ddd c43f 1af4 1183 6ac2 d33f
00000670: 8c34 4d20 7261 ca3f b041 bd13 3bbd b93f
00000680: b780 e424 6c04 ab3f a94a 26a5 910c cabf
00000690: 304d 5daf 2712 cb3f d0da 542c 5551 d6bf
000006a0: 736b f275 4579 99bf 4932 7f83 bc56 bc3f
000006b0: 2a63 0273 f458 bfbf 87a7 b2ce f8d4 cf3f
000006c0: 9c7a e227 383b d9bf 1955 de95 e1db d73f
000006d0: a904 1397 832e d43f 2d80 d879 02fd cf3f
000006e0: 09a1 7a49 8478 c73f 06a4 31cd 8b2d d23f
000006f0: 6a17 f330 f6c9 d23f 551a a82f e15f a73f
00000700: 8fe1 98aa 105b c4bf e229 d979 e4ae d23f
00000710: 7616 2294 76ec b23f 4982 a4af a6a9 bbbf
00000720: 540d 2394 b1c8 d23f f1af a9c5 9273 d03f
00000730: dc79 394b c7de c73f 52fd 1a0f 7ee9 b33f
00000740: b3f9 14e1 f669 c93f f68a 56ce 5bee a73f
00000750: 5062 4c4c 8460 c13f 41af ab0d a5bf b1bf
00000760: 0faf f967 722f a23f 8b5e 10a0 f49c d33f
00000770: 8be2 0eb8 f040 c53f c0d8 8f5b 6e59 d53f
00000780: ef71 32c1 698b d5bf 42d2 ff9f 32a5 c03f
00000790: 34ae 5b8f 45d9 bdbf b453 48d1 1e46 cabf
000007a0: a29b c1c5 cd46 b23f 3344 0498 c7c9 aa3f
000007b0: dc49 24c8 b32d d93f aa48 9875 fd79 81bf
000007c0: 1fe6 94c9 057c d23f 7cd6 4506 dd83 953f
000007d0: b0bc f6e6 85a3 a7bf 298c bbb3 7eb3 c73f
000007e0: 5f1b dd62 9d5e d43f 8b48 0ad4 6145 ac3f
000007f0: c6b0 f2e3 6146 d4bf 2e20 3858 9e0a d23f
-0.19373549176731764 -0.015367251636093688 -0.006901996117486514 0.13383263497288325 -0.3053337986325631 -0.1444747298288951 0.033763221158360376 -0.10483391479418189
-0.3201763211371921 -0.04341338695763713 0.19583538801383765 -0.38616254229644786 0.23100139896596603 -0.3816353758540181 0.19166002415359612 0.10335570607558064
0.18010700402077337 -0.18560157068547845 -0.2423424074607749 -0.24440982030683897 -0.13322870543442916 -0.02664268456714002 -0.3218945563883517 -0.16692254099018078
0.30150626106981865 0.1881694912456951 -0.05612691790109106 -0.21118725115447434 -0.25034241377898525 0.40737697536841183 0.0250786432870458 -0.1288396334152274
0.2749856828572478 0.16559800881768674 0.22329731858162102 0.26123574773476094 0.16103283657623624 -0.07975520039831376 0.22872548719518543 -0.043938115227411874
0.16145611644669136 0.11923605555486812 0.012995584694475535 0.3001216663922122 -0.2233919382030783 0.051708465370849596 0.08854491240521385 -0.115935786101687
0.1648240306318465 -0.18435277761434188 -0.27379709883543296 -0.32011135842565597 -0.09603761868289933 -0.2832448813242841 -0.11950003251130926 -0.00029097983515955996
0.26997940903547446 -0.21546215791041715 0.05756715495813861 0.18524459876219462 0.2507328204849241 0.21019902657180853 -0.04405052428965437 -0.15661627357434119
0.23507587821112047 -0.032680158958524955 -0.035482731832575935 -0.17742805406428233 -0.15336027830466553 -0.08196958725595586 0.28677904248979313 -0.2224184559965954
0.08799749059498663 -0.26052567775957347 -0.007434899306042435 0.18805256293785053 0.06232392999403212 -0.45155353182417635 0.30010650496623287 -0.26874838639080995
0.045217437599895355 -0.20968933713978283 0.31032638312037836 -0.028700818657007573 0.27411062718221346 -0.12181322854001231 0.20367310113783718 -0.12743772685602586
0.28259449385205865 -0.1727509600962978 -0.03385529128971493 -0.08732942987696489 0.033550210433980904 -0.15839586509231277 -0.029953939472412757 -0.14174349692606547
-0.27453028702065263 -0.05588608934285499 -0.14095746086651767 0.17880721452215817 -0.20887417064154765 0.17629448494388533 0.1877459599130946 -0.30453590179802903
-0.2690443103751781 0.11520289224852961 -0.09970242239517553 -0.3580519896565109 0.04961866294783752 0.10719507795140785 0.03500670177767809 -0.2194857385646162
0.07480880085183483 0.007741947791612128 0.06390790027088528 -0.07070871795230199 -0.09290358213787306 -0.13083255651939227 0.15905953955210309 0.2599838550712821
-0.13049776539579525 0.03042812943260689 -0.07019798165079766 0.28023664133320814 0.08537274051942007 0.21461435541445886 0.1693655091386809 -0.3268837945523152
0.42820475586158707 -0.0793860800449117 0.3732048079317993 -0.37379451575009875 0.12304498197588207 0.18801355573475692 0.1358214057647911 -0.11948437546551932
0.19780733244991014 0.5269987837566562 -0.08977726226286926 0.027345602521833993 -0.11294251111157193 -0.0999467488800895 -0.11833167591198103 -0.5022968625965768
0.15593857320072058 0.014876382590366756 0.22593830966494463 0.07459194567766815 -0.17198639904389168 -0.06142743106052067 -0.29410485839537076 0.16229171597424588
0.06170328943879072 0.0296996213661985 0.07018861730593241 0.2418357498597457 0.021451417632434886 -0.1974079156714114 0.20291796281450716 0.025972795452218044
-0.10342236786528246 -0.06708796224699494 -0.0015932977846754856 -0.17981058406317033 0.07153596864110232 -0.10514329741179045 -0.1391813110512604 0.32415490073345654
-0.21392827989437493 0.11753615739074601 0.034712356905465175 0.13182372784762264 -0.22356634537079126 0.152751251152661 -0.25652731626536684 0.21509289231738576
-0.23316778644890931 0.00412786055506276 -0.036292196205797565 0.23228951731836286 -0.0347588989253023 0.04500111114290414 -0.013141234754534261 0.009023315915707208
-0.23618080878098696 -0.2851705944858415 0.26876913115515005 -0.07123403399018996 -0.03753934423487475 -9.679547686577038e-05 0.16119256531913184 -0.020086107086091074
-0.28087983578202547 0.16515913494166753 0.22333979970610002 -0.034507415500010165 -0.1633346163310966 0.1307687074929184 -0.2153405071756219 0.11817873817495102
-0.40239486193586277 -0.41208216558678984 0.03800900215556298 -0.23909234343230434 0.1630017546410104 0.30874121475045657 0.20609880997873053 0.10054368240276434
0.052768115523805496 -0.20350857318824936 0.21149154722898222 -0.34871415452236665 -0.02487667591467919 0.11069849214909157 -0.1224510937485205 0.24868688671750425
-0.3942394628046857 0.3727954829749521 0.3153389907202589 0.24990874242303232 0.1833653792175556 0.2840299133154648 0.29357676296455415 0.04565337855097044
-0.15902908639851573 0.2919245901036033 0.07392064205677137 -0.10805742061757785 0.2934993693017607 0.2570540361691647 0.1864861600215154 0.07778156155381069
0.19854627600029814 0.04674040693068619 0.13575795865542029 -0.06933051666027003 0.03551824111204215 0.3064548075794639 0.1660443209382446 0.33358344022361663
-0.3366341005983306 0.1300414353605835 -0.11659655332521696 -0.20526490420220755 0.07139288023027615 0.052320706660005455 0.39341444535344094 -0.008533458853922166
0.2888197392054241 0.021010831363545965 -0.04616945690519836 0.18516525054937574 0.31827482847841354 0.05521684373265242 -0.31679579983280026 0.2818981038585687

bias f8 [30]
00000000: 8203 f33e f4fa b5bf 3527 d602 6a99 a33f
00000010: 9491 b912 54bb b93f 9395 4dcf bee2 a2bf
00000020: 3b45 2c58 7ba2 c03f 0b0f aff4 8a7b b7bf
00000030: 128f 9e3f aa06 a63f da38 9dd9 53c7 a13f
00000040: 1b23 f27e de91 c13f d847 bcad 07c0 55bf
00000050: 35b3 e617 df98 a2bf aaf2 e71d 6747 a43f
00000060: 4bab 7650 7822 d23f 1278 37a4 8c6c c03f
00000070: ecf1 9290 c260 c33f 01ae 60fa 35bc bbbf
00000080: 0f35 d516 6f4d a6bf 8641 cc21 a3ab a1bf
00000090: 5fda 1252 facb b1bf c3df be68 1b46 a53f
000000a0: fb05 4c07 c6cf a9bf aa90 3468 5ed8 71bf
000000b0: 6157 5002 d565 a9bf 979f fa40 9dc9 933f
000000c0: 6a65 9575 bb9a b53f 8797 e554 1427 a83f
000000d0: ba1e 3145 c3a0 b8bf 8c93 f6c6 4ded a6bf
000000e0: 1194 1809 cb64 933f 7b19 91e1 a5fb 753f
-0.08586050545546978 0.03827983173967057 0.10051465470457394 -0.036886179738569023 0.12995855145758547 -0.09172886346555857 0.04301960016826291 0.03472387343809809
0.13726407240417235 -0.0013275217997414848 -0.036322566669105084 0.03960726013244671 0.2833538804795139 0.1283126642073858 0.15139038142468964 -0.10834061968551369
-0.0435595240947838 -0.03451261317798342 -0.06951870445014084 0.041550499473884915 -0.05041331137728019 -0.004356735971018969 -0.04960504201169048 0.01932378491497352
0.08439227696125831 0.04717315231645985 -0.09620304526572002 -0.04477923444509377 0.018939182691742277 0.005366943333746095

weight f8 [2, 30]
00000000: e76c 1a48 ed95 ee3f 8b9c a30c 73ca c3bf
00000010: 8eeb 741e d2a5 bfbf b25a 2f1f f499 cebf
00000020: d103 d1c3 f810 e23f 6c69 bd9e 142a b53f
00000030: 661e 4a2f d9cc c3bf 2d9b ea68 e13e e1bf
00000040: 6ddb fb4a cfb7 de3f 1d9b 37d8 f9c6 e03f
00000050: 147d 87c2 d3f5 d5bf e19c 9dae 8fca e63f
00000060: b0a3 14e4 f05f d6bf dd79 a465 5d97 ebbf
00000070: d18f 97a9 db94 e8bf 6758 dcea 1644 c33f
00000080: 75bf 5ade 5fe7 f63f d74d 1332 0277 d23f
00000090: 7fbe 50f2 eff3 d6bf d981 d1bf a423 fa3f
000000a0: c8da ae2f 9615 ef3f e079 6798 e5f7 ebbf
000000b0: 60b2 c7a5 fe17 e4bf 7bc9 fb29 0032 e4bf
000000c0: 5c57 8fa5 7e52 d6bf 39b7 5436 6dcd c4bf
000000d0: 803e f935 3411 d53f ccd0 165b cd1a e6bf
000000e0: 63f2 ae4f 7c06 c7bf 909c e01c 5882 c6bf
000000f0: 0d29 1503 1285 d73f d00a 6eb2 df84 c83f
00000100: 56bd 0f1e de92 e7bf cb02 ef75 c1fe dabf
00000110: 1774 8eb5 e474 e13f 66d1 7184 90cd df3f
00000120: 518d 1535 9480 dd3f ddb0 9531 e76a d4bf
00000130: 6161 0706 3b07 b63f 62ea 4433 9ea2 d23f
00000140: 3411 bd65 0720 9ebf 1db7 d54a 934b 0040
00000150: 7949 bd8d ef2e e93f fad2 4367 a036 e23f
00000160: 8b1a f22f e4df d9bf 5496 dd0a aec0 e03f
00000170: 2be5 fd4f ba75 ea3f e303 e0c7 2468 d2bf
00000180: 6723 480f 747f e13f 5a16 59a8 6267 f9bf
00000190: eb23 ddce 0815 d03f 44da 2a53 9198 f1bf
000001a0: 839b 5bca 9b0e a53f e169 c393 cbb6 c9bf
000001b0: 6a7a e67f a497 e03f 6c09 fb28 e0a0 bc3f
000001c0: fe1f f853 a5bc d1bf 30a8 4c45 30ee cb3f
000001d0: b1aa e92c d211 d93f a0ee 5e5f 38ba e7bf
0.955801621271715 -0.15461576573509137 -0.12362397426197289 -0.23907329104141223 0.5645717453518221 0.08267334819303124 -0.15468897637423423 -0.5389258431576757
0.47996885607374545 0.5242890570633311 -0.3431291007709245 0.7122267160856631 -0.3496057727193671 -0.8622271523670936 -0.7681711494774338 0.15051542728241715
1.4314879117700603 0.2885137070672647 -0.35863875068296375 1.633702039042069 0.9713850909527872 -0.8740108467716787 -0.6279290426151185 -0.6311035938254429
-0.34878507774316403 -0.16251912262799253 0.32917504568920464 -0.6907717494091457 -0.1798854245261224 -0.17585278902081258 0.3674969701866225 0.19155498707194463
-0.7366781794679962 -0.42179905430752446 0.5455192132973278 0.4969216626552878 0.46097283538820927 -0.31902484743365084 0.08604782960117553 0.2911754131961627
-0.029419055542591013 2.036902031561921 0.7869794624660208 0.5691682831662483 -0.40429024393271423 0.523520489904238 0.8268710672702232 -0.2876064254670025
0.5468082712624039 -1.587740571603169 0.2512838382868369 -1.099747967598561 0.041127079440960855 -0.2008909675121933 0.5185110567143287 0.11182976723197208
-0.27713902664299883 0.2182064379097155 0.39171270738612934 -0.7414819586478707

bias f8 [2]
00000000: 168c 5f9a a215 97bf 89bb 8673 7156 a03f
-0.02254346911639623 0.031909509041148594
