AONN_BFGS/BFGSNN/steady_NS/results/AONN/AONN_t1/y.pt (torch, 19603 bytes, 8 tensors)

weight f8 [30, 2]
-0.23752655475313292 -0.6949443628448629 -0.5299379196162906 0.4143277759919405 -0.1181727024387093 -0.3235130380823035 0.5407953510049764 0.15263669870029067
0.8830229208191019 0.18018261541253 -0.46857854461657333 -0.05919175676116119 -0.2185971531985937 -0.754346316703766 -0.22589682145618617 0.37719036148759155
0.3365584750087252 -0.28232183467902194 -1.1894661555188055 -0.7559949779741268 0.3662737909119945 -0.3479325823928643 0.6356985562255217 0.8616762222465559
0.13335915675603235 -0.7022021367323379 -0.2796272704118492 -0.20705755000391757 0.18169659874711594 -0.04445853754669571 0.3257283300805837 -0.8518267435855984
1.15640141899379 -0.08470271757470908 0.24844582776492238 -0.10084459716488224 0.1348634842623757 -0.6366659600493717 0.025981497340587734 0.1892434746713603
0.3135814428987932 0.09788365110805623 0.13286935706919298 -0.34413283882086493 -0.306978108412534 0.2994159818987275 0.4739477910778742 -0.6185451025142727
0.311635856250593 -0.23574097795150936 -0.33465483620405606 0.28914939464404926 -0.16029964432413563 0.4583661952096777 0.4028027544516311 0.7307387600448125
-0.1527577345179658 0.4768035216478721 -0.43796475496966286 0.06198352319593575
00000000: 3952 4c28 4567 cebf efa9 def5 fb3c e6bf
00000010: 1c31 355e 40f5 e0bf 566d eda5 5884 da3f
00000020: fb12 41f4 9040 bebf 7c28 9907 70b4 d4bf
00000030: 99a5 4c0d 324e e13f de27 8b6e 9989 c33f
00000040: 852a d148 b941 ec3f 7c95 4054 3910 c73f
00000050: c411 2fdd 30fd ddbf 52c5 f6c6 614e aebf
00000060: ef4a fed3 fdfa cbbf 3539 03e3 9a23 e8bf
00000070: 9c5b 36e2 2fea ccbf f028 bd0a e323 d83f
00000080: b5a9 d68e 2c8a d53f d828 b999 8f11 d2bf
00000090: 156f daa9 0d08 f3bf 08da 4a61 1c31 e8bf
000000a0: 5655 56a0 0771 d73f 78c5 a505 8744 d6bf
000000b0: 0c4c a37f a457 e43f ec45 4903 da92 eb3f
000000c0: 77d4 71b0 e911 c13f 764b 8e9d 7078 e6bf
000000d0: e445 5fc7 69e5 d1bf 180f d49e dc80 cabf
000000e0: efe6 b48a d541 c73f 0004 95f9 44c3 a6bf
000000f0: 4bea 44a3 bbd8 d43f c8dd b128 2a42 ebbf
00000100: 6905 3ac6 9e80 f23f 839e ddc9 13af b5bf
00000110: 97fb 89a8 12cd cf3f b72c cd96 f3d0 b9bf
00000120: 106f 2ae7 3443 c13f 8b6e 9c4a 915f e4bf
00000130: 9d07 84c5 e49a 9a3f 61f2 5853 2139 c83f
00000140: ee7f 78e6 b711 d43f 1b7a 5228 e70e b93f
00000150: 7759 a0f3 dc01 c13f b9c6 0dbe 4506 d6bf
00000160: cf10 0e82 87a5 d3bf a1e7 89a6 a129 d33f
00000170: e037 ac1d 2955 de3f e8ca 4c19 1fcb e3bf
00000180: 40dd b684 d7f1 d33f 2f7c 50a7 c22c cebf
00000190: 4575 3c1e fc6a d5bf 83e1 6976 6c81 d23f
000001a0: 425f f7e0 b284 c4bf 021f 812a df55 dd3f
000001b0: 3df1 4634 85c7 d93f 68fc 8940 3662 e73f
000001c0: 7f9c fbc0 908d c3bf 6418 06eb f283 de3f
000001d0: 814d d952 9d07 dcbf d8e8 08ea 4dbc af3f

bias f8 [30]
0.9525011171482435 0.6052246225869357 -0.06899957131349872 -0.4009005333158793 0.10802030217885267 0.2704543019638954 0.9068751094382326 -0.3682745986144264
0.16606181424585237 -0.20909296775853445 0.40367289962474373 0.05202868228477448 0.6270222750895168 0.30585432252534506 0.10065738331848845 -0.35668616339497033
-1.2182203839713632 -0.3813524033459033 0.014757547350878706 -0.23246021057872887 -0.08364613555007336 -0.07302442805426855 0.12633839610916825 0.6911714877462029
-0.4185699020197996 -0.1339555589736959 -0.33640186746874234 -0.05703082264922834 -0.5205589105326954 0.38281111016884173
00000000: f5c3 719f e37a ee3f a9d5 1707 005e e33f
00000010: 4dc0 3ab6 f4a9 b1bf 2d9a e2b5 5aa8 d9bf
00000020: 9486 29f1 37a7 bb3f 0cd6 7f8f 1f4f d13f
00000030: 04ff 12f3 1e05 ed3f 77c6 3f9f cf91 d7bf
00000040: 4a72 a676 8341 c53f b759 2cf1 8ec3 cabf
00000050: 6edd 8adb c6d5 d93f 09f2 bbe1 80a3 aa3f
00000060: 89ef ab04 9110 e43f be8a 2502 1e93 d33f
00000070: 1c2f 74a9 aec4 b93f 21e5 ad33 f2d3 d6bf
00000080: 1ea4 47a8 d47d f3bf 35c9 27e9 1368 d8bf
00000090: e5f7 ed79 3439 8e3f f348 0795 41c1 cdbf
000000a0: 46d5 9f48 d569 b5bf 375c 4d9a bab1 b2bf
000000b0: e24c c247 db2b c03f fd85 f9aa 131e e63f
000000c0: 2af5 106a d9c9 dabf fb67 74ac 7425 c1bf
000000d0: 5cdc c5b2 9b87 d5bf 33ea 48dc 2433 adbf
000000e0: 5d23 0c29 6ba8 e0bf c61e ae2b fa7f d83f

weight f8 [30, 30]
-0.21762145586315967 0.08809492704143727 -0.18288393853175328 -0.2792487203449275 -0.41955590685132493 0.30344521181180634 -0.11551095926075954 0.23444138441374046
-0.04991090566526507 -0.06574257483550758 -0.41966011889172794 -0.08805797880402638 -0.17122334579424717 0.04852541304501505 -0.042687236196115155 0.19332527239364047
-0.1178069181963344 -0.12232281528427748 0.1695138704026562 0.1985391582472246 -0.3410611841904431 -0.11137045552812459 0.18217610628164094 0.09078208955149458
-0.1281943277632996 0.14172422088706882 0.07552581030002092 -0.20616598687488305 0.36892029297750734 0.19918635550752956 -0.16619558111759453 0.08312142069112433
0.18124490075728542 -0.20532257790936778 -0.3375556209318974 -0.05414438066553224 -0.0847090873254673 -0.07289902147005303 -0.3945183764331975 0.28462288265534913
-0.02522542212457541 -0.12579158062280904 -0.5531352402742876 0.23086061512448888 0.15138808136087642 0.10899231596274297 0.031530317285686366 0.018937951103718997
-0.3545315878068264 -0.12317510300725447 0.005253118121358271 -0.253901188718544 0.2348018193491519 -0.31360836693732386 -0.1345097379358651 0.060360836332642304
0.17242072661646776 -0.16865648541103484 0.33049656809699013 0.2322895460490608 -0.7385377448583487 -0.22203849036642875 -0.26009826834965405 0.2879095129373817
0.09107649711317245 -0.3667420682499907 -0.7776313360990575 0.4128102843391911 -0.12272422703628245 0.22103146518227984 -0.3252110579718132 0.05793950592686735
-0.49380016604028854 -0.27458232879553673 -0.3927614221978731 0.052196646139595404 0.5832448869014718 0.00843836872908611 -0.3395532320678598 0.23585454269317507
0.009247253935324972 0.1132147236242246 -0.10610799097393094 -0.3921037551825325 0.13525540772135256 0.34388126940321184 0.2849331350954813 0.29928464326128146
0.05127960938933639 -0.31722547717524247 0.11745402400504498 -0.06925499438738075 -0.014409006670287118 0.23883770826765957 0.43417807865884395 -0.10295389404735861
0.16226816011565065 0.159352935503876 -0.09672893044695613 -0.3631473367550652 0.2108281228711515 -0.03221186293017588 0.2678284006034933 -0.09817357936164413
0.342706789658364 0.2882773718429374 0.6555593460296429 -0.0158404217683252 0.396881302595599 0.030718959698946616 0.11718926627442573 -0.20065303270014712
-0.10277824916339029 0.3204877554790519 0.31198224115848805 -0.011234307757760598 -0.07245231397020338 0.09045411816146649 -0.3750986712520624 -0.14560773068477834
-0.2499719133938245 0.15044830739636225 0.22242884114194877 -0.33433370622300873 -0.3619758420117441 0.06737012728926575 -0.07205916926014413 -0.06911429534733599
0.026818683139025152 0.5544939509968608 -0.32011176413654624 -0.22757719633610562 -0.3600697336207141 0.1034308160277006 -0.07132706734643213 -0.35219925387223355
-0.16933792734312336 -0.13377443282603946 -0.14870611355236327 0.1713892371737779 0.021847909576741577 -0.23930332825948383 0.4602474327683596 -0.26345822214463127
-0.2047841771911005 0.11664987923647202 -0.014584094103859987 -0.40019221736806476 0.1223709073849724 0.20775981669588653 0.2717993183773447 0.5755984537421305
-0.24660701845447208 0.17480417851283064 0.10465784352020228 -0.1840526152656091 -0.24752860958842002 -0.1332419452149511 0.14886626698928776 -0.22950919120583724
-0.14817790981585233 -0.02391287096695674 -0.3399968530901672 0.057953165179280876 -0.05970608249578845 -0.3338241112525557 -0.404984040817404 -0.38815531899156513
-0.2728747535448099 0.29927769938899046 -0.03284164420521876 -0.3070834996261674 0.17856679356320843 0.04965371554539439 -0.4473634928458445 -0.007688381565804636
0.2431238763219991 0.27612096623034155 -0.16812444925229791 0.056369496506462995 0.06928189876538228 0.010774125978113336 -0.21533171665259768 -0.004653270318053579
-0.01510036430974138 0.29076059511324553 -0.018954907534991194 -0.28971821146697035 0.22462890045313236 0.34427821716570023 0.18266339446965996 -0.2318760432968568
0.11737671979697283 -0.12103671262254125 0.08202897612781625 -0.08747772632858289 -0.17060850288346818 -0.17432810285369335 0.3062944640071729 -0.3179693324291484
-0.025868718230461447 0.06360714714686272 0.08100794201237664 0.3665738217727563 0.11649081046881807 -0.029501558901070698 -0.10261516885920724 -0.35119055601657345
-0.37532003542014225 -0.15497803756683143 0.40311706610945947 -0.23096671531915283 0.33407113682999734 -0.14796886963859637 -0.26068760437001137 0.10559042056991412
0.28178614358215054 0.1683377558668927 -0.015460533172956358 0.8212946113272734 -0.13085689524213234 -0.6901309263121683 -0.13832331558562255 0.49096094609199553
-0.3443742765698215 0.23022095609424456 -0.00810839112827995 0.22682990071844839 0.15566394365865005 -0.1439338122155333 -0.3894908741574076 -0.1241129081633717
-0.022424296391852217 -0.15639447914227342 0.14707263032087833 0.17243135879430166 -0.11420659722906039 -0.7062283832122074 -0.021407393977537548 -0.027194565677198673
-0.1643351578879548 -0.2640752004964252 0.18856816161355847 0.016108016322853046 -0.36849012448300017 0.013561781248900503 -0.23302740790360799 -0.05884450242085028
0.015362087336194175 0.014273356774471753 0.020497382227488675 -0.3621883863866773 -0.11833871288988664 -0.06972283121228105 -0.015386146332690406 0.4178872862147796
00000000: f68a eb15 05db cbbf 7f23 969e 638d b63f
00000010: 2691 7aab bd68 c7bf 3d34 5506 36df d1bf
00000020: b648 b104 01da dabf 1102 3777 a56b d33f
00000030: d3c3 5a50 2092 bdbf c667 71df 2c02 ce3f
00000040: 7894 1717 ec8d a9bf 0e93 df60 81d4 b0bf
00000050: 10d4 841d b6db dabf c47a 1dbb f78a b6bf
00000060: 29be 3f87 a5ea c5bf 2641 1bac 52d8 a83f
00000070: 927f d6f6 19db a5bf 97e2 35ed e1be c83f
00000080: 6253 e51c 9828 bebf e15b 334b 8c50 bfbf
00000090: 6884 cc68 a1b2 c53f 65d7 d22b bb69 c93f
000000a0: 6f1c 024a f2d3 d5bf 05e2 3b30 c682 bcbf
000000b0: 70cf 4bf1 8b51 c73f a0ab afb9 7e3d b73f
000000c0: 7a56 a3f6 ab68 c0bf c869 e1ee 0424 c23f
000000d0: d013 3ed5 a855 b33f 8f6c 96a5 a563 cabf
000000e0: 11d3 4adc 639c d73f 2a6d 5b41 f07e c93f
000000f0: 6ee4 d194 e545 c5bf dc26 7707 7247 b53f
00000100: 09df a86c 0833 c73f 9325 a09e 0248 cabf
00000110: 36f1 1ee4 829a d5bf 29f7 70f0 cfb8 abbf
00000120: d5a4 bca7 7eaf b5bf cad0 1fa1 82a9 b2bf
00000130: 05e7 1c01 ca3f d9bf 8bab 2ce5 4237 d23f
00000140: 521d 366c b1d4 99bf e48c 7142 f019 c0bf
00000150: 07c8 e7ac 48b3 e1bf 9d72 f233 d78c cd3f
00000160: cb7d 3945 af60 c33f 8a45 93a0 ebe6 bb3f
00000170: 5428 26e3 bd24 a03f 632b 9362 7864 933f
00000180: 97df c141 a5b0 d6bf 9bfb 184f 6788 bfbf
00000190: 4f3a 8828 4b84 753f 038c 7dc5 ea3f d0bf
000001a0: 18ad 926b fc0d ce3f 86db efd3 2812 d4bf
000001b0: 09cb b676 9d37 c1bf 6c0c 0494 9de7 ae3f
000001c0: 5332 fce2 e111 c63f 10a2 8c24 8996 c5bf
000001d0: 02ad da13 db26 d53f 1fe0 bdf1 a9bb cd3f
000001e0: 03e7 a0e8 19a2 e7bf e0db 49db c16b ccbf
000001f0: 35b6 1335 73a5 d0bf 757e 9105 1c6d d23f
00000200: 580a 8910 ca50 b73f fdde 4cb9 b378 d7bf
00000210: d17c 9c1c 5be2 e8bf 461d acd3 7b6b da3f
00000220: dd36 8cdd da6a bfbf 3224 2c51 c24a cc3f
00000230: fb55 920a 42d0 d4bf ce5f 3436 3faa ad3f
00000240: 12c1 f902 6c9a dfbf 5920 8fc2 c192 d1bf
00000250: 9d19 decd 0023 d9bf f0c9 42d0 84b9 aa3f
00000260: 1fa2 592e f1a9 e23f 87bb c8ad 2248 813f
00000270: 34e2 be7a 3dbb d5bf f077 bd4d 7b30 ce3f
00000280: f318 d769 39f0 823f fa47 64df a3fb bc3f
00000290: b5c9 13af e429 bbbf 0675 4959 3a18 d9bf
000002a0: ff9a 6298 0c50 c13f f8cc 7295 2602 d63f
000002b0: b309 3230 583c d23f 8c24 c0c6 7a27 d33f
000002c0: ffc5 8e2a 5241 aa3f 073e 7b16 6c4d d4bf
000002d0: dea0 e287 7711 be3f 9c7c faff b1ba b1bf
000002e0: 0776 5523 7882 8dbf f7d4 07e9 3b92 ce3f
000002f0: deb5 1eda 92c9 db3f 9ce3 edb7 2f5b babf
00000300: e27c 70fc 33c5 c43f 1560 414f ad65 c43f
00000310: a4c3 d828 3ac3 b8bf 2f85 bf53 ce3d d7bf
00000320: 5882 677a 6afc ca3f 331c a8c3 127e a0bf
00000330: 210c 62bb 1924 d13f 8584 b058 e721 b9bf
00000340: ecc9 6c75 e8ee d53f fb80 0fef 2273 d23f
00000350: 541a f997 57fa e43f 3799 ccb5 7838 90bf
00000360: c3af c2d5 8066 d93f 51b2 187d ca74 9f3f
00000370: d944 17a2 1d00 be3f 342a a5a2 ffae c9bf
00000380: 489b e5e2 ac4f babf 2343 2313 df82 d43f
00000390: ec57 ad5c 84f7 d33f 0d60 4d43 0302 87bf
000003a0: 2284 051f 3c8c b2bf b5c1 4a47 0028 b73f
000003b0: 123e 73db 9d01 d8bf bafe aa2c 46a3 c2bf
000003c0: 6ff6 7864 14ff cfbf 57c2 00e0 e341 c33f
000003d0: 1e28 325b 8c78 cc3f 2c69 8b33 b965 d5bf
000003e0: f17a d8b8 9c2a d7bf 024c 6f2d 2b3f b13f
000003f0: 4a68 593f 7872 b2bf ccf0 3376 79b1 b1bf
00000400: 45fe 035c 5b76 9b3f 2190 2b19 6abe e13f
00000410: 5701 820d b67c d4bf dc1a cae3 3f21 cdbf
00000420: a78b 8bec 610b d7bf 2cd1 3c24 717a ba3f
00000430: 6090 929d 7d42 b2bf 57a3 43bd 6e8a d6bf
00000440: 34a0 f47d ddac c5bf 56af 0347 851f c1bf
00000450: cf19 364b cd08 c3bf 1e1d 4620 15f0 c53f
00000460: 6ae7 7864 4c5f 963f 5766 59d0 7da1 cebf
00000470: 4fb7 f3a5 b174 dd3f bb4d fedf 7fdc d0bf
00000480: ef13 e32f 5e36 cabf cc2a 6738 c4dc bd3f
00000490: 0b30 bef9 43de 8dbf 7469 6dd1 bf9c d9bf
000004a0: f346 3325 b353 bf3f 69de 10a9 df97 ca3f
000004b0: d25e e0f7 2865 d13f 796b ce72 4d6b e23f
000004c0: 6cee 9c9b d190 cfbf 2e58 f5ba fb5f c63f
000004d0: 6b6c 303f dbca ba3f 538f a73d 098f c7bf
000004e0: cbd8 8079 04af cfbf 6faa 9372 120e c1bf
000004f0: 092a 19c2 0c0e c33f 4424 2ea3 8e60 cdbf
00000500: 5c09 5366 7ef7 c2bf 48b4 069b 9d7c 98bf
00000510: c9f8 3029 82c2 d5bf c515 4a8a 09ac ad3f
00000520: 1f25 62af cb91 aebf 238b 1cce 5f5d d5bf
00000530: 8a9c ad2e 42eb d9bf 0395 3568 89d7 d8bf
00000540: d741 98ab c776 d1bf b30f d3a6 5d27 d33f
00000550: 34d7 9db7 9ed0 a0bf 8d47 028d 41a7 d3bf
00000560: 4eb6 40d5 46db c63f d9e2 c838 366c a93f
00000570: 739f cc7c 9aa1 dcbf f317 2636 da7d 7fbf
00000580: 8e01 d7e4 ae1e cf3f 4ec0 ec45 f7ab d13f
00000590: 362b 9919 1a85 c5bf 2778 f96f 76dc ac3f
000005a0: 01f0 6661 75bc b13f 0079 c0b5 be10 863f
000005b0: c13f 685c fd8f cbbf 4a28 5ebd 4e0f 73bf
000005c0: 02b7 f196 f0ec 8ebf 5185 be53 d29b d23f
000005d0: 2391 d84f ea68 93bf 9999 d340 be8a d2bf
000005e0: d960 97ca a3c0 cc3f 69eb dc80 a708 d63f
000005f0: 7436 b69c 8361 c73f eaca 573b 1dae cdbf
00000600: 1ffa d694 660c be3f 2944 5412 43fc bebf
00000610: 0918 cbd9 d9ff b43f 02af b5b5 f064 b6bf
00000620: 0cea 26da 7fd6 c5bf 17e2 431e 6250 c6bf
00000630: 77d3 7618 549a d33f 5881 fa0a 9c59 d4bf
00000640: a236 284b 547d 9abf 74a2 c9d8 8e48 b03f
00000650: e3cf a8bd efbc b43f b05b 050c f275 d73f
00000660: 0284 3f7d 57d2 bd3f affb a41a a835 9ebf
00000670: 64e5 52da fc44 babf d655 30f4 e779 d6bf
00000680: c86f 6a53 3e05 d8bf 8651 7901 52d6 c3bf
00000690: 0593 d985 abcc d93f a151 613c 5190 cdbf
000006a0: 783b cee7 6b61 d53f 0141 f6d7 a4f0 c2bf
000006b0: 6a79 cf0f 1baf d0bf f360 1e4b f907 bb3f
000006c0: d9ae c9bf c808 d23f dcae 1072 178c c53f
000006d0: b941 daa2 c5a9 8fbf 7203 01a3 0b48 ea3f
000006e0: fab1 c232 ebbf c0bf a101 cf73 8d15 e6bf
000006f0: ea75 5b12 94b4 c1bf 8503 c575 e76b df3f
00000700: e1dd dc67 3a0a d6bf 39aa a35a e177 cd3f
00000710: e9cb c0d5 219b 80bf d69a ab1e c308 cd3f
00000720: b213 97cd cbec c33f 968d 2054 6c6c c2bf
00000730: 562d a621 6bed d8bf d6b8 9211 ddc5 bfbf
00000740: cd25 8e0e 65f6 96bf 4b73 98fa bb04 c4bf
00000750: 13b4 aea4 46d3 c23f 6ac6 6913 3b12 c63f
00000760: 0b15 16c0 a43c bdbf 8ae8 2c44 6c99 e6bf
00000770: e0bc 1ae4 d1eb 95bf 9b97 d968 e4d8 9bbf
00000780: 071b 5b38 ef08 c5bf 4646 74ab 9be6 d0bf
00000790: cb39 9963 0023 c83f b687 3dad 9e7e 903f
000007a0: cd6b 639a 5795 d7bf 3e2a 8477 47c6 8b3f
000007b0: 4c42 0294 d7d3 cdbf f2d5 e4da dd20 aebf
000007c0: 8d72 a875 2876 8f3f 916a 6784 593b 8d3f
000007d0: 285f 4809 44fd 943f 0465 a132 182e d7bf
000007e0: d979 b625 724b bebf cf5d d7ff 5ad9 b1bf
000007f0: 38a6 7b9a c582 8fbf 153a ed50 aabe da3f

bias f8 [30]
-0.10632401538620628 -0.014693222434705765 -0.4106417177453688 -0.20709017453751735 0.021241270798277475 0.4008620293695617 0.1210957040418614 -0.17805763598841673
-0.16106700119652537 -0.28781415112095027 -0.3328113548037324 0.12282090919325073 -0.2772533331405007 -0.11229013646494748 -0.14860292430402794 -0.2270776270936369
0.2949222022421058 -0.17717887209086292 0.22528866092436775 -0.14153691402824192 -0.03182425852600922 -0.08590066396866379 0.038871958147254575 0.19755845781047046
-0.2360065337815496 -0.3237561981784841 -0.292881578553417 -0.13916104485923203 -0.23522941038728354 -0.5781647968096133
00000000: d8f7 dcf8 0c38 bbbf 59aa a3ee 7a17 8ebf
00000010: 5dbc 0533 f447 dabf b114 7b4b ee81 cabf
00000020: 8fc7 9d8d 45c0 953f ec6d 9636 b9a7 d93f
00000030: 6ebf 8bc8 2000 bf3f 08c9 afb5 97ca c6bf
00000040: 974b 4def d79d c4bf adfd 980b 8c6b d2bf
00000050: 9da5 27ff c74c d5bf d8ff 3fec 3071 bf3f
00000060: 8ce8 a2c3 84be d1bf 7ac3 c7df 0bbf bcbf
00000070: d2e5 fcad 6b05 c3bf 3d9e 0233 e110 cdbf
00000080: 07a0 5f5f 01e0 d23f f811 961a ccad c6bf
00000090: a536 6a43 42d6 cc3f c2ca 76b0 e11d c2bf
000000a0: af64 2deb 444b a0bf 8739 73fe 95fd b5bf
000000b0: 27a8 f279 06e7 a33f a50d ac75 9849 c93f
000000c0: 29f6 1d4c 7635 cebf d672 c3ea 6bb8 d4bf
000000d0: ce37 5f60 92be d2bf 7217 4674 07d0 c1bf
000000e0: fdda 5550 ff1b cebf 62dd bf75 5380 e2bf

weight f8 [30, 30]
-0.10173756194572488 -0.3789292317051817 0.04409800876715228 -0.19777570566029104 0.06912844322061648 -0.1613460441128212 0.28690327799697013 0.08187095320107224
-0.023877136020238734 -0.4365256091987435 -0.23457713944330968 -0.10348269251869173 0.27890579422828365 -0.23050943652797656 0.1493466972641151 0.35982773563796994
-0.13374596842444797 0.10487721670076122 -0.25482947297846936 -0.18153089929916766 0.06764444647250652 0.11663559152338593 -0.32223813830554787 -0.5389654485663066
0.5817176896669138 0.033551221549945956 0.4732740852812151 -0.48450766718896426 -0.28832919113793404 -0.1535849002299135 0.29930896785769767 -0.27296968469387456
0.49424074117329825 -0.021277632622277637 -0.3060443254155852 0.24666435370934578 -0.26408872267520406 0.004656493159886477 0.12839296542522388 0.22942809495591085
-0.2795411333437538 -0.09659645400191263 -0.03253855852888493 -0.16089662868276533 -0.017855079467170815 0.18657725214732082 0.294701222568011 0.2783599062529743
-0.005415807655973129 0.5033210203919336 -0.23132265227107837 -0.2749090685306524 0.008236492350153366 0.14073791493563043 0.046270969141516544 0.19321621974854558
0.4436871527053944 -0.013985201963592637 0.24822177743910306 0.06778883158433839 0.12980874271991513 0.3360184673552045 -0.27722708034720595 -0.5085328821258612
0.2554095472171652 -0.28121539457735584 0.3861893865952117 -0.00028152920624586444 0.04547928638254384 -0.19859321832753965 -0.03629663427356061 0.7022266360927227
-0.059147065834637365 0.01473208942617792 0.3898337475903691 -0.06941267489652515 -0.38449758867689093 0.08406611932625865 0.05954047359838446 0.01909574041770349
-0.0005691754846853438 -0.09354085205222841 0.23300230021014443 -0.08477895315046294 -0.1459798992944397 -0.33813125012625245 -0.3400449783138643 0.17234686461509294
0.14075873920708587 -0.2568031616688431 0.44311156346869685 0.2929137451779298 0.1407195143148479 -0.14539581065994112 0.42204761871203395 0.13830507192641084
0.17582048376126808 -0.09288187559452123 0.025171333617216157 -0.020996404164077432 0.030032466478084253 0.30626535833397683 -0.07153583458791316 -0.11150732027467103
0.15616123385671432 -0.2751167619007817 -0.35050623770829886 0.015015213695179932 0.08051448438398698 0.02162714065034688 0.2264837645864162 0.03846770416992159
-0.09493738791818038 0.0067281438361747195 -0.2822238995754494 -0.46880084956761703 -0.0829761501729022 0.1923376686191238 0.09556662255681264 0.19967568046749512
-0.053072603908524946 -0.3971905466475276 0.39041883418025797 -0.05306446594604784 -0.019031320395824537 0.2676269503330356 0.014567182925475711 -0.24206568615406265
0.24838742974045758 -0.17944621403852354 0.3784047223719794 -0.284505599828814 -0.05341274607450296 0.22524534931396079 -0.1831085842774053 0.4973362076499003
-0.14664956219758551 -0.042777099873966044 -0.4124142408178508 0.5556380354945167 -0.36343669375224197 -0.28079283882863637 -0.20628170233221466 0.037473293090306004
-0.25052865343366815 0.17466273309512526 0.2703906343049036 0.23046644468150945 0.08369576624501336 0.4763072326298913 0.1768300271455497 0.06466831314037101
0.6006116728220744 -0.43098733935107286 0.29929556096009385 0.19995704563401934 -0.5531816255910487 -0.5281443221688912 0.06386252254194263 0.34341730761896405
-0.6122635419970017 -0.29351471805825075 -0.0964449182980285 -0.21773070019552804 0.03405182945761772 0.20518541129885698 0.26361522443667745 0.1750220365971528
-0.09646715946491734 0.08703464572036823 0.04929203271865269 0.03747829394798146 0.021983602643176735 -0.29257113649754335 -0.062583044417007 0.05181630803891245
0.3831451586919976 -0.11250816120242868 -0.038502206217324496 0.2768737840666294 0.054297697153864025 0.3824819144849102 -0.21201546714532193 0.17512935939329685
0.3718585949147003 0.2862784706031389 -0.21580342180140008 0.13880568605217233 -0.05414260406155742 0.10930067265683742 -0.27252448557702164 0.027828366515278813
0.19598075085514097 0.137412969501372 0.09600983993525959 0.2777907870299865 0.13878909808378914 0.06702364601646305 -0.08451780229608383 -0.20845187459427778
-0.028345889811927993 0.26565887623492096 0.1303303415957421 0.17841079310652433 -0.1638486300959142 0.055108772687174644 -0.0702451439934048 0.3279582915303068
-0.01565319199455371 -0.17944661323598177 0.2499510447539675 0.35497386910083334 -0.6823048257212886 0.029447627897008957 -0.04136275816195131 0.1049480253621429
0.30144887619573324 0.30892414753760616 0.030741290395249615 -0.007700620536269189 -0.06379255287025555 0.2707788994794976 -0.3382014316934281 -0.32296998228636103
0.025193189654226518 -0.568563052097952 0.06979286889717475 0.3173691796683431 0.4299446400697914 -0.6512479576718475 -0.039558721642593005 -0.04307225249236639
0.22097546645976274 0.228236378122094 0.34593533160646406 -0.5485769962602264 -0.12844815147951588 -0.15625802152512755 0.23575523669015677 -0.35164911250622255
-0.023201740024145087 -0.321635759080687 0.3085178726541504 0.314387696751799 -0.2681637107518697 -0.23261465584414157 0.15285029415469514 -0.003668838405660041
0.0657539779406936 -0.34713459563607185 0.03253787868566785 0.4130328517694622 -0.4646028417005381 -0.3237221233834636 -0.030566475060636363 -0.21278385154907922
00000000: d5e7 540d 790b babf b304 6b64 6040 d8bf
00000010: fc80 f2a2 0394 a63f fd8b e0dd b650 c9bf
00000020: ee1e dbd2 66b2 b13f 69da 66b7 fca6 c4bf
00000030: 022e 0791 9f5c d23f 04af 7daa 7ef5 b43f
00000040: 74f7 5079 3f73 98bf 5001 d81b 09f0 dbbf
00000050: f32c 26ab 9f06 cebf bbde 117c d77d babf
00000060: 4a06 38b0 97d9 d13f 524d a74d 5581 cdbf
00000070: 18eb 41e6 ca1d c33f 6b90 30e9 6a07 d73f
00000080: d06b 2d80 961e c1bf 3045 d3b7 3bd9 ba3f
00000090: daf6 1f47 204f d0bf d408 da8d 673c c7bf
000000a0: fdfd 5a7d 2551 b13f a47e 2483 d4db bd3f
000000b0: cff5 62b6 8c9f d4bf 2d85 e877 343f e1bf
000000c0: 66f8 936a 6e9d e23f 3282 982e a02d a13f
000000d0: c3ef 9463 1f4a de3f ff38 4f72 2c02 dfbf
000000e0: 11da 9a47 fc73 d2bf aacd d285 aba8 c3bf
000000f0: fc4a 16cd e027 d33f ddd0 23d7 5578 d1bf
00000100: df2a ecea a3a1 df3f f8f5 fec0 cdc9 95bf
00000110: 1153 32f0 3a96 d3bf 8fa3 2292 b292 cf3f
00000120: 7d79 c862 d4e6 d0bf 0046 5fdd af12 733f
00000130: 7ad6 c441 2e6f c03f 9742 4f5a e65d cd3f
00000140: df48 667e 00e4 d1bf 5008 d992 8bba b8bf
00000150: 6828 7bd9 e4a8 a0bf 3854 1dbf 4298 c4bf
00000160: 4513 8419 9a48 92bf a93c 136e c3e1 c73f
00000170: 3055 4184 62dc d23f 15f2 7711 a6d0 d13f
00000180: dda6 38cc e22e 76bf 6420 3faf 341b e03f
00000190: 7b04 2a0d fb9b cdbf 61a1 ad34 1c98 d1bf
000001a0: 52a7 384a 4bde 803f 6e56 fa32 b303 c23f
000001b0: b41f 6f16 d4b0 a73f 6e39 7020 4fbb c83f
000001c0: 0a9a a1cc 5e65 dc3f 7720 7e08 46a4 8cbf
000001d0: 96c2 2030 bbc5 cf3f 3b54 b0de 9b5a b13f
000001e0: d3c3 5ba8 929d c03f 2121 099a 5381 d53f
000001f0: 3d09 eaa6 16be d1bf 727a 35c0 e645 e0bf
00000200: b191 1849 a158 d03f cbda b5da 6eff d1bf
00000210: 6f47 5fb0 53b7 d83f 966c d3bb 4673 32bf
00000220: 901f 519f 0f49 a73f 394b f6a8 806b c9bf
00000230: 58d3 51f2 7895 a2bf 2ebf 8cfe a378 e63f
00000240: 6108 d432 8648 aebf da25 4c92 db2b 8e3f
00000250: b9c6 313f 09f3 d83f c1c3 9b70 07c5 b1bf
00000260: d184 30c6 9b9b d8bf e239 3571 5b85 b53f
00000270: 636d c9c5 167c ae3f 4a07 5972 d58d 933f
00000280: b00a d40b 97a6 42bf e97f 6714 4bf2 b7bf
00000290: d7cd a5f5 04d3 cd3f 5a9c 2bcf 12b4 b5bf
000002a0: 29e7 ab26 78af c2bf fa0f 4341 f1a3 d5bf
000002b0: 9fbb 4103 4cc3 d5bf ef83 8b49 760f c63f
000002c0: e6a3 c2e2 6104 c23f 1c22 3887 766f d0bf
000002d0: 74f5 649a f05b dc3f 34a3 054b 19bf d23f
000002e0: 5115 f2d7 1803 c23f f042 e175 549c c2bf
000002f0: 6543 ee03 d402 db3f 0cbe 6508 fbb3 c13f
00000300: 9a5b dc1d 4981 c63f e9d1 114a 1bc7 b7bf
00000310: 4808 bb9a 83c6 993f dd8c dfd4 1480 95bf
00000320: 4ac9 5db5 d4c0 9e3f 364c 7c04 da99 d33f
00000330: 3212 0c26 2c50 b2bf b024 d865 be8b bcbf
00000340: fca6 2860 17fd c33f 687f bc55 839b d1bf
00000350: c512 00b7 b16e d6bf 5b22 1bde 4bc0 8e3f
00000360: 3695 48e5 989c b43f e169 32d7 6c25 963f
00000370: 999f fc84 6bfd cc3f 2b5a b9f6 09b2 a33f
00000380: 56b8 4610 d14d b8bf 9193 d35b f88e 7b3f
00000390: 89df b4d4 f40f d2bf 30b7 4e47 d500 debf
000003a0: 8b31 57cb ec3d b5bf df06 414e 859e c83f
000003b0: e47e 78de 0d77 b83f 4a0c b502 f98e c93f
000003c0: dc8b 3314 552c abbf 646a 08e6 916b d9bf
000003d0: 65fc 2247 9ffc d83f 6ece a203 442b abbf
000003e0: fa8e cc4a f27c 93bf c559 cdc9 cc20 d13f
000003f0: 2201 1432 66d5 8d3f e0fb c126 02fc cebf
00000400: 8083 bcc7 28cb cf3f 67de 57f2 17f8 c6bf
00000410: ca55 cf70 c837 d83f a9ca b2f9 5635 d2bf
00000420: cfb9 285b ea58 abbf 5895 70f0 d6d4 cc3f
00000430: ed4d 8b22 1a70 c7bf 6a45 be3e 5bd4 df3f
00000440: a440 ceb0 69c5 c2bf ffeb f349 e1e6 a5bf
00000450: dbe8 2db3 fe64 dabf b89a db6a c9c7 e13f
00000460: 8843 75fa 8b42 d7bf 5a14 ee86 82f8 d1bf
00000470: 4cd9 a356 7067 cabf f0b2 9710 b32f a33f
00000480: 7058 4d55 a908 d0bf f49c 3c33 595b c63f
00000490: 10fe de84 144e d13f c8c1 5da9 ec7f cd3f
000004a0: a503 d6f2 156d b53f ea97 bf54 d17b de3f
000004b0: 233d c5c7 5da2 c63f 577f 0642 1a8e b03f
000004c0: b1bb 8bf8 3538 e33f b52f e0eb 4b95 dbbf
000004d0: 4957 8a91 a827 d33f 962b cd45 3198 c93f
000004e0: 682c d5f3 a9b3 e1bf 3b12 e9eb 8ee6 e0bf
000004f0: 0cf9 c155 4b59 b03f 06a5 4696 8cfa d53f
00000500: ba20 2db6 a997 e3bf 391c bdf4 f1c8 d2bf
00000510: b196 f439 9db0 b8bf 8a65 567e 99de cbbf
00000520: 5b64 c7cb 3d6f a13f 128c 92fb 8343 ca3f
00000530: 09ba eb63 12df d03f 95cd a141 1f67 c63f
00000540: bf32 0a5f 12b2 b8bf d8e8 fc0c e747 b63f
00000550: 52bf f528 ce3c a93f 6706 a2dd 5a30 a33f
00000560: f351 9a99 de82 963f 0bac c049 7cb9 d2bf
00000570: ff1e 0e41 7105 b0bf 1e6a dac8 aa87 aa3f
00000580: a8fb 8c45 7385 d83f 58c4 e5b8 55cd bcbf
00000590: 93f4 0da9 8fb6 a3bf 6de6 ebd1 4cb8 d13f
000005a0: 4244 0c63 e8cc ab3f ce8b 816c 957a d83f
000005b0: 2c52 d1a4 5223 cbbf 2bf2 948b a36a c63f
000005c0: 224a f9fd 87cc d73f 2f85 32ef 6252 d23f
000005d0: 7b3e 804f 729f cbbf ebe4 0b7d 62c4 c13f
000005e0: 4a82 8753 94b8 abbf 59ee 7dfe 20fb bb3f
000005f0: eb66 3a8a 0a71 d1bf d03e 5610 0a7f 9c3f
00000600: d7bf c8b1 e515 c93f 62fe 0689 bf96 c13f
00000610: 01bb 9dd2 1994 b83f 1021 5b02 53c7 d13f
00000620: c0d5 a756 d7c3 c13f 300b b32f 7628 b13f
00000630: 069e ca6c f5a2 b5bf 760e 1610 8dae cabf
00000640: 037d df76 b406 9dbf db8c 5416 8e00 d13f
00000650: ad44 6a25 aaae c03f 4dae d234 2ad6 c63f
00000660: 2bd0 e0ed fdf8 c4bf a306 d490 3737 ac3f
00000670: 4b8c 27f4 95fb b1bf e9c7 24c6 44fd d43f
00000680: bb49 c7ee 6307 90bf 08fe 9c4b 1bf8 c6bf
00000690: 92df 6855 65fe cf3f 2140 ae51 e4b7 d63f
000006a0: 7d07 0cee 70d5 e5bf a4ba 0cdb 8427 9e3f
000006b0: 7ce7 27db 7f2d a5bf 82ce b5b0 dfdd ba3f
000006c0: dc4d 2b3a f04a d33f bd98 a7c9 69c5 d33f
000006d0: 98a9 8913 a57a 9f3f 827f cb95 af8a 7fbf
000006e0: 795c 4e70 b554 b0bf 2a86 6d05 7154 d13f
000006f0: 8c5a 259e 17a5 d5bf 9d9d e049 8aab d4bf
00000700: 325a 9656 3ecc 993f 5130 4f24 ab31 e2bf
00000710: 214a 6809 f2dd b13f b8c4 dbd1 c64f d43f
00000720: fa2c 0c86 3684 db3f 3232 f9f4 05d7 e4bf
00000730: 61f8 736f 0a41 a4bf a6b8 a3f7 900d a6bf
00000740: 08de d490 ec48 cc3f 715c e581 d936 cd3f
00000750: a2f6 f1f1 cd23 d63f 9bd1 4858 f18d e1bf
00000760: c607 eb30 fd70 c0bf 3b13 184a 4300 c4bf
00000770: 89f4 b843 3a2d ce3f f66c 7847 6b81 d6bf
00000780: bcbb 746a 32c2 97bf a271 9e26 ae95 d4bf
00000790: 08fd 51bf c1be d33f 5a14 f492 ed1e d43f
000007a0: 67cf e91f 9829 d1bf 81df b529 51c6 cdbf
000007b0: de08 4a33 9990 c33f 408a ee9e 1c0e 6ebf
000007c0: b851 d6b0 40d5 b03f 944b e405 7437 d6bf
000007d0: 041d ac09 cea8 a03f 4d80 a157 216f da3f
000007e0: e4e0 ae8e 0dbc ddbf 221d 3bff dcb7 d4bf
000007f0: df2d f56a d14c 9fbf 6196 c251 803c cbbf

bias f8 [30]
-0.2047010851799788 0.08719827383332716 0.2587956831276217 0.015582224517143368 -0.2658331427439831 -0.04452927435287468 0.09185738127439913 0.1650155593838178
0.22566388093511397 -0.00693623739952294 0.09210378803355396 0.07349620080443284 0.18495971423267515 -0.3547210878918823 0.20797947791600319 -0.006955287849833399
0.016329246362890862 -0.0213540979912496 -0.022125937902302155 -0.0040562873281668336 -0.030175639428363044 0.3361626309783886 -0.0724038397753757 0.05028121647820604
-0.04906310616380094 -0.0005857838512648028 -0.12394745386457984 0.006588444654063698 0.20353050795636277 -0.10687427700242073
00000000: 45e0 2629 a533 cabf 2bbd 6146 a052 b63f
00000010: 6843 d8c4 1b90 d03f 24b9 99c5 92e9 8f3f
00000020: c9cf 9103 6903 d1bf a0d3 1e82 8acc a6bf
00000030: 5841 7820 f783 b73f fe3b 71d7 3a1f c53f
00000040: ba9b 40d6 8de2 cc3f d0a4 9c0c 2c69 7cbf
00000050: cc1b 7125 1d94 b73f 6ed5 d5a2 a5d0 b23f
00000060: ea79 da89 c2ac c73f 889e ec13 c0b3 d6bf
00000070: b2b6 f14f 129f ca3f 3cbc 96dd 257d 7cbf
00000080: 1445 632c 9db8 903f 3030 0842 d9dd 95bf
00000090: ae1f bc8e 2ea8 96bf d1b7 ae56 539d 70bf
000000a0: 903e ece1 5ce6 9ebf b220 8c44 b083 d53f
000000b0: f2a7 f0db 0e89 b2bf ff04 c1a8 75be a93f
000000c0: a0d0 d3a8 cc1e a9bf 8f1e ea3d e931 43bf
000000d0: b855 c534 05bb bfbf 68a0 2125 7cfc 7a3f
000000e0: 9996 b4a5 490d ca3f 9350 82d4 1c5c bbbf

weight f8 [2, 30]
0.21761619671393367 0.46006097894239867 0.8728026087464712 0.02484988771587773 1.093967564629621 0.7181650677153744 -0.6474057830746155 -0.1711887318117383
-0.575183988579046 0.2962004412212433 -1.534237262955594 -0.7088843020544419 1.2200866882935844 -0.9808516672569522 -0.17833188327825217 0.2860016348479726
-0.38967946379096413 1.0038409634502168 -0.25313911585130694 -0.4095861119182343 -1.011121960164359 -0.8355022593007052 -1.0757458921563676 -0.5932459957189388
-2.4832938337117914 0.7383558068724748 0.9886977867412026 0.23831290968344704 -0.1969607958385846 -0.06532392589278477 0.8826714705396832 0.2833875426283915
-0.7981178677305624 0.4023083794201463 -1.1245405641539608 -0.09856529553152783 -0.22747418480836704 0.6514787318104234 -0.5911208758735635 -0.31359339814337933
-1.510789730331802 0.06687647702237944 -0.1030177331997726 1.2713090848114812 -0.797209979515511 -0.36918354874406495 -0.11904827430620783 0.03525695275276897
0.5666566914358496 -0.32326193365310174 0.8895180208144888 0.4279483002563032 -0.3741038577335794 -0.40392344741901737 2.2881784935740526 0.20187675883662465
1.0212999672382963 0.25193838970589794 0.6351100262055347 0.13659113370985115
00000000: 02ae fbf7 d8da cb3f 514b ae9a a371 dd3f
00000010: 19bf 8dbc ffed eb3f 6724 32bc 3f72 993f
00000020: fa80 0f22 e480 f13f f6f2 de4e 35fb e63f
00000030: ed7e 3155 8cb7 e4bf e39d 492a 83e9 c5bf
00000040: a627 8440 e867 e2bf dfc8 06b2 f2f4 d23f
00000050: 672e 4b5f 3c8c f8bf 7517 bf21 2eaf e6bf
00000060: 2118 889e 7985 f33f d70f 2309 2363 efbf
00000070: bad0 4143 94d3 c6bf a892 11cd d94d d23f
00000080: a3eb 3922 82f0 d8bf 0476 c68a bb0f f03f
00000090: abdc fa67 6e33 d0bf 496a e5aa a836 dabf
000000a0: fdc5 7238 8e2d f0bf cfc7 ed3b 6fbc eabf
000000b0: 17e3 1953 4136 f1bf c710 c306 dffb e2bf
000000c0: 7134 5128 c9dd 03c0 ef86 6a5b 9ca0 e73f
000000d0: 24cb 758a 69a3 ef3f 760a a794 0981 ce3f
000000e0: f044 5ce8 0236 c9bf 3618 5b9d 11b9 b0bf
000000f0: ba90 623d d83e ec3f 22b2 eb80 0523 d23f
00000100: 4f31 887b 2e8a e9bf dc0a 21a5 6bbf d93f
00000110: 0111 213f 1efe f1bf b917 d440 933b b9bf
00000120: 49d5 37c4 df1d cdbf 544a e5ec e9d8 e43f
00000130: bc83 bb53 76ea e2bf cb1b 510b ea11 d4bf
00000140: 2486 2eda 312c f8bf f9cc ae19 d11e b13f
00000150: 9146 00c3 5e5f babf d1f7 e531 4857 f43f
00000160: e00b c280 be82 e9bf 41ed 0409 b4a0 d7bf
00000170: a357 ca9c f279 bebf b13c 0f06 330d a23f
00000180: 65d9 b836 0d22 e23f 1c3c 45d2 52b0 d4bf
00000190: 623a 137f ee76 ec3f f1b1 7e44 8163 db3f
000001a0: 757b 914e 51f1 d7bf f324 30bb e1d9 d9bf
000001b0: 237d aa86 304e 0240 d24c 83fe 18d7 c93f
000001c0: 131c 6ba2 3e57 f03f f332 1932 c21f d03f
000001d0: 6043 fd42 d252 e43f 3a8b 1a7a d17b c13f

bias f8 [2]
-0.006824132988212693 -0.31169040058540526
00000000: 6579 2040 9ff3 7bbf ff73 3f4b bcf2 d3bf
