AONN_BFGS/BFGSNN/steady_NS/forward_test/forward1/u.pt (torch, 19603 bytes, 8 tensors)

weight f8 [30, 2]
0	0xbfbfc4a8544ba085	-0.12409450586312872
1	0xbfee22abf3b85e58	-0.9417323837432816
2	0xbfe7d9aa1308a268	-0.7453203555824759
3	0xbfab2321c970091d	-0.05300241073566012
4	0x3fc34b1e08644c27	0.15072989854579186
5	0xbfb6022a96a6f6fc	-0.0859705560496557
6	0x3fbc7a828d5d58a4	0.11124435378346448
7	0x3fe8a59ceb74c20a	0.7702164267303158
8	0xbfe0a7d101218e4a	-0.5204854032603603
9	0x3fe38c6e7594eeb8	0.6108925148505113
10	0xbfd56420922138d1	-0.33423628111348785
11	0x3fc1d63d43e487a6	0.13935056510041227
12	0xbfe05bc0bf1f33a1	-0.5112003071641206
13	0x3fe8c6dd21ef1d42	0.7742753660940382
14	0x3fdb2635f5c8daa5	0.42420720102692605
15	0x3fdd4106127586b3	0.45709373285908866
16	0xbfd3a3f6aa8a7fc7	-0.30688254026790357
17	0xbfd545f4c6be42c2	-0.3323947850085852
18	0xbfd2469488c624a8	-0.2855578742679179
19	0x3fd70c4acf1ef6ba	0.360125257746272
20	0x3fd3ee55c6863dd9	0.3114218176569615
21	0x3fd031a50a09adf0	0.2530300710702411
22	0x3fbf5fc23b9e90b0	0.1225549121432461
23	0xbfd588d37bdac79c	-0.3364762029187831
24	0xbfe10f3826806ae9	-0.5331078292832362
25	0x3fe1bfc2c3f55b54	0.5546583010972008
26	0x3fc048fa7db972ba	0.12722712649237683
27	0x3fe0c131a74da652	0.5235832469599677
28	0xbfa8879ad4b34a64	-0.0479095825809466
29	0x3fb5d522b921a192	0.08528344173249128
30	0x3fca257dee1f38b4	0.2042691624359968
31	0x3fe40af502639f87	0.6263375326789039
32	0x3ff5c85c975a4cec	1.3614164268699893
33	0x3fc0237e4df870bc	0.12608317191268792
34	0xbfe605e61063fbcc	-0.6882200546386854
35	0xbfc0c433a5a32b4f	-0.1309876021171825
36	0xbfcb22c457bc7248	-0.21199850353231597
37	0xbfafa1a44f03e053	-0.06178010429897598
38	0x3fdcf5b5b5b7b3c8	0.45249693628175836
39	0x3fe3561e62d12c7d	0.6042625360509103
40	0xbfe0e3661fb0573e	-0.5277586573526845
41	0xbfed33bdb84a639e	-0.91256605142836
42	0x3f85b2e4dd274b01	0.01059511947543035
43	0xbfe045098c0a8171	-0.5084274039436832
44	0x3fa946a9f43778a7	0.04936724764023497
45	0x3fb4f14d07ec2dc4	0.08180695956632805
46	0x3fa1c003685e5f5c	0.034668070307076276
47	0xbfde06678c1573d3	-0.4691408985143514
48	0x3fcc087f2e84b6b3	0.21900930186659692
49	0xbfdfc7410a0fb7b3	-0.49653650267179755
50	0xbfc640eadc5f190a	-0.17385612259222
51	0x3fcc44f918a9167f	0.2208548899090381
52	0xbfadb395552ad8fb	-0.058010737081916695
53	0x3fcb54c4e8b366b4	0.21352444994299946
54	0xbfd51856dbe40bdb	-0.3296105525370742
55	0xbfc9bf5bd06762de	-0.20115230251283028
56	0x3fd292a6184995a8	0.29020073291607185
57	0xbfc13f6673dc5e25	-0.13474732072130383
58	0xbfe1b944370afde2	-0.5538655352647164
59	0xbfc273c0316cf934	-0.14415743268359338

bias f8 [30]
0	0x3ff610764ee8d4a0	1.3790190775301099
1	0x3febe6819f852a9e	0.8718879809979005
2	0x3fd9c7fa514a8756	0.4028306764467876
3	0x3fb25b82cd0ccd2b	0.07170884615043309
4	0xbfbe7fdb6688dac5	-0.11913844350133747
5	0x3fc4d66ef90bb948	0.1627939907115865
6	0x3fd0fbc87abb89a3	0.2653676222381824
7	0x3fcecdaca820a66d	0.2406516858039142
8	0x3fcec1b9101da8e8	0.24028695380122334
9	0x3fd1c1ca3ec88719	0.27745300418074376
10	0xbfd852ac2036f9a5	-0.3800459208104264
11	0xbf84a9dfcc3719c3	-0.010089634341864056
12	0x3fd05f4ff265f10a	0.2558174006624233
13	0xbfe191ff3fd69dd6	-0.5490719076960271
14	0x3fcc25084daa79ec	0.21988014023095503
15	0xbfcad0ba256b9700	-0.20949484660302886
16	0x3fe18c7611596c09	0.5483961428502663
17	0x3fe9aa66cf1df00c	0.8020509763005079
18	0xbfc1a9543806f651	-0.13798001037314347
19	0xbfd1562115c2c305	-0.2708819115169237
20	0xbfc9d429751292de	-0.20178716865952756
21	0x3fca7efa8bf4ea85	0.2070000823385564
22	0xbfbb2c339e4f420c	-0.10614321341495997
23	0xbfc66b9ecc78e327	-0.17515931114191938
24	0x3fd89b1d29cdf6e9	0.38446740229106396
25	0x3f94bc69503c6cfe	0.020249982378214952
26	0x3fa158b7b9872e7e	0.033879987142054965
27	0x3f80e4ea44d40e28	0.008249120927309297
28	0xbfae7eac782705cc	-0.05956019369797225
29	0x3fbbb5805db6c5e9	0.10823824203432476

weight f8 [30, 30]
0	0xbfc2c80b266dfb64	-0.14672984482237006
1	0xbfd5a9c08493338b	-0.3384858412435327
2	0x3fd4b0ed5d6c8f85	0.32329877971118776
3	0xbfd4074b9c362c99	-0.3129452729705889
4	0xbfc8d17b91fcef66	-0.19389290455171276
5	0xbfb03293f8511d9d	-0.06327175915168089
6	0x3fc5a30a2f8cd98a	0.16903807946955524
7	0xbfa592306e049171	-0.042130959920799856
8	0x3fcf6a1179adf30d	0.24542444650060027
9	0x3fc8cb0041344a2d	0.19369509872247317
10	0xbfc690eaf21c6ce7	-0.1762975389654919
11	0x3fc3dcfd3c849af1	0.1551815553186411
12	0xbfd3254785ae52e5	-0.29915035300045495
13	0xbfbd021e43eb8115	-0.11331357153131123
14	0x3fb3cf9f29c400c5	0.07738680619877687
15	0xbfd14bf0bf5661bc	-0.2702600353746012
16	0x3fa1e75c2c0f3ce7	0.03496826207958197
17	0x3fd381667ae7b9fd	0.3047729683156886
18	0x3fc13619354f9cc8	0.13446345427585116
19	0xbfc8c525c3e56f53	-0.19351646485562898
20	0x3fa8bcfcc1651a27	0.04831685887124975
21	0x3f89908f4c607138	0.01248275710900569
22	0xbfc18d63dd97d5cc	-0.13712738342262154
23	0x3fd23e5469a7a579	0.28505430524690883
24	0xbf84f1c02963688b	-0.010226727736540894
25	0xbfd2cf287ae35fd2	-0.29389392853545104
26	0x3fb76180b4f7e1b3	0.09133152406855664
27	0xbfd22796e6d109f4	-0.2836663488452864
28	0x3fcbc381fa3a3db5	0.21690392225398872
29	0xbfd1db20a4ccba6f	-0.27899948209498054
30	0x3facfbfea4af243c	0.056610066988988156
31	0xbfd394f0950cf1ba	-0.3059655623981389
32	0xbfc1938e44ff7e81	-0.1373155438331999
33	0xbfbbc5cfd76da3e5	-0.10848711976508658
34	0x3faf7004a5c8e1be	0.06140150569666812
35	0x3fc8371522cda746	0.1891809863985207
36	0x3fac21dd1430ee60	0.05494585868333668
37	0x3fc4c51d6cd6f4b7	0.16226547064244354
38	0xbfbb28155c16a645	-0.10608037470105909
39	0x3fc26d2b07a1c586	0.14395654556896548
40	0x3fd18aaf17004a2c	0.27408959623531604
41	0xbfd022179cee3a7f	-0.2520808250928112
42	0xbfc88db93e11ced9	-0.19182506113758427
43	0xbf9df4cb48b8c641	-0.029254127801499278
44	0xbfc57dc4532d8a85	-0.16790060101910256
45	0xbfd671dfc2ad7520	-0.3507003213070039
46	0x3fd843687df68dc7	0.37911426831325595
47	0xbfb8c275bfdec1b4	-0.09671722349481265
48	0xbfaa5bae319ba735	-0.05148071628157284
49	0xbfcf671a64a0beb6	-0.24533395684692544
50	0xbfbe91d47a7fab37	-0.11941268912020751
51	0xbf43e6b78f604725	-0.0006073375977868374
52	0x3fc66b892f97f023	0.17515673469449763
53	0xbf8e0b23e4c1be00	-0.01466968576298111
54	0xbfd0c0066a6d96ea	-0.2617202796303518
55	0x3faa58aa607f74f2	0.051457714347387454
56	0xbfb1f0cb39c4a88e	-0.07008047256809588
57	0xbfc4e21c04cf81b8	-0.16315031275645508
58	0x3fccbb5c832faded	0.22446781545237063
59	0xbf705f94863c5918	-0.003997402356409795
60	0x3fce152658a12e91	0.23502044036500938
61	0x3f9edec7de7b6a9c	0.0301467160742087
62	0x3fc9b8ef5d957d6b	0.20095626897362293
63	0xbfcc7c85dbdb4d63	-0.22255013690174072
64	0x3fb36791a07cab33	0.07579908531321848
65	0xbfbe01bfc889a583	-0.11721418996753212
66	0xbfb355f66e8a77c0	-0.07553043555023375
67	0x3fb585fb9cbf36ac	0.08407566620663925
68	0xbfc5ec9d9c413fbd	-0.1712834370578075
69	0x3fd5472a1b68e788	0.33246853520142183
70	0xbfd1dc7adb23921f	-0.2790820255307
71	0x3fd0b5d7b29ff986	0.2610987896331597
72	0x3fd36ed2b8fd48bf	0.3036391073739075
73	0xbfcbf3ffdc679ec4	-0.21838377248717766
74	0xbfaf7cb63ca9d5a6	-0.06149835100670069
75	0xbfc64c015d28c307	-0.1741944985274346
76	0x3f8e99520c00f300	0.01494087313778314
77	0x3fd2587e3ebdea0b	0.28665119292387037
78	0xbfa726d02792113c	-0.04521799548186542
79	0x3f8c0b718b25a836	0.013693701800281937
80	0x3fb833c2eb14c265	0.0945398162773557
81	0xbfc562c05e4fdc4f	-0.1670761547572703
82	0xbfc2f7e7ccb8bb04	-0.14819047447368672
83	0x3f6d82df5513992f	0.0036024438819481012
84	0x3fcc15e90d604df1	0.21941865113386386
85	0xbfce28c2c6b2c89c	-0.23561892225331327
86	0xbfc06595cd827093	-0.12810013327260047
87	0xbfa76923016c9858	-0.04572400467286347
88	0x3fd32efcf5d077f1	0.29974292760186844
89	0x3fd796442f1f6506	0.3685465297872529
90	0xbfb2fc024e5a25cc	-0.07415785229581856
91	0xbfc7a8a056a0d6bf	-0.184833566950763
92	0x3faeacfeb47b0946	0.0599135966599698
93	0xbfd272461dda1dcb	-0.28822472491489454
94	0xbfb3f15427f3bbd9	-0.07790113425629332
95	0xbfd11289ec5f24e3	-0.2667565162960967
96	0xbfc14ac251963ae8	-0.1350939653752541
97	0x3fca778d21c387bd	0.20677341602919155
98	0xbfc59088c5cfd28e	-0.1684733358266794
99	0x3fcc398c4656d0a5	0.22050622400786782
100	0x3f84a4812f1a40eb	0.010079392671542972
101	0xbfa04b19db8350c2	-0.03182297520257428
102	0x3fa271db672d0598	0.03602491030188587
103	0x3fc3a3da7c4cd49f	0.15343791074125065
104	0x3fd00103d4d3eca8	0.25006194862334974
105	0xbfbdc907903d9484	-0.11634871741769542
106	0x3fb80a932dfcbe32	0.09391136048065432
107	0xbfd77d0752bf8dbb	-0.3670061405266229
108	0x3f8446a5ae598481	0.009900373824338839
109	0x3fd3f2ace54e02bf	0.3116867293647764
110	0xbfd3593f9a61573a	-0.3023222930545334
111	0x3fce319b402bf1d7	0.23588886865026268
112	0xbfb545d174c32e5f	-0.08309659100194143
113	0xbfce7a5109b8444e	-0.23810780500983458
114	0xbfd50c84e41978d8	-0.3288891055616552
115	0x3fd06ef7439a669a	0.2567728195368574
116	0xbfd2feb9ef70f282	-0.296797260121629
117	0xbfc3b1d7a1aec0e3	-0.15386481661472037
118	0xbfc8928d8fa3884c	-0.19197244180310447
119	0xbfce75309ad2e5e6	-0.23795135078198298
120	0xbfca9e89e2e8da67	-0.20796321467942677
121	0xbfd460ddd9ff1dee	-0.31841226853109006
122	0xbfcb2a02aedbc1e7	-0.21221955812462953
123	0x3fd116ad7d3e645d	0.26700913649398733
124	0x3fc262861337bb07	0.1436317056499876
125	0x3fbde3ecea6b6bf6	0.1167591163934246
126	0x3fcae02c8e3c21ac	0.20996624894202165
127	0xbfab3298e5aea4d9	-0.053120401418092995
128	0xbfd39c17282b69f8	-0.3064020054131613
129	0xbfb76178d172fa20	-0.09133105386261109
130	0xbfc7c26bc164e4d7	-0.18562075560638533
131	0xbfb4dbeb029bcd3d	-0.08148068250357184
132	0xbfa218f27f8fe1c7	-0.03534658248094363
133	0x3fd4ee12faee833a	0.3270308924202713
134	0x3fcb6d0228616605	0.21426417323782246
135	0x3fb26bd4e8e496a9	0.07195788083898925
136	0x3fc5e1937b23a543	0.1709465361848662
137	0xbfdb7f7ded350c29	-0.42965648808257356
138	0xbfd16029e3428222	-0.2714943618139235
139	0x3fda88f5d23f0a74	0.41460938960896176
140	0x3fbf896cfc7faa16	0.12319070019263054
141	0x3faaf0664ce05d5b	0.05261535347397724
142	0xbf925db18a46d094	-0.017935537399993054
143	0xbfb47a4025d22594	-0.07999039576875183
144	0xbf9c118120e034f9	-0.027410524016933533
145	0xbfc46108c22f21dd	-0.15921124917646426
146	0x3fd274d83401c212	0.2883816249732557
147	0xbfaba43a340c9e31	-0.053987330297158194
148	0x3fa55330314853ab	0.04165030099480956
149	0x3fc3052c59c3c2bb	0.14859537489930638
150	0xbfd6483cc6e118a2	-0.34815902158551115
151	0xbfd83a3080fa611c	-0.37855160327446113
152	0xbf9fea47926ee490	-0.031167143166133615
153	0x3fcc11e97adf43b4	0.21929663180938308
154	0x3fd6f8d37d8cb40c	0.3589371419973879
155	0x3fcb4edcee1feffb	0.2133442080229314
156	0x3fdaabeeb5a73247	0.4167439245182191
157	0x3fd90c7d8c644046	0.3913873549472594
158	0xbfc31118c02d286e	-0.14895924934018318
159	0xbfbbef56cebe71e9	-0.10912077472170946
160	0x3fc12bd7beb24ed0	0.13415047465661312
161	0xbfaf8cb167403c0f	-0.061620277265426286
162	0x3fbe1591850eb9fd	0.11751660822367423
163	0x3fc699cf06c07c89	0.17656886892016058
164	0xbfb28506ff0784f9	-0.07234233595183416
165	0x3fda00383bef865b	0.40626340725984783
166	0x3fad77debee5576a	0.05755516128799239
167	0xbfad1867d6142f06	-0.05682682503001328
168	0xbfc13705682fe9ec	-0.13449161135925125
169	0x3fd0d8ce5947534c	0.2632327911244843
170	0xbfa856393deba787	-0.047532833870561446
171	0xbfd81bed71ef7524	-0.3767045605325896
172	0xbfcf05ee67c717cb	-0.24236850802679863
173	0x3fb0080788e3f07c	0.06262251941729063
174	0xbfcfc8c94339261e	-0.2483150079954592
175	0xbfcb26022f25921d	-0.2120974283417504
176	0xbfd01891567e1544	-0.2514994949963987
177	0xbfc08e57ebac6777	-0.12934397704594477
178	0x3fc450d819705d72	0.15871716730246593
179	0xbfd7023f0ac6b9b6	-0.35951210071916806
180	0x3fd303251be0492b	0.2970669529178333
181	0x3fd510b1f04f8de3	0.32914398639533554
182	0xbf86daa21a3dec9b	-0.01115919725974939
183	0xbfb7893724460b57	-0.09193749080263323
184	0x3fe15eb9fe1ac9fd	0.5428132975560512
185	0x3f95e1956d6811f5	0.02136834602608136
186	0xbfb7311b562c5bbf	-0.0905930600532505
187	0xbfc0f54f34471c7c	-0.1324862485182371
188	0xbf6496c5ec7daac8	-0.0025133004855225384
189	0xbfad1d1436c1530f	-0.05686247986219516
190	0xbfc2e3a5a3dec2d2	-0.14757223607514064
191	0xbfcb397acc96ecf2	-0.21269164075588481
192	0x3fc8be7605d5ad90	0.1933124092569014
193	0x3f94d7c44cf96418	0.020354335020190545
194	0xbfcac0d7164556f1	-0.20901001536792976
195	0xbfb1dc9e11b70a29	-0.06977260525221908
196	0xbfd480d92b37d028	-0.32036427708158266
197	0x3fc9e5f203e5ad44	0.20232987585345985
198	0xbfbd7d6e6accc6d5	-0.11519518001002933
199	0xbfd9874f9ae30f61	-0.39888372541121525
200	0x3fcffc40baa170ed	0.24988564598869037
201	0x3fc28d2cc9c0d3cb	0.14493331767303483
202	0xbfd54a9c2ffa2de4	-0.3326788395431477
203	0x3fab0716c6d7eb40	0.05278845956123357
204	0xbfcf143038f75b20	-0.2428036001353684
205	0xbfb321fd68aa5400	-0.07473739438349014
206	0x3fb9fc6b05f250e7	0.10150784392527933
207	0x3fd10db810705e78	0.266462341359762
208	0x3fbb557b95b7e6a7	0.10677311330064275
209	0x3fc71eec2e94c994	0.18063118242714593
210	0x3fcf3c925cd69a1a	0.24403600247497154
211	0x3fce663674f162ba	0.237494284726173
212	0x3fb4b533aa5745f0	0.08088992031777997
213	0x3fbc6d7d4eed0331	0.11104567696476121
214	0x3fd046e6b3bba3a4	0.2543274646000617
215	0xbfa1c98b10e5b436	-0.03474077779069555
216	0xbfc0b108bbfcd77c	-0.13040265254101857
217	0x3fba1920f149ec34	0.10194593325461271
218	0xbfc3c243397924b8	-0.1543659239417019
219	0x3fce66d5ed05c279	0.23751329491962617
220	0x3fd3236aacce3a83	0.29903666377587274
221	0x3fb55dfb17faa206	0.08346528373170523
222	0x3fca20444e307c6c	0.20410970514146543
223	0x3fda2affd88b98fe	0.4088744749737002
224	0x3fb0ad2fb070632a	0.06514261300652593
225	0x3fbc74f181a129c2	0.1111594144323709
226	0x3faeed1b47c2c4f5	0.06040272952066942
227	0x3fb48e0064ba2e78	0.08029177149927047
228	0x3fd0eb754cc5a050	0.26437122819198056
229	0xbfc4bead16ea8f18	-0.16206897372205087
230	0xbfc968de642ac0cc	-0.19851283923117646
231	0xbfdcea63943cd591	-0.4518059680588858
232	0xbfc339953949591a	-0.15019479081338077
233	0x3fc1def51ad0433a	0.13961662110571088
234	0xbfbcdac96a340294	-0.11271342127657596
235	0x3fd60171164d5969	0.3438379972261801
236	0xbfc35f05ce5ab29c	-0.15133736205952608
237	0xbfc667ba083804e9	-0.17504048730192004
238	0x3fd0690e1e113f8c	0.25641205726878336
239	0x3fcbbdc037161bf3	0.2167282361008059
240	0x3fba3663faf6feff	0.1023924339015103
241	0xbfd0702c66681a13	-0.2568465232911034
242	0xbf9ecde485c75c9d	-0.030082293191153842
243	0xbfd4b2be974e619f	-0.3234096982573877
244	0xbf9895ab69eeadef	-0.024008444157216088
245	0xbfc3d73abda32517	-0.15500578174241106
246	0xbfcf73d1e5532eb4	-0.24572204301363387
247	0x3fc2061b6021e69a	0.14081136888471663
248	0xbfabf661b88bcd44	-0.05461411836395283
249	0xbfc543dba2b69172	-0.1661333603380047
250	0xbfd712a341293a64	-0.3605125557268478
251	0x3fd0b5dab54f7d71	0.2610995073900631
252	0x3fcb745ae178d7a1	0.21448837289216008
253	0xbfc35ccf4385b90d	-0.15126982495298372
254	0xbfd05c7555fe9a95	-0.2556432094374171
255	0xbfd35f0f32010c88	-0.3026769626923813

bias f8 [30]
0	0x3fb1a01d7893cda5	0.06884941285880204
1	0xbfc18d87e215bc88	-0.13713167704870366
2	0x3fcce4da147efb78	0.22573400498182727
3	0xbfa4565624feb628	-0.03972119523619383
4	0xbfc4a61683279de3	-0.1613186016468112
5	0xbfd3271d7aa2affb	-0.29926239944575145
6	0x3fcaa9cc6ac46071	0.208306839115497
7	0x3fac50efb047b5ee	0.055304994839257535
8	0xbfc32ff370f4eb81	-0.1499008466288068
9	0x3fa4a0337b31d130	0.04028473738518057
10	0x3fc3c3dfdd22e4b0	0.15441511438055988
11	0x3f9ab4f13f9b096e	0.02608086538999415
12	0x3f9ee8887f11a96b	0.030183918719936125
13	0x3f7e60e2a5ff8015	0.007416615815571977
14	0x3fb0324d6235c746	0.06326755187708696
15	0xbfb905b54d8271ba	-0.09774335043261476
16	0x3fa49dbcbc427625	0.04026593969431883
17	0xbfa197e8b1554911	-0.034362098357307976
18	0xbfc0b987bbdf9e45	-0.1306619326926343
19	0x3fb2847e01ed4d00	0.07233417079014615
20	0xbfbbf64b92383b8e	-0.10922691650215041
21	0x3fc5a75541609972	0.16916909878018377
22	0xbfd094d3a67d4cd9	-0.25908366450057724
23	0xbfbdb650c7292724	-0.11606316435168346
24	0x3fb4f977fe0ef8dd	0.08193159058189133
25	0x3fe03b7e403e1fa4	0.5072623495807318
26	0x3fd085d0d4c92839	0.2581674650178943
27	0xbfb42f3efeb59426	-0.07884591787804193
28	0xbfc423c8ee28b227	-0.15734206799369696
29	0xbfc5d7ed2b6a3680	-0.170652052115134

weight f8 [30, 30]
0	0x3fd59f063bafd1bc	0.3378310759428833
1	0xbfd679b8f540c4dc	-0.35117935133446365
2	0x3fce4213f5f407be	0.23639153966365528
3	0x3fb7ddec3a9e50d3	0.09323002272714413
4	0x3f9c227c24fde8ec	0.027475299604227496
5	0xbfc03093c4b73d99	-0.12648245911848902
6	0xbfd0b9e8137090f6	-0.2613468351212441
7	0xbfe7d4754c8f064a	-0.7446848387991818
8	0x3fcc90c738db9e61	0.22316828037513672
9	0x3fd167724efea907	0.27193887438137704
10	0xbfb0f10900c8a487	-0.06617790478834894
11	0xbf997de2a3fd47d8	-0.024894276866071013
12	0x3fd30f9fbdb2929e	0.29782861256743753
13	0xbfbedbf730ad2e78	-0.12054390848532559
14	0x3f62db7d246fcc4e	0.0023019260584021045
15	0x3fba453e5e7b6ef0	0.10261907393163106
16	0x3fd2fec2d44fc409	0.2967993806224177
17	0x3fbf5310818eb763	0.1223612133314567
18	0xbfd0939c54692384	-0.2590094398806786
19	0x3fc519a528750d6f	0.16484512782526958
20	0x3f751fbaeba3d106	0.005157213361816076
21	0x3fb6294abfff0152	0.08656756579785466
22	0x3fa88c5a543812d3	0.047945807247776216
23	0x3fc2920b93a36b65	0.14508194645790265
24	0xbfb98b496da06b42	-0.09978159834319647
25	0xbfdf8ac3be2684ae	-0.49284452027684267
26	0xbfb76c57e778f725	-0.09149693871674154
27	0x3fa7e3e7dabf15da	0.046660657360501026
28	0xbfe12a8228d92abb	-0.5364390180414697
29	0xbfc8765c45ad90a3	-0.19111207391973037
30	0xbfb88cd4c2b8e04f	-0.09589891199073118
31	0x3fb040463555958e	0.06348074724299677
32	0x3fd475afc9810b77	0.31968302419789246
33	0xbfbffd75a451c7ff	-0.12496123563485638
34	0xbfd0f8e939ac0785	-0.26519232399015663
35	0x3fe9378779090d15	0.7880284656497759
36	0x3fcfbdabcac7e88c	0.24797580148134946
37	0xbf910e89c6900d33	-0.0166570212786727
38	0x3fd959ecb7dc9685	0.39611356692544347
39	0xbfaaa02ff38c7bb2	-0.05200338218695978
40	0x3fc99eedca124c94	0.2001626240422395
41	0xbfd9d57dd479ec73	-0.4036554884875791
42	0xbfd9829b1b80aa0d	-0.3985965508060481
43	0xbfacc293dd3fda0b	-0.05617200923727602
44	0xbfa2a5bda01543b8	-0.036420751372709004
45	0xbfc99936da786926	-0.19998822848794723
46	0x3fcb7515c2bf7452	0.21451065072224879
47	0x3fde9bce3c070146	0.47825961935088335
48	0xbfd68b9c62775901	-0.35227117172088646
49	0x3fe5084710739011	0.6572604485813845
50	0x3f7ceca7c969b658	0.0070616296930957265
51	0xbfd22a5f95c3d360	-0.28383626580698795
52	0x3fd5e8a0a11877f4	0.3423234532546069
53	0xbf9e5c5672b99488	-0.029649115326169567
54	0x3fde2509abdf5f11	0.4710106066172424
55	0x3fca9c9346a69998	0.20790329885239767
56	0x3fdffbfd327ed01b	0.4997551911467341
57	0xbfafb92371ee30b2	-0.061959369332812556
58	0xbfbd5353fc835ea0	-0.11455273547050604
59	0x3fb9bab3e4c4fa0a	0.10050510726157583
60	0xbfdcbda20a904f6b	-0.44907427817928774
61	0x3fb0f3782fbdc117	0.06621504941518129
62	0xbfd19ee1237329bf	-0.2753222318830488
63	0xbfd1cad08c6d75dc	-0.27800382341032814
64	0xbfa1bee8daeac43a	-0.03465964958503105
65	0xbfe8210fc34be56f	-0.7540358366378949
66	0xbfc2f731c07a2126	-0.1481687726811824
67	0xbfc18e4d71756ac8	-0.13715522804235136
68	0xbfcf74a9e307d437	-0.2457477911517871
69	0x3fcfef498529b986	0.2494899654588602
70	0x3fbb3b959d929881	0.10637793633449812
71	0x3fc966787da0f84c	0.19843965658395957
72	0xbfd52c63ea7e8360	-0.3308343687040658
73	0x3fd8d5caa0b03ee7	0.3880487984870186
74	0xbfde4d2c13107c8c	-0.47346021520383696
75	0x3fd6cbed19349284	0.35619666539631845
76	0x3fe262ea70ac99f3	0.5745746803921165
77	0xbfe118c85d3060a4	-0.5342752285096322
78	0xbfd804c8924f4972	-0.37529196060236025
79	0xbff57858926bbe9d	-1.3418813438001174
80	0x3fa7c1af1727774f	0.04639956624644858
81	0x3fd94076ece8717a	0.3945596040300853
82	0xbfdaef1f74a2e393	-0.4208449019457074
83	0x3fdaaf95088a095b	0.41696668466479075
84	0xbfdebdea7ecc3017	-0.48034155256823524
85	0x3fb9d427d9060b75	0.10089348839214358
86	0x3f9a484b00f8f35c	0.025666400846819357
87	0x3fca824365104abf	0.20710031924007485
88	0x3fe4215be5e51b3b	0.6290721407066039
89	0xbfe0eb6253aa4ce8	-0.5287334093176499
90	0xbfba2d3865f07373	-0.10225250710250382
91	0xbfcedb60c01ded40	-0.2410698831625755
92	0x3faa23a11434c110	0.051053079334794416
93	0xbfc4ac13a9790c70	-0.1615013673309451
94	0x3fb050b790c9f123	0.06373164448627171
95	0xbfa1f0b45442096a	-0.035039553914446867
96	0x3fbb80facb156b0c	0.1074368234452942
97	0xbfd19a196830ed9f	-0.2750304715625251
98	0x3fd3ce65a6d0714b	0.3094724778218462
99	0xbfc3e7995ca0b2d4	-0.15550534270132366
100	0x3fb8759b9bae57dc	0.09554455328756667
101	0xbfd6d6380b455777	-0.3568248853747415
102	0xbfd1e3a691f2d601	-0.27951969387808623
103	0x3fd8d8154fa1bd5c	0.3881886747030501
104	0xbfd5fe4c5676226f	-0.34364613002302397
105	0x3f877a3770868fbe	0.011463578340062838
106	0xbf4717466c6a51d7	-0.0007046789040310819
107	0x3fd8699b8bdb23a6	0.38144577653707257
108	0xbfd415ac0aa17caf	-0.31382275617756766
109	0xbfbc633dba96f202	-0.11088929944430251
110	0x3fd64a0e07010c28	0.3482699459456762
111	0xbf7c991cab49cd4d	-0.006981956471111173
112	0x3fd6062f8b145dd9	0.3441275461386489
113	0xbfc454998675dedf	-0.15883177819681912
114	0xbfd0dfeee970b5cb	-0.2636678008737731
115	0xbf7a6c1505382920	-0.006450731383220082
116	0x3fd1052c115fa7a9	0.2659406823792048
117	0x3fb9e2de5eb2faf9	0.10111799060812733
118	0xbfce33e5361428a4	-0.2359587205940602
119	0x3fbc95150b29801f	0.11164981386673432
120	0x3fa8f979f4db4d29	0.04877835382435542
121	0xbfb90ed0eb276164	-0.09788232556400583
122	0x3fb4a03e57e22d79	0.08057012219994943
123	0x3fc69923319b27ef	0.17654838487788946
124	0xbfb847351eb5da59	-0.09483654021992417
125	0x3fcd4cad91061077	0.22890252667650987
126	0xbfd2e2e52058f550	-0.2950985732930649
127	0xbfbfb2b820a76601	-0.12382078931059227
128	0xbfdedbe440f36d5d	-0.4821711191450129
129	0x3fd2e33cbf74dbcc	0.2951194638912369
130	0x3f8505692ec643f7	0.010264226665443117
131	0xbfc6f28d898b3cdb	-0.17927712646494495
132	0x3fd1a4682dc793cd	0.2756596037928006
133	0x3fd112db7c664307	0.26677596233734885
134	0x3fa65497b2dd6094	0.04361414011390355
135	0x3fc478b328d8e058	0.15993346685877685
136	0x3fd5f25057a291a5	0.3429146629153144
137	0xbfc5a242fefb740b	-0.1690143342047182
138	0x3fb62e6b883d9a13	0.08664581371486006
139	0xbfdc9560a38e5e58	-0.4466172787883571
140	0xbfd2558d5b5ef4c1	-0.2864716903967058
141	0x3fbe2ae4cd335ebd	0.11784200677663655
142	0xbfb69284cdb94679	-0.08817319891502419
143	0x3fcecb44bc498e71	0.2405782622691848
144	0xbfc069531f78de87	-0.1282142547295175
145	0x3fcf4ed3ea07248a	0.244593133231579
146	0xbfd260674bb12739	-0.2871340026073202
147	0x3fc9e29f53289e97	0.20222846565706185
148	0x3fc5325676ded4ed	0.16559868625851185
149	0x3fd04bfbff596bcd	0.2546377175946731
150	0xbfb9fc85bb935c36	-0.10150943593485881
151	0xbfb47a2cd0f18173	-0.07998924351841712
152	0xbfce741b490db7f8	-0.23791829173154588
153	0x3fd20b6e143f2de3	0.2819476316187474
154	0x3fd789ff3f24d318	0.36779767195121016
155	0x3fbce0e843fb1773	0.1128068128556075
156	0xbfd4a1b1d8b5ae53	-0.32236906207137855
157	0x3fb8313b37ea4329	0.09450121035685001
158	0x3fd27f40f5c9a76d	0.2890169525404563
159	0x3f6b45aba6cf12c4	0.0033291199274308753
160	0xbf9010f8695a2e86	-0.015689736776535422
161	0xbfb01edc45ec3362	-0.0629708929738633
162	0x3fdde0708471a0c1	0.4668237012288153
163	0xbfd0171841b26b9b	-0.2514095918247052
164	0x3fd445a0e685e1d1	0.31674978744515864
165	0xbfce12373eea2c6f	-0.23493090221413435
166	0xbfc1ce99e309bc9e	-0.1391174658378746
167	0xbfaa3bbbe1709682	-0.05123698355627672
168	0xbf9545da42f6d0c7	-0.02077427896229336
169	0xbfa9b1cabae74b70	-0.050184569659584066
170	0xbfc8ece401ff6fc6	-0.19472932908581536
171	0xbfc93c9b458abf7a	-0.19716206451039026
172	0xbf89ba32b66f8aae	-0.01256217593431094
173	0xbfc20180668b3ed7	-0.14067082411792484
174	0xbfbf8128ef22d347	-0.12306457365305078
175	0x3f9c788750047766	0.027803529986264584
176	0x3fc267c3aff5b748	0.14379163829601738
177	0x3fda7f2b6cdc19f5	0.41401181822621363
178	0x3f81e007e3ebd4b3	0.008728086131194556
179	0x3fbed0056e14a220	0.12036165177836056
180	0xbfc7d3eb4a6bf5c5	-0.18615475782273286
181	0xbfce8748aab1ff76	-0.23850353560191778
182	0xbfaa93c1d290d52d	-0.051908547357394454
183	0x3fd032df3835dec6	0.2531049775056825
184	0x3fc00c3951320955	0.12537304367658444
185	0x3fbebe6c114bc118	0.1200931112505298
186	0x3fdc32fbc06d8f1c	0.4406117800883622
187	0xbfc4b8fd8e7d0e80	-0.16189546067663585
188	0x3fbeba7044b9de14	0.12003232648736911
189	0x3fd591e73ce7ccb5	0.3370302290706591
190	0x3fce1ff0fb0e474c	0.23534977205832275
191	0x3fc74b14c65982c5	0.18197879490892013
192	0xbfb48e3fd1aa2628	-0.08029555195585003
193	0x3fcbb4bf052a1f33	0.21645343544172987
194	0x3fc79e6f5d5ac5f0	0.18452255304650533
195	0x3fbc95cf368123d9	0.11166091042208794
196	0x3fe05cdc8489037e	0.5113356197908698
197	0x3fac9eb7c8d391a2	0.0558984215402092
198	0xbfd3aa36d86234c6	-0.3072640526887195
199	0xbfd75ca3868c7e61	-0.36502922191173154
200	0x3fbc9a4a527dc78e	0.11172928346584696
201	0x3f82dee886717e68	0.00921422634399889
202	0xbfd3343222598287	-0.30006078104455763
203	0x3fdbbc98e054b732	0.43338605792347373
204	0xbfbbd4bdd73758cd	-0.10871492866803863
205	0x3fb9c52b00683326	0.100664794539807
206	0x3fb06134e36cb105	0.06398325493200126
207	0xbfd4dedaa076df08	-0.32610192938180704
208	0x3fc674ab6b711d4f	0.17543547388252498
209	0xbfc0c060a1610a69	-0.13087089423978007
210	0xbfd1d98abf4430a4	-0.27890270880085155
211	0xbfcd11d4254d45eb	-0.22710658856753638
212	0x3fd09cc6d7e0412b	0.259568892303849
213	0x3fcb4c2e5f0ed3a8	0.2132623638296114
214	0xbf8427fc776ec52c	-0.00984189261893905
215	0x3f9c655daf3ec482	0.027730430432431515
216	0xbfd33b5d192912a7	-0.300498270579093
217	0xbfc3dc4c8cb31395	-0.15516049261182432
218	0x3f9b79d419c23359	0.026831926414661342
219	0xbfd782d680769a7a	-0.36736071152919403
220	0xbfa451d6a8601d6e	-0.03968687825550431
221	0x3fd3a3027fbdca57	0.3068243262743286
222	0x3faa1b1dd6339718	0.050988132856032375
223	0xbfd3cb857d08977e	-0.309296962836349
224	0x3fd7b1c3fcd9cb74	0.37022494976479625
225	0xbf7e9b47d4e8b0da	-0.00747230586288713
226	0xbfddae4563b25a34	-0.463761660919235
227	0x3fc25fedd3df8885	0.14355252118463482
228	0x3fe47fdb629a19a2	0.6406075406855971
229	0xbfc7d564eadecc05	-0.1861997744395866
230	0x3fb6b9d11c99a195	0.08877284000630532
231	0x3f9508a8f7360dac	0.020540847862788134
232	0xbfa30d6676725931	-0.037211610754797404
233	0xbfd5e977613bab61	-0.342374653772529
234	0x3f838969dd896301	0.009539439271223584
235	0xbfa5dfdfa1e0d0e1	-0.04272364474346247
236	0x3fd8ffc6435ec834	0.3906112344658397
237	0xbfc01a9f2467c724	-0.1258124282608658
238	0xbfdd5b6039ef3e8a	-0.45870214135809617
239	0xbf678a17d6c506e4	-0.0028734651188252348
240	0xbfa1dadff6fcc8f9	-0.03487300767882746
241	0x3fd4e9d7bcc8f587	0.3267726272204858
242	0xbfd15af77f610130	-0.2711771720824059
243	0x3fb5523da3d7c2ef	0.08328614473408512
244	0x3fd801af6ec81102	0.37510286158091344
245	0xbfc461f4670ddc0e	-0.15923934013309843
246	0xbfc3630739fe5508	-0.15145960170472272
247	0x3fbfb1732fde033a	0.12380142134317121
248	0xbfd169bc32cc5d62	-0.27207856140872455
249	0xbfc7dd46ba253158	-0.1864403160965462
250	0xbfc9257e1eb50aa4	-0.1964566850602597
251	0x3fa477c311041c65	0.03997621138301425
252	0x3fd30cfa8e51420f	0.297667159063196
253	0xbfd5a29d48eb4a73	-0.3380501949406273
254	0x3fc010c3f71dcbb6	0.1255116421339985
255	0x3fd12c3512a21160	0.2683232004130982

bias f8 [30]
0	0x3fb88ae91c488c2d	0.09586960735809731
1	0xbfbe16c9bd63b2b6	-0.11753521798864139
2	0x3fb26e918eb318ef	0.07199964269520696
3	0xbf82be8bf1a4f978	-0.009152501403715915
4	0x3fa1e12c32dd0da9	0.03492105599300583
5	0xbfb1c723174604fc	-0.06944484060479178
6	0xbfa2f9ccebcbba00	-0.037062076362293084
7	0x3fb69425de7474cd	0.08819805794742593
8	0xbfc3820b821447f4	-0.15240615703129345
9	0x3f9c95ef0f81aecc	0.027915702172704823
10	0xbf6734d1720558eb	-0.0028328028421739
11	0xbfb0fc97448a8c3b	-0.06635423110360332
12	0xbfd41f5c26236edc	-0.31441405987218984
13	0xbfacd94f4b476f1f	-0.05634544176038347
14	0xbfc760d65ee6e5d1	-0.18264274248012538
15	0x3fc23e65a211b732	0.14252920545134767
16	0xbfb238602a2a5225	-0.07117272405077608
17	0x3fab65c23825fb90	0.05351073203473
18	0x3f6582fd6b253760	0.0026259374218743775
19	0x3f5dd0b2f743b12d	0.0018197772706641344
20	0x3fd0c4ac6fda59bc	0.26200400279176583
21	0xbf86e960f60242fd	-0.011187322146982032
22	0xbfc017a4b0378891	-0.12572153667776267
23	0xbfbd242ba8092035	-0.11383316852982335
24	0xbfb2c156f4e0360d	-0.07326262930310908
25	0x3fcb36781bf279da	0.2125997673474121
26	0xbf995d8c0667268c	-0.024770915880969954
27	0xbf905777f34fb440	-0.01595866606287566
28	0xbfc08d271a024a3e	-0.12930763978927645
29	0x3fa1753894f126ca	0.034097450429340606

weight f8 [2, 30]
0	0xbff13fd43c4e827c	-1.0780832629899626
1	0xbff4fd02d8d921c7	-1.311770293296023
2	0x3ff2cba9e2f111f4	1.1747225632581122
3	0x3fc623ca7e753313	0.17296725439737112
4	0x3fda9355fd71d9f5	0.41524266958677397
5	0x3f84f5c1b723716d	0.010234368707124653
6	0xbfe01cc3057737ab	-0.5035109621764965
7	0xbfe51a8f79dd38c6	-0.6594922428282863
8	0x3fcbde5bfab1c5fe	0.2177233671277889
9	0x3ff2c00842d05c97	1.1718828782957524
10	0x3fd582bbef77e9c5	0.33610437760912887
11	0x3fac8d386c581260	0.055764926171865126
12	0x3ff02b8f9b6046e2	1.0106350011232554
13	0x3fc7eda19d47896c	0.18693943195018947
14	0xbff8cac2c273fe75	-1.5495021434616352
15	0xbfcb6da7c86ba137	-0.2142839172950148
16	0x3fd4301344e65e70	0.31543428162101517
17	0xbfc622af7549b3c5	-0.17293351389835557
18	0xbfc7255817387021	-0.1808271516209752
19	0xbfd21fb74c515e64	-0.2831857915202589
20	0xbfd9316196f4285b	-0.39363898984504936
21	0xbfb8d23b6e836ff8	-0.09695788810807915
22	0x3fc0c448483ae3c0	0.13099006201608
23	0xbfdc598962fc75ad	-0.44296488443964216
24	0xbfb8d81ede0a27e4	-0.09704773827448282
25	0x3fddde9fd9246297	0.4667129154709441
26	0x3fe2f47df849b08c	0.5923452233669351
27	0x3fe191cef38645c1	0.549048877366822
28	0x3fe9d3ae27e6c516	0.8070898799252599
29	0xbffcc97b9779a8e6	-1.7991901318551355
30	0x3ff2757cb8e388d6	1.1536833975047123
31	0xbfc287957b5c3f41	-0.14476269267515288
32	0x3fea2d27cadc6298	0.818012138569503
33	0xbfe739a7da1768fc	-0.7257880458448933
34	0x3fc54e8ba2cfcc90	0.1664595170001104
35	0xbfdf57daeddc3018	-0.4897372553684831
36	0x3fe5b48ce7dff032	0.6782898453525432
37	0xbfe0c8eec3221447	-0.5245279132074153
38	0xbfd1e76108fd85f0	-0.27974725606881545
39	0xbff3c3c16a5337b5	-1.2352918771098136
40	0x3fc95f6b28295620	0.19822444401749895
41	0x3fbe7b7cebdfed69	0.11907177694950168
42	0xbffe851b2a50f28d	-1.9074966099716761
43	0x3fbcc56cd2ce41cc	0.11238746782897308
44	0xbfff0ff002155280	-1.941390998971798
45	0xbfcc926e658212dd	-0.22321872669649326
46	0x3fd7f333a827b89c	0.37421885892298135
47	0x3fa727b9ef6fc174	0.04522496269044299
48	0xbfbdd7191750f82d	-0.11656338519330296
49	0xbfc4501feb141e19	-0.15869521120497224
50	0x3fe612fc3a5be7da	0.6898175372909876
51	0x3ff08822c4f2d5fa	1.033236283617383
52	0xbfe2460c87b52426	-0.5710508966959693
53	0xbfeb0f935d565354	-0.8456513236038554
54	0x3fe10c10c3b3f4f6	0.532722837669694
55	0xbfdacae1a3d24e72	-0.41863289831346784
56	0xbfe51e60e02be2eb	-0.6599583032940165
57	0xbfe4c50d0762fa47	-0.6490540642042298
58	0x400046e4385303c1	2.0346149826368394
59	0x3fc9ede731a94c53	0.20257272648686583

bias f8 [2]
0	0xbfb25d87903168ac	-0.07173964758240697
1	0x3f9d098e6e9bc0c7	0.028356767178536992
