DAL_BFGS/BFGSNN/steady_NS/results/AONN/AONN_02mu_t1/u.pt (torch, 19603 bytes, 8 tensors)

weight f8 [30, 2]
0.10244508062239209 0.21053695301477096 0.011914317476788606 0.2565457318157979 -0.17246002001120175 0.3724452218278981 0.09172666027890639 0.16203383588142126
0.008203327163704118 -0.3550177326071259 -0.27889783359786224 -0.2771061634427491 -0.17127072232295598 0.3094580433703565 -0.19337052086247827 -0.3429831124847881
0.04412952714014138 -0.2076892959768247 -0.05726375601007953 -0.002000696200294732 -0.2469587893309999 0.13630808990114215 -0.12788105053150753 -0.16767737286207332
-0.011750822411808508 -0.08678386987205013 0.1480383210014845 0.3283470504598838 -0.35035613492940265 0.21861675837550493 0.028697830850702665 0.3692504227164843
0.315065186908519 0.3672238842490688 -0.4008207498211955 0.18012879457529293 -0.3976972745010792 0.3788160361908488 0.30079476844327224 0.39676378183427974
-0.4443921890995925 0.1845516447980786 0.0987034306239168 -0.11459132803032877 0.10444430500785098 -0.21830159851504313 0.13993704715487149 -0.2783307954707855
0.2610511824897192 0.362893114760341 -0.2705627291920239 -0.18434051148143185 0.012564420818643104 0.20206320613905965 0.36004487325394025 -0.19282166827529099
-0.17351721780777152 0.35414128380020465 -0.3300866483902 -0.19869473074458827
00000000: 17c5 e83e d739 ba3f 9122 e6f7 dff2 ca3f
00000010: 7af3 559f 8866 883f 7af1 04ca 3e6b d03f
00000020: 2466 e880 2b13 c6bf ae58 d37b 24d6 d73f
00000030: 6eb7 11fe 657b b73f a762 fa54 86bd c43f
00000040: 118c 17ef e7cc 803f 2a0d c34b 9cb8 d6bf
00000050: ac98 8e4c 76d9 d1bf c26c 607d 1bbc d1bf
00000060: a2d7 91f3 32ec c5bf 11a1 f01b 29ce d33f
00000070: bfb2 8e7f 5dc0 c8bf 02f5 cc70 6ff3 d5bf
00000080: 1daf b537 2598 a63f a390 f916 9095 cabf
00000090: a66b 9ece ac51 adbf d8e1 fb97 c363 60bf
000000a0: 8075 d179 589c cfbf ff1e 2722 8b72 c13f
000000b0: 27cd e700 685e c0bf 0964 5cc0 7376 c5bf
000000c0: d6b6 adaf d010 88bf e9b7 ebba 7737 b6bf
000000d0: bcc8 a071 ebf2 c23f 19a6 dd58 a303 d53f
000000e0: 4462 5e23 3c6c d6bf 2e48 ca49 a2fb cb3f
000000f0: 832f e1d3 f662 9d3f 937e 6686 cca1 d73f
00000100: 7755 782c 072a d43f d23a 4a9b 9880 d73f
00000110: 2b93 0213 0ca7 d9bf 8f67 e2d8 750e c73f
00000120: a930 ec44 df73 d9bf 8cf6 a89d 853e d83f
00000130: 4e64 51b3 3840 d33f ecca cdea 9364 d93f
00000140: 4ff5 b1ef eb70 dcbf 3756 6a67 639f c73f
00000150: d560 88c6 a044 b93f efa3 4b76 db55 bdbf
00000160: 821d 43aa dcbc ba3f 5fb0 2489 4ef1 cbbf
00000170: b6b5 8308 75e9 c13f 6d11 01f8 2bd0 d1bf
00000180: bb07 d804 10b5 d03f 19b6 f50a a439 d73f
00000190: 1d5c 5956 e650 d1bf 3901 124a 7898 c7bf
000001a0: 98f3 1204 60bb 893f 26cc 0b07 35dd c93f
000001b0: fbf5 eda6 f90a d73f afec 9963 61ae c8bf
000001c0: 287e e3eb cf35 c6bf 1b76 0534 40aa d63f
000001d0: 83a8 ebbf 2320 d5bf 86bf 3735 d46e c9bf

bias f8 [30]
0.0021322298180611217 -0.014114597485002598 -0.05952303364376996 -0.0051510382763481286 0.00955149887363349 -0.04344597623176421 -0.00903675958378211 0.0136288970449394
0.02106766613972408 0.009519279560310514 0.003235986713155393 0.023567352701629005 -0.020014959719000316 0.00835726610127946 0.04126334485532579 -0.016397100959463
-0.011307143273378523 0.01249594084971358 0.07051914216733016 -0.031798405538419734 -0.02000284284556991 0.021604561127386575 0.002869711310474043 -0.022802283036796
-0.009458146240913966 0.0025519264276221217 0.02762205863338069 -0.06052213119051544 -0.04170740413034242 0.0021088227571874544
00000000: a890 c12a 9c77 613f 1f1b c134 1de8 8cbf
00000010: 7ca7 b795 cd79 aebf 986c ff4e 4119 75bf
00000020: c0fe 517a bc8f 833f 17cf 1d0e 8d3e a6bf
00000030: ef46 fe56 dd81 82bf f861 b598 77e9 8b3f
00000040: d8ea 4a24 c392 953f 01e5 2413 d87e 833f
00000050: 022d 4e23 5b82 6a3f 5c5b 6d44 0a22 983f
00000060: 5409 b235 cd7e 94bf 2133 b644 9d1d 813f
00000070: 30b9 5a19 7820 a53f 7efc 7ad1 66ca 90bf
00000080: 2a12 9014 3328 87bf eb16 42ca 7897 893f
00000090: b2c4 59e1 8a0d b23f 6175 b46f e147 a0bf
000000a0: cf1e 650f a07b 94bf 523c f28d 811f 963f
000000b0: 983f 4787 3882 673f c32f ab4f 7b59 97bf
000000c0: e6b9 48e6 ca5e 83bf d1c7 8c11 c7e7 643f
000000d0: d10c eaf9 f448 9c3f 3383 4bbc c1fc aebf
000000e0: 1a54 7b41 ac5a a5bf af47 ce98 8546 613f

weight f8 [30, 30]
-0.29128425642363637 0.27343216297415396 0.3141996809236384 0.18621420331533564 -0.003219560183375874 -0.04589801007326349 0.18472002328726692 0.051737867155974296
-0.29166109622204617 -0.27421196431427314 0.1419668723002214 0.12351041344856793 -0.19880059900458064 -0.1887433946495228 0.019530210743304934 -0.04308664885052049
0.12133158028033332 0.16229878296986644 -0.19086560729022106 -0.09640238376321227 -0.2377065544491827 -0.2262222092840941 -0.1818819492550242 0.20850055656695687
-0.29792849126573623 0.19015988854345847 0.2208188261983362 -0.08348070681262722 0.01820131709907743 0.15568128968083933 0.19975077932706117 0.09887716691679539
0.10671540335987925 0.27530888895000116 -0.14115659919320278 -0.018318233507461933 -0.20326470866466897 0.10031432251998887 0.2800572535765794 -0.17970945506160318
-0.16722361505912262 0.3002659061843312 0.09923921760773477 0.15218609327347446 0.019035165162821385 -0.05916988937969928 -0.2252448975619084 -0.24329866200606207
-0.03021838323192945 -0.0648670311559708 -0.02458125853518758 -0.12953965958942268 -0.2814816559621131 0.08652933223585323 0.009020837753569832 0.07237710920980676
-0.022032197631740066 0.02607123535712116 0.1036649551411856 -0.2619268521253931 -0.16352057823839233 0.09721699377494641 0.09787865677313001 0.05441865771721701
-0.07807491669393912 0.0025378821135489675 -0.16799706114081883 0.21202047105287622 0.06664439145504814 -0.16538911094734304 -0.18911933247986215 0.30760864859518006
-0.20589625950778384 -0.05072560768225844 0.2054676302385501 0.04164036749365764 0.09481954514453865 -0.16396036407370787 0.06349086055141694 0.051740973481550455
0.10095484048890223 -0.21574091934745132 -0.2186070728223878 -0.1556211843624429 -0.024215043407451987 0.18627217216991673 -0.04345834053118534 0.11997719104048274
0.03578609858409404 0.17463582490655022 -0.15151108824372014 -0.2129929278147822 0.06245148964029339 -0.26789340218315255 0.2801051236671437 0.2959704667020904
0.060568518634867306 -0.10147396729521799 0.18243552699875068 -0.2105266715656501 -0.022564788588130644 0.07325416784288356 -0.08037374564497266 0.19013578722504265
-0.08556611700279756 -0.18396117853755722 0.06850135752815906 0.057882094957328566 -0.2890221544207956 0.28744259987408244 0.07474745676675451 -0.24196592125283264
0.11006072574103402 -0.2744963708165791 0.04211576782964699 0.23482486766224808 0.19863962638378088 -0.1317300353289346 -0.24662975752385258 0.0437094738410238
0.2679506008554348 -0.029429857865800855 -0.2657053142507979 0.26952587849161225 0.21514913132603952 0.20232328287186904 -0.22239744292989477 -0.2055809461690281
0.1253957088754565 -0.08202293849081944 0.031651924638666146 0.17842918869957233 -0.2827523615348951 0.23836304420952326 -0.2291011198370578 0.1654272700841158
-0.016142864630006522 0.10649031545735423 -0.23896553509218377 -0.18568363275302865 -0.026150494377436804 0.28067441153163863 -0.29385925115801087 -0.28550614339750013
-0.18905021212821127 0.01048869251780387 0.19992240765983457 0.0746282530033527 -0.2930652758540302 0.1448546286492084 0.1690587374012931 0.2690947917893602
-0.11139943202017007 -0.171102431473104 -0.10897340880805782 0.1616290455543001 0.3099347875392668 -0.10828516008940743 -0.09373298523431556 -0.09704199654589937
-0.29555440389674426 -0.20161887162266434 0.002257135178646607 0.15158742061525793 -0.01940696616745714 -0.21906116800938213 0.1926018643935627 0.01017569111201256
-0.10391470316297372 -0.18163601605930577 0.2696147631220615 0.1684995598314952 0.009181763523337745 0.01683258340814039 -0.1588494155691208 0.25568120579230935
0.23282798891512638 0.14837682618777268 0.30881715821781447 0.06472081170660496 0.25775879174065863 -0.16405258404711792 -0.30066704354675966 -0.14056563560958524
-0.08542358560783093 -0.2892035616763862 -0.11272557756681635 0.05906206839743837 -0.003424148167903466 0.2766774614882459 -0.1293516153967572 -0.3039382748339519
-0.07848913078181517 -0.28770737691156245 0.06284403124230403 -0.10165779312321144 -0.19353368384646583 0.2801785254610861 0.29496281557128645 0.1047466242350839
0.056260397773800305 -0.07833874467608037 -0.263709325788419 0.03804034436439139 -0.17429513690694265 -0.10993931275823486 0.10909228542547215 -0.010272833610229886
0.22268948795275173 -0.027885452942460847 0.28931688322213134 -0.29266158260943226 0.3101154267624164 -0.03634099870798513 -0.24611466699851525 0.1355011902918576
0.03630333153303419 0.25007914524236846 -0.23601044543675048 -0.30636088740435946 -0.036109592214428596 0.06140440219000912 -0.1855957051604781 0.06943627866821087
-0.22568403817898897 -0.05420786502197006 0.0958229107406725 -0.1220993245906445 -0.22802217666159247 0.27426830459078383 -0.1954474485995665 -0.1075143037502449
-0.24139471186632586 0.10895226489711136 0.19245841235104205 -0.24036825933773925 -0.10360805149229144 0.2827861409898286 -0.023290569963583082 0.2210365199276312
-0.2275146461161467 0.21455682431438414 -0.2746514882372613 0.09091009663425292 0.16566654762497246 -0.10292727279651359 0.21410537852788084 -0.23250712704076448
-0.11635882070121928 -0.08578318380744539 0.16002205488096444 -0.2737741745444074 -0.01978194148354851 0.17601391701918534 0.3144340006426147 0.1407444731333215
00000000: f377 cbb8 66a4 d2bf 9281 699d e97f d13f
00000010: 2bc3 7efa d81b d43f bb20 a5f4 ddd5 c73f
00000020: f248 3e36 e85f 6abf 97aa 6ea8 f17f a7bf
00000030: a5b3 77dd e7a4 c73f c2a5 ccbe 627d aa3f
00000040: 3682 724d 93aa d2bf d1b5 b956 b08c d1bf
00000050: bf8a d270 f82b c23f 271f 7ae2 609e bf3f
00000060: 662f 934b 4c72 c9bf 4b88 ad59 be28 c8bf
00000070: d7b7 b441 baff 933f f018 6a07 740f a6bf
00000080: e9a9 4621 960f bf3f 7ca1 84de 34c6 c43f
00000090: 1810 9fc2 486e c8bf e5f9 849d d3ad b8bf
000000a0: feb8 b31a 2b6d cebf c484 406f d9f4 ccbf
000000b0: 543b e45f e847 c7bf 8091 d36f 25b0 ca3f
000000c0: ff1b a2a9 4211 d3bf 750f 27c3 2857 c83f
000000d0: 8a75 6e92 ca43 cc3f 5971 9bd9 fd5e b5bf
000000e0: 5618 bdb6 5da3 923f 929f e34f 5ded c33f
000000f0: f7b5 47fc 6e91 c93f a190 3a96 0350 b93f
00000100: 46fe 685f b351 bb3f 8aa7 952c a99e d13f
00000110: 141f 9360 6b11 c2bf d314 57d7 03c2 92bf
00000120: fda6 12f6 9304 cabf 1a33 8b0e 33ae b93f
00000130: 7e9d 4742 75ec d13f b8c2 222c b800 c7bf
00000140: 1f1f e65a 9567 c5bf a997 ca7d 8e37 d33f
00000150: de18 1bca bd67 b93f 79fe c17a d57a c33f
00000160: 8fa2 644f f47d 933f e565 9607 844b aebf
00000170: 2244 4f26 d3d4 ccbf 0b01 3d1a 6924 cfbf
00000180: 1464 e05e 91f1 9ebf 474c 6731 209b b0bf
00000190: 273a 0356 d42b 99bf 875b bc6c c194 c0bf
000001a0: 2bff b1a2 cb03 d2bf 6703 194c c926 b63f
000001b0: 66a5 1259 8479 823f f7fe 0865 4e87 b23f
000001c0: 6c3a 26c1 9b8f 96bf d78e e6fc 6ab2 9a3f
000001d0: 6a9c 1258 c989 ba3f 9da8 f4d7 68c3 d0bf
000001e0: 3ee2 e007 3eee c4bf 08fb e080 36e3 b83f
000001f0: 1027 d15d 930e b93f a315 6026 c3dc ab3f
00000200: eca0 d6bd b7fc b3bf c1b2 b815 53ca 643f
00000210: 5143 b67d ed80 c5bf 5397 a09e 7c23 cb3f
00000220: 84e1 c259 9b0f b13f be11 516b 782b c5bf
00000230: 016c 05f2 0f35 c8bf 2bb7 6b2f dcaf d33f
00000240: 5232 7a02 cf5a cabf 234b 21f4 b4f8 a9bf
00000250: c96e 2168 c34c ca3f e248 28e1 e251 a53f
00000260: 03da 6afd 1746 b83f cdb6 c438 a7fc c4bf
00000270: 97c9 a9e1 ef40 b03f 2bd4 eef9 ca7d aa3f
00000280: bfd1 452a 2dd8 b93f b0cd 8000 669d cbbf
00000290: 2525 390a 51fb cbbf a963 b31c 65eb c3bf
000002a0: 4a60 060e d4cb 98bf 4ff5 cf3b c4d7 c73f
000002b0: 4dc6 a3ee 2b40 a6bf cee9 c83f d3b6 be3f
000002c0: 38e6 2336 8e52 a23f b680 577a 775a c63f
000002d0: a37b 7e20 b764 c3bf 2134 9f2d 5a43 cbbf
000002e0: b6de 2e43 a4f9 af3f 5136 4c5e 2a25 d1bf
000002f0: 2cea 650a 3eed d13f 384f c41c 2ef1 d23f
00000300: 6b68 683d d602 af3f 5aa7 edaa 32fa b9bf
00000310: cd48 0b1f 0c5a c73f a5b4 a7b8 89f2 cabf
00000320: ccd3 1b54 391b 97bf 234e 2eff c8c0 b23f
00000330: de8e 00b1 5f93 b4bf 9023 f795 5e56 c83f
00000340: b637 2c3a a9e7 b5bf e0b5 c636 0a8c c7bf
00000350: e4a6 5012 4e89 b13f 133c bbd1 b8a2 ad3f
00000360: 44a2 43c7 567f d2bf f1ed 7ba5 7565 d23f
00000370: feba 453a a622 b33f bf82 4343 bdf8 cebf
00000380: 73bb a191 f02c bc3f 0dc9 e139 5991 d1bf
00000390: 90d2 f2aa 3290 a53f 14cd 72c3 bd0e ce3f
000003a0: 1106 81f5 056d c93f e1c0 d1a0 87dc c0bf
000003b0: 9286 645b 9091 cfbf 675a 5891 1661 a63f
000003c0: 7387 e746 1a26 d13f d9f8 3c54 dc22 9ebf
000003d0: 3828 c5dc 5001 d1bf 6a04 6378 e93f d13f
000003e0: 6c71 67b9 018a cb3f 67b7 93b5 bae5 c93f
000003f0: ca88 0cf8 8477 ccbf e804 3df8 7950 cabf
00000400: a9e3 5672 f70c c03f f902 578e 74ff b4bf
00000410: fc67 5b5a ae34 a03f afe8 0e85 c4d6 c63f
00000420: 652f 6a5c 9d18 d2bf 503a ba23 ae82 ce3f
00000430: 87ac 967c 2f53 cdbf f35c 7085 b82c c53f
00000440: 6f39 994e c187 90bf 31e5 3a06 f342 bb3f
00000450: f0c8 0b33 6c96 cebf 5fd2 0935 7bc4 c7bf
00000460: a954 80f8 31c7 9abf 448e 96ce 91f6 d13f
00000470: fb71 5608 97ce d2bf 24c2 2c8f bb45 d2bf
00000480: 6c3e 321f cc32 c8bf 9cf0 bb7a 187b 853f
00000490: 1b7b 51b5 0e97 c93f a5cb 0152 d61a b33f
000004a0: c8b8 d8db 94c1 d2bf 547d 5cb2 988a c23f
000004b0: f1ec 1e7a b7a3 c53f 3f97 905c d938 d13f
000004c0: add1 5155 ac84 bcbf 48b6 b839 afe6 c5bf
000004d0: dfd8 f66a aee5 bbbf 17a5 5eb4 42b0 c43f
000004e0: 4fed 17b8 f8d5 d33f 9de3 3985 93b8 bbbf
000004f0: 3c49 238a e2fe b7bf 96d0 8089 bed7 b8bf
00000500: fa37 bb04 5dea d2bf 1819 f0ad a5ce c9bf
00000510: 654b cc38 8e7d 623f 1286 0373 3767 c33f
00000520: f3e5 0374 6bdf 93bf f840 3644 320a ccbf
00000530: 7e07 5c8a 2da7 c83f 8484 5224 fed6 843f
00000540: c294 a86b 279a babf b70e 6056 d93f c7bf
00000550: d331 8847 5e41 d13f f3ee 6ec1 6491 c53f
00000560: f131 6b70 e3cd 823f f709 fb8c 8f3c 913f
00000570: ccd5 6d7a 2d55 c4bf ae1b 45b4 145d d03f
00000580: 09f1 fdba 4ecd cd3f 2ffa fa07 03fe c23f
00000590: 934e bf0a a9c3 d33f 6283 a609 8b91 b03f
000005a0: 2e16 32bb 1e7f d03f ba40 a7d1 acff c4bf
000005b0: 7e2c c1fb 203e d3bf 483b f103 0efe c1bf
000005c0: f120 7ef2 51de b5bf e55a d2a7 4f82 d2bf
000005d0: e17a 125d 95db bcbf 46f8 6628 623d ae3f
000005e0: d5ce ba8c f50c 6cbf dc77 2862 15b5 d13f
000005f0: fc2b e8fe 978e c0bf e586 9a85 b973 d3bf
00000600: 0fa3 cc19 dd17 b4bf 7ecc a933 cc69 d2bf
00000610: 443b efe2 8b16 b03f a004 d9c0 3e06 babf
00000620: b7c1 6535 b6c5 c8bf 4a66 f9e8 71ee d13f
00000630: 588b 9ab7 abe0 d23f 13c2 74bd acd0 ba3f
00000640: 5e31 ffb0 29ce ac3f c0b9 640a 020e b4bf
00000650: 8255 7a14 9de0 d0bf cd80 f225 067a a33f
00000660: 24ff 6e94 4d4f c6bf af61 d798 fb24 bcbf
00000670: 03f7 25d6 78ed bb3f 363f 2563 ec09 85bf
00000680: 5ac4 f5d1 1681 cc3f 0b25 b011 018e 9cbf
00000690: 40a9 e7f5 2a84 d23f 6b99 86a5 f7ba d2bf
000006a0: 937f fb5f eed8 d33f 30d8 e891 499b a2bf
000006b0: f88a e976 af80 cfbf 64b1 6f5e 1a58 c13f
000006c0: 0b28 57ab 5996 a23f 1b91 8ef5 4b01 d03f
000006d0: 7226 551c 9735 cebf 7f37 0bb2 6a9b d3bf
000006e0: 2607 44db f47c a2bf 2519 79d6 6570 af3f
000006f0: ad9d f89d 99c1 c7bf 4631 0972 93c6 b13f
00000700: dc9e 9aed 36e3 ccbf d022 e91e 22c1 abbf
00000710: 10b6 d6ab d987 b83f 7d02 fbbd e641 bfbf
00000720: 6a1b c3a7 d42f cdbf 7ffe a2a5 9c8d d13f
00000730: 0f30 e907 6c04 c9bf 94a2 75b2 0e86 bbbf
00000740: cb54 729c 05e6 cebf a5e7 8eae 4be4 bb3f
00000750: b2a3 712d 7aa2 c83f 8a0f 6d1a 63c4 cebf
00000760: 2efd c2a8 0e86 babf 130e d40a 2b19 d23f
00000770: cff5 31b1 7bd9 97bf 39c9 27b8 ec4a cc3f
00000780: c405 372e 331f cdbf cb2d c817 9976 cb3f
00000790: 89b6 f1d5 e393 d1bf d499 eb53 e245 b73f
000007a0: f494 0bba 8f34 c53f 000a 8716 7159 babf
000007b0: b964 5617 ce67 cb3f 5c0e 5d25 cbc2 cdbf
000007c0: 184b 8311 b1c9 bdbf 9dee ff00 e3f5 b5bf
000007d0: 641d 2d4a 9a7b c43f 8916 8a1d 8485 d1bf
000007e0: 8295 e49e b741 94bf 447f 9ec0 9f87 c63f
000007f0: 97ab 60c9 af1f d43f 9ca5 9936 ea03 c23f

bias f8 [30]
0.0011241885359018428 -0.01494793977223993 0.027388042872628898 0.0035515435705931833 0.018535014710942117 -0.020248214854072667 0.032532691672351816 -0.04385488953043978
-0.03473110563672748 -0.012651202207289242 -0.011501372959499713 -0.0011942644662295183 -0.027210940529882714 0.01315031989296869 -0.012742090321433643 0.03077672869319325
-0.026132643553305284 -0.0018672551094960999 0.025394377252903097 -0.029649705221895972 -0.009427513709575664 -0.038700093168426805 -0.016176489890669023 0.0015056179864058182
0.03889211631284989 0.050046162191674584 -0.0041156602402775515 -0.011329466147761404 0.012462631926104964 0.005937796490142404
00000000: e456 c23f 306b 523f 2ffc b683 069d 8ebf
00000010: abee c171 9c0b 9c3f 1573 8d6f 2018 6d3f
00000020: 65b8 0ec8 d7fa 923f da09 67b2 f2bb 94bf
00000030: 5c34 91fd 1fa8 a03f dc19 9be8 2574 a6bf
00000040: 6732 ba85 46c8 a1bf 5014 e29d dfe8 89bf
00000050: 01de c225 088e 87bf 5594 d0b4 1b91 53bf
00000060: 214f ad4e 2fdd 9bbf 4e58 fa0e 8eee 8a3f
00000070: e1b4 b469 8618 8abf fe4a dc4c ef83 9f3f
00000080: eb89 ad05 84c2 9abf 2991 3ae8 d597 5ebf
00000090: 0cca 36cf fb00 9a3f f06b 0e09 7e5c 9ebf
000000a0: 9a91 8578 bb4e 83bf 4e66 05a5 7fd0 a3bf
000000b0: e790 2ddc 9190 90bf 3dae c200 05ab 583f
000000c0: 1897 45df aae9 a33f a29e ce8b a69f a93f
000000d0: 8c91 2222 95db 70bf 74aa af34 e733 87bf
000000e0: fb8e 5b24 0286 893f 2b77 c41b 3b52 783f

weight f8 [30, 30]
-0.24850110712147896 -0.02453135080391961 0.18924810752690702 -0.23642168322557658 0.19946698905211233 0.010940935069891534 -0.17100982624356462 -0.2528240243472841
-0.13893720327998685 -0.2692369487635749 0.021786404360438133 0.08031512112753729 0.16636590176762542 -0.19317975031661888 -0.17263490983827254 -0.10949338722400095
0.03276049834804706 -0.027169662077126355 0.18197312766880316 -0.1765711617317369 -0.2791904013413294 -0.13901123819520805 -0.09706553184962126 -0.25072355707362787
0.29796112998020546 0.2599081998971741 0.2514212647803995 -0.0799418711869852 -0.20683957024118524 -0.21215235517768308 0.24819045742908077 0.019480433581586586
-0.12142034561467434 -0.09141961324306973 0.001961351689928871 0.2509311502409695 -0.2600640463695861 0.08945978623787905 -0.0921030220218079 0.28729784044378776
0.057759757423070324 -0.24464564929782973 -0.19080015789727317 0.03442127886770761 0.21559344906632794 0.1906218985800973 0.20813103189177598 -0.00410830234242894
-0.286149071358314 -0.2791036738883463 0.19889360972362027 -0.09520549887314764 -0.03861227330628893 -0.051158182042674895 0.07813719329453951 0.0453323210799211
-0.08056066625526777 -0.10051186184711704 -0.2326623531892085 0.09874041744607873 -0.27883063011745046 0.276059931102303 -0.2103932493154123 -0.062425109636275664
0.04373906916212135 -0.2855650054739544 0.29927949186274505 -0.3098253471353404 -0.09068129017909361 -0.16375506065495316 0.08693569624870358 -0.23717932014544177
-0.14175182324626256 -0.20843882172554812 -0.04092407001687941 0.24710972563344197 -0.08406168768498976 0.27380054789780994 0.2927694261104292 -0.06271915826925208
-0.2546603535455593 0.29630525519633577 -0.27565258786051616 0.29204445886667163 -0.02439049856136386 -0.0012851261773726146 0.02291850781590699 0.016539638836672775
0.10258042339223414 0.05167620485247046 0.30787621724398384 -0.1987852910146788 -0.16597181421240406 -0.015223086232254214 -0.04312851506561786 -0.23427247540852875
0.3111745969799272 0.04219622844143218 0.31950501251780716 0.2841414559095091 0.24218042146423685 0.05995489215893755 -0.3188576920366884 -0.08369492518183792
-0.014061928733986718 0.14230070470644215 -0.3127806151229885 0.14327104963338808 0.2226671268964106 0.14959232912736634 0.26737608426402687 -0.21718282592014687
-0.2513642432888252 0.09433546130531842 -0.09304173277672391 -0.19752785526527936 0.1578027363273618 0.09002744376165213 0.238994626766723 0.08215486452487239
-0.09067053622762365 0.18945901994701142 0.19726647455938337 -0.023718668952525033 0.30208950261883083 -0.31313912628587315 -0.0640722519696513 0.024459308863622995
0.16874856292142232 -0.14833072428744717 -0.010111276921404611 -0.2170517242917192 -0.06439772677791271 -0.23678892596974926 0.062155365182015164 -0.06869247099529302
0.07561376405122121 0.27690475166064893 -0.031950698039727755 0.17596803497693514 0.23838383139986558 0.05758883106794179 0.1575239100640193 0.025426015055316786
-0.15755407188931986 -0.10600844945663995 -0.04767499363638399 -0.2219390825646482 -0.14415400447157775 0.19705963164939505 0.06033954836717535 -0.11169227542182818
-0.23708077381317486 0.30775866864038603 -0.12403172129211598 -0.01014982271582046 0.24364986311902498 -0.1273427731160785 0.10280525228626022 0.2123719420747962
0.2835030542871452 -0.09122665500923127 -0.10035302208278597 -0.0823509140089076 -0.20497831903785704 -0.21084690937610087 0.03663814888280321 -0.30398379182502183
-0.10327093043675858 0.12783626373121929 0.018579711217403285 0.08014210030881039 0.04249323747674281 0.22484674256580298 0.034375315251580246 0.10081232184087313
-0.22271061164436898 0.18557355555081895 -0.011153708812430873 -0.006683410352711879 -0.17706312456631867 0.1488065114988899 -0.24823362381265468 -0.02821914962967535
-0.1650722387260754 -0.04043063464328322 0.17204694744781268 -0.10800994571968553 0.11945647139089606 0.08629121034300014 0.01928770997494436 0.23240272698066575
-0.10246581196970107 -0.1672590992532868 -0.25785282082204186 -0.2351351803514938 -0.1921732059552395 0.2431501956902431 -0.23877359361162165 0.14737747266841222
0.3123213188917283 0.23310545652286885 -0.003357455714258337 -0.013401170797770555 -0.001147362962076381 -0.18583229471035498 0.0648229106012282 0.20224230137972754
-0.01740234508003578 0.2897420272999969 -0.28639768565839835 0.2734059955378626 0.2642105553603018 0.2631115084600609 -0.11451102877061323 0.047008336981810575
-0.23833341121794563 0.08047453864610216 -0.2171158387271497 0.26730082588736237 0.06897805996652098 -0.23332901891246316 0.21159237674181786 -0.07476628228715602
-4.807254543957019e-05 -0.27835495066937965 -0.019866741998158254 0.26000260059249997 -0.06478833389462131 -0.014127501923989032 -0.27904298312492704 0.18671218825715735
0.08038231751511431 -0.25577102261058526 0.06029666331283066 0.13032994075968185 0.27909600345859253 0.01621047020353693 -0.2769601085333568 0.18218054499812428
-0.19195825715403605 -0.2901266198751002 0.009295956708418446 0.03867391684644958 0.23501037556581583 0.09052547901955867 0.00975880833779463 -0.22112360467426992
-0.2461066899117695 -0.012923146261105977 -0.16273625882690837 -0.03330795571859849 0.09438613260543258 -0.08538180337305043 0.2731662092261024 -0.19474093510460894
00000000: 43a3 0d60 e2ce cfbf d1d8 b715 bf1e 99bf
00000010: f037 5430 4839 c83f a172 c2d2 1043 cebf
00000020: ff21 4e61 2288 c93f 27b4 8072 3368 863f
00000030: 5760 8165 a6e3 c5bf 88bd 0dd1 442e d0bf
00000040: fd82 24bc b1c8 c1bf d51e 749c 2d3b d1bf
00000050: 08ed e6d8 2c4f 963f 13f7 9d22 888f b43f
00000060: d378 a155 7a4b c53f 52fe ed32 1dba c8bf
00000070: fb9e f395 e618 c6bf 825e 4135 c207 bcbf
00000080: 10d4 02ea fbc5 a03f 232e 4228 5dd2 9bbf
00000090: cd4e 0b3c e54a c73f 0ffb 8642 e299 c6bf
000000a0: 598f c76a 41de d1bf d295 e9c8 1ecb c1bf
000000b0: 95eb dc64 49d9 b8bf 0ff4 7dd1 da0b d0bf
000000c0: c5a0 2f8f cb11 d33f 6751 a100 56a2 d03f
000000d0: a80c 7037 4917 d03f ec42 540a 1277 b4bf
000000e0: db2f da12 b879 cabf 95f6 a0f1 ce27 cbbf
000000f0: c928 eb74 b4c4 cf3f 434a 94c4 adf2 933f
00000100: 43ea 7b5d 6715 bfbf 3b8a 1799 4667 b7bf
00000110: 5084 a7ab 4011 603f c149 f586 410f d03f
00000120: 8d75 81ab e3a4 d0bf 45e7 3228 d6e6 b63f
00000130: 6a49 724b 1094 b7bf 3bb8 3a7b 1663 d23f
00000140: b85f 50da af92 ad3f f8e2 6b73 8c50 cfbf
00000150: 3ac6 1ebb 236c c8bf fded 0b76 aa9f a13f
00000160: 5461 7cee 9098 cb3f f5c6 2662 4c66 c83f
00000170: 3903 a1a3 09a4 ca3f 4fb8 3e03 ded3 70bf
00000180: 52f1 d031 4450 d2bf 33cf e2a7 d5dc d1bf
00000190: 29bb 9286 5875 c93f 9e3d 0f38 635f b8bf
000001a0: 5242 26e6 fcc4 a3bf d59a 97bd 6731 aabf
000001b0: 8920 cd91 cc00 b43f 8be5 fa48 cc35 a73f
000001c0: 6d0c e9b2 9f9f b4bf f151 7e37 25bb b9bf
000001d0: 71a1 fa46 e1c7 cdbf 766b b94f 0d47 b93f
000001e0: ba8f 5e6d 5cd8 d1bf 8281 f445 f7aa d13f
000001f0: 76ef 8d7e 2aee cabf ae8d ac18 2ff6 afbf
00000200: c2b3 379f f764 a63f eb21 d971 b246 d2bf
00000210: c87e 7a2b 6527 d33f b6c2 5ab1 2dd4 d3bf
00000220: 9da4 ad97 e336 b7bf 80a4 0803 edf5 c4bf
00000230: 8140 3ef4 6a41 b63f b9f5 a757 e45b cebf
00000240: 64db 7e7a ec24 c2bf 9e95 4391 1fae cabf
00000250: c6f4 aeec fff3 a4bf d640 0f9f 4aa1 cf3f
00000260: ee1e 7417 1185 b5bf 3a45 b6bb f285 d13f
00000270: 4c6e 9af9 bbbc d23f ad5d 99dd 5c0e b0bf
00000280: ef38 84f0 5a4c d0bf 66e0 2c51 aaf6 d23f
00000290: b6cb 7ac0 4aa4 d1bf 22dd f33d dbb0 d23f
000002a0: bae4 9da6 d2f9 98bf 828d cbb9 350e 55bf
000002b0: a175 2b06 f377 973f 868c 905f c4ef 903f
000002c0: 56f2 adeb b542 ba3f 6c40 a5b3 4d75 aa3f
000002d0: cedc 1173 3eb4 d33f d8bc eae1 cb71 c9bf
000002e0: e1ce 0c7d 903e c5bf 8100 180c 482d 8fbf
000002f0: edb7 76d3 f014 a6bf aec5 1df6 a3fc cdbf
00000300: 32fc 57db 48ea d33f 494b 577a be9a a53f
00000310: e802 eb26 c572 d43f 3e6d 24a5 5f2f d23f
00000320: 76cf f59e c4ff ce3f ae9d 1d5a 68b2 ae3f
00000330: 190a d817 2a68 d4bf ed45 7fd6 076d b5bf
00000340: 87ce 3f20 80cc 8cbf dfb9 74d4 e836 c23f
00000350: f6a9 31fc 9804 d4bf 93ca 51ac b456 c23f
00000360: ee09 f53d 5b80 cc3f 1dd1 aa68 d725 c33f
00000370: d760 6994 b01c d13f e639 4a97 a5cc cbbf
00000380: 6fcb 130d 5a16 d0bf 7ecf 2869 5e26 b83f
00000390: 716f 703f 95d1 b7bf 2bea 34bf 9748 c9bf
000003a0: fa66 df4b e132 c43f ede2 b2de 090c b73f
000003b0: a4ff f03c 6097 ce3f 8e75 57e8 1908 b53f
000003c0: 0ff5 ce2b 2f36 b7bf 6064 4d73 3140 c83f
000003d0: d335 6a20 0740 c93f f9ae d2ed b449 98bf
000003e0: 449e 8d35 6f55 d33f d4bb 9fb0 780a d4bf
000003f0: e26c ca02 0a67 b0bf 19ac 9b6e dc0b 993f
00000400: 024c 7f8b 8d99 c53f f73d e74c 80fc c2bf
00000410: dafa 959d 38b5 84bf b2c9 afd4 59c8 cbbf
00000420: 2ba8 7292 5e7c b0bf 362a 8c7a 194f cebf
00000430: 1394 74f9 d3d2 af3f 84fd 676c d495 b1bf
00000440: 873a ba73 6c5b b33f c953 1fb5 ceb8 d13f
00000450: 257b 5486 d75b a0bf 5c04 afdd 1e86 c63f
00000460: 0ef9 e083 5c83 ce3f a375 1a84 487c ad3f
00000470: a710 0855 be29 c43f 5350 85fc 4609 9a3f
00000480: aae1 0e59 bb2a c4bf 7c14 84a7 5e23 bbbf
00000490: b7b3 0255 db68 a8bf 5be2 a8f6 7f68 ccbf
000004a0: 937c 656f a373 c2bf f6e1 a500 4039 c93f
000004b0: 5eec c845 d3e4 ae3f 430f 276e dd97 bcbf
000004c0: d9db 04ad a958 cebf cabd 376a 51b2 d33f
000004d0: ecc0 9dfa 8ac0 bfbf cf46 ff24 6ec9 84bf
000004e0: 0ab3 e230 eb2f cf3f 462f f59a c44c c0bf
000004f0: 3630 6dec 7151 ba3f 064e e6f8 002f cb3f
00000500: 82ae 9efe e924 d23f 6cc2 c94b a15a b7bf
00000510: 217c e653 bcb0 b9bf 80c6 7612 f314 b5bf
00000520: 1d0d 54c4 ba3c cabf e5d3 1d12 08fd cabf
00000530: 29a9 7946 3cc2 a23f 3bc3 196f 7874 d3bf
00000540: 6676 dab4 f66f babf 1df5 fb4d f05c c03f
00000550: 3705 3150 8f06 933f 76ed db53 3184 b43f
00000560: 1d0d 8772 acc1 a53f 2154 f72e c7c7 cc3f
00000570: 0428 972d a499 a13f ec22 5719 d6ce b93f
00000580: 5b0b be04 c881 ccbf 32ee 0bd0 dfc0 c73f
00000590: 59c3 a074 c1d7 86bf 5515 404e 1060 7bbf
000005a0: 4482 ab24 01aa c6bf 00e8 287e 170c c33f
000005b0: 5c7e 0590 1ec6 cfbf 8b1d 1f13 7be5 9cbf
000005c0: f62a 674d 1621 c5bf 5f4e 19fb 52b3 a4bf
000005d0: 441e 5566 a205 c63f b43f 8230 8aa6 bbbf
000005e0: 9d61 eb05 b394 be3f 48fe 5a46 2e17 b63f
000005f0: 687d 3a4e 28c0 933f eb0b f15f 5fbf cd3f
00000600: 1132 5e0f 333b babf 1a2a a004 bf68 c5bf
00000610: 4c2b 271e a980 d0bf 4fd6 dfda e818 cebf
00000620: 9263 5fb1 2199 c8bf 50b7 40ad 8b1f cf3f
00000630: 6ceb da13 2290 cebf 5694 a3d8 43dd c23f
00000640: a6f2 9e8e 12fd d33f ac76 244c 66d6 cd3f
00000650: 943d b24f 1881 6bbf ecaf 6fb2 1272 8bbf
00000660: 9847 8599 63cc 52bf 772a 2946 5ac9 c7bf
00000670: a555 10f9 3b98 b03f 2498 2563 13e3 c93f
00000680: 7b47 f89b ebd1 91bf 38ef e124 228b d23f
00000690: dd62 63f5 5654 d2bf 6663 57dc 7b7f d13f
000006a0: 9cf3 a163 d3e8 d03f 4e61 02a7 d1d6 d03f
000006b0: 9ee1 9943 9850 bdbf 9ad3 f30b 7a11 a83f
000006c0: 39d3 5c8f b581 cebf 644c a5b7 fa99 b43f
000006d0: 816b 63a9 73ca cbbf 1c52 58ec 741b d13f
000006e0: ba9e b2cf 8ba8 b13f e4e8 b7ac b9dd cdbf
000006f0: c431 1881 7515 cb3f 934f 4411 e223 b3bf
00000700: 2433 8015 3034 09bf dc7f 7348 91d0 d1bf
00000710: d300 a47c f257 94bf fbdc 9af2 e1a3 d03f
00000720: bd5e 3ddf f795 b0bf 7cd4 e635 e1ee 8cbf
00000730: 34ca ac19 d7db d1bf 7e1f 2a5b 2fe6 c73f
00000740: 5b73 e780 ef93 b43f ca1f 586c 8d5e d0bf
00000750: 8d1a f949 34df ae3f 5050 a0c8 a6ae c03f
00000760: 2022 d37b b5dc d13f 5d05 823d 7a99 903f
00000770: d7a1 1ce4 b6b9 d1bf d300 5e2d b151 c73f
00000780: 353d 5692 1692 c8bf 4b01 043e 6f91 d2bf
00000790: caaa 6130 c209 833f 7ca0 2050 11cd a33f
000007a0: 444f a3ea d114 ce3f 41ff d783 ad2c b73f
000007b0: fe23 4515 6dfc 833f 378d 393d c74d ccbf
000007c0: fbb9 3f8c 6c80 cfbf a649 6c54 7377 8abf
000007d0: a979 c4ae 8ad4 c4bf 2518 0489 bd0d a1bf
000007e0: 067b bc88 b029 b83f 2e27 29f5 94db b5bf
000007f0: d7e5 bf1f 8e7b d13f 96be bb5d 45ed c8bf

bias f8 [30]
0.031242915314296304 0.0002583837133794883 -0.008463077706823608 0.01143198042244673 -0.003607112090125844 0.006903170826641112 -0.012571475041723625 -0.035495930735316775
0.009206998273233576 -0.004147067018944547 0.002940805581408555 0.017163821311197588 0.031437667711323 -0.004116290701469164 0.0019143083843156856 -0.010968358189549044
-0.009316536992077882 0.002277229620158818 0.025907350676383112 -0.016217469650252777 -0.006054508514077127 0.006558106095146196 0.0024108835626927513 -0.050675318899036745
0.008711323437994658 0.01246936620673456 -0.006296436564506467 -0.008334413703581872 0.021859178389426432 -0.02051732376487595
00000000: 33c2 068e 24fe 9f3f 7fe7 4999 f5ee 303f
00000010: 2d65 cb0f 1755 81bf f3e6 5770 a669 873f
00000020: b91c b98e a98c 6dbf caa7 06cf 7f46 7c3f
00000030: 015e 55d1 12bf 89bf b26c 4ccb 852c a2bf
00000040: c4ab d263 1edb 823f 23ef 87d3 83fc 70bf
00000050: 4931 79f9 5017 683f cfec d28c 6493 913f
00000060: f883 5d15 9918 a03f 2a25 195f 3edc 70bf
00000070: 5a11 edf9 305d 5f3f 9a2b b81d 9476 86bf
00000080: b228 8b6d 8c14 83bf 9e60 cf57 b2a7 623f
00000090: f036 86df 7487 9a3f af3a 16f7 4f9b 90bf
000000a0: 3f25 fbc0 9ccc 78bf 96d4 3c33 acdc 7a3f
000000b0: 75a1 cc41 fdbf 633f de7e c58a 1df2 a9bf
000000c0: 4e24 2b0a 3ed7 813f 036a 7a00 8a89 893f
000000d0: 4aa9 03d2 4aca 79bf 7045 4e12 a211 81bf
000000e0: 8537 33a1 4062 963f ca4d 494a 7e02 95bf

weight f8 [2, 30]
-0.30068277533841514 0.04021366509002023 0.11154041997053137 -0.3400736347484324 0.29997907623320547 0.30733613630827555 0.059383639880780076 0.16518585893303803
0.06593704779021435 0.3278972234411127 -0.3823183686023119 -0.17714379102662559 0.028405878712154695 0.18785913628556572 -0.39882267551682843 0.05408386664592597
-0.04712660557288476 0.2462006491117561 0.05915877723374776 -0.41679904501138715 -0.10002441940032744 0.1562248425425593 0.06652064966252343 -0.3221868815544846
0.25621047922589685 -0.10159938314183889 -0.09811255614421943 -0.33209437886569826 0.0900411948417322 -0.36579173634748285 0.3183081413344399 0.037394768259533154
0.3856250299851392 -0.03125208492107959 0.20571582860248844 0.14923354551935847 0.3575043516593186 -0.014386807785970568 -0.4135877363652019 -0.1968623235597362
0.19790279429745333 0.04529750050584375 0.185024752868102 0.20869085964740883 -0.3783070073024712 0.37101321196867776 -0.12816737319912522 0.277333344020873
0.2377925586651501 0.10066882529114086 0.27326697411874196 0.009678856515169526 0.1927955205248872 -0.40967836528719237 0.028882937164923527 -0.3650300942319437
-0.05440241953542366 -0.3524487377809945 0.273391290375122 0.09117594036341051
00000000: f422 a3f7 623e d3bf 21ef d3b0 e296 a43f
00000010: 1b9e f4b7 e98d bc3f c97c de34 c4c3 d5bf
00000020: 67fa 7970 db32 d33f b7ac 942f 65ab d33f
00000030: 1c29 694e 8867 ae3f 4b85 f06a cf24 c53f
00000040: ff8f da17 40e1 b03f fe3d c8a2 44fc d43f
00000050: efa5 7376 e777 d8bf 600c 93d2 a5ac c6bf
00000060: d9d5 5440 6e16 9d3f c8f7 4ca7 c40b c83f
00000070: 33df 0f8b 4f86 d9bf 7990 f86c e1b0 ab3f
00000080: 0500 6a7b fa20 a8bf f82f 18bc 8083 cf3f
00000090: 1308 fb2a 0f4a ae3f f7fc d4e6 d5ac dabf
000000a0: 0e34 204a 339b b9bf 6482 c5f6 2cff c33f
000000b0: 7d28 cf4e 7f07 b13f dc82 deb9 b59e d4bf
000000c0: d5bb 4aa3 c065 d03f 1e52 e3cb 6a02 babf
000000d0: 1865 f78b e71d b9bf 8c78 1ac8 0841 d5bf
000000e0: 3654 2393 f00c b73f 8a9b 30be 2169 d7bf
000000f0: eb3e 451c 295f d43f f2b0 6e35 6825 a33f
00000100: 4588 139b 14ae d83f a4f0 55f5 4500 a0bf
00000110: 5e01 0f72 e554 ca3f 0663 bcb6 151a c33f
00000120: 387c a3ee 59e1 d63f 0006 7aa7 d476 8dbf
00000130: 09c6 6db2 3878 dabf 3077 c0dc c832 c9bf
00000140: b6b4 a5f6 e054 c93f 99ba 86e6 3b31 a73f
00000150: f26d 421f e4ae c73f 9772 94d0 61b6 ca3f
00000160: 438d 0d98 2e36 d8bf 5085 f232 aebe d73f
00000170: ddf8 26da c967 c0bf e53c aa5a d4bf d13f
00000180: 3678 598f fc6f ce3f f928 5aa0 6ec5 b93f
00000190: 15ae 3ac3 347d d13f fd08 9021 82d2 833f
000001a0: b61e bc0b 86ad c83f 0662 329b 2b38 dabf
000001b0: c3a0 241a 7d93 9d3f 3b0c 322f a75c d7bf
000001c0: 6cb1 7449 a2da abbf 624b 9226 858e d6bf
000001d0: 6a08 cb2e 3e7f d13f 22fb 0a72 4e57 b73f

bias f8 [2]
0.0449740376467702 -0.05114984182599174
00000000: 9e51 b949 d606 a73f 8729 ade3 4f30 aabf
