DAL_BFGS/BFGSNN/steady_NS/results/AONN/AONN_t2/p.pt (torch, 19347 bytes, 8 tensors)

weight f8 [30, 2]
000000 31 1a 88 4b 50 81 c1 3f f5 d2 85 23 2e 07 cd 3f
       0.13675883949345427 0.22678162321576392
000010 4d 84 24 cc 12 39 a8 bf c8 9a 5f 8a f2 55 d6 bf
       -0.0473104356954158 -0.34899581444771544
000020 2f b3 5d 40 ae f8 98 bf 75 cc 2e b9 1b 8e c7 3f
       -0.024386141470517927 0.1840243009770323
000030 55 c2 25 08 fb d0 ce bf 97 2b 3c a3 25 1b cd bf
       -0.24075258157565096 -0.2273909613653273
000040 57 b7 c2 12 af 38 cb bf 37 a4 a9 bf 1e ee c3 bf
       -0.2126673547367612 -0.15570434912231843
000050 66 0b cf 9e 81 5a 79 3f 0a 76 a7 e3 17 3b d6 bf
       0.006189829186896789 -0.34735676986551367
000060 f7 d1 99 ce 8d f1 75 bf e0 94 c0 7b 09 d6 67 3f
       -0.005357316907624191 0.002909678003578095
000070 52 e6 cf a0 02 0e bf bf 13 a1 57 d5 0b 69 d9 3f
       -0.1213075296981512 0.39703651270112167
000080 05 a8 90 20 ac 6b b0 bf 1e 4e d7 39 da 2b d1 3f
       -0.06414295001073363 0.26830154083765645
000090 8b 61 7c c0 f0 3c c6 bf 2a 16 bd e7 d8 b3 cf bf
       -0.17373475455020712 -0.24767600360262182
0000a0 fd 16 ec 36 8b bb ce 3f 47 aa 7f 5b 61 83 83 3f
       0.24009838277577691 0.009527931790178757
0000b0 6e 18 cc 8f d3 96 b9 3f 94 07 b0 cd 74 41 76 bf
       0.09995767841982836 -0.005433517707389774
0000c0 8c 75 21 a2 38 b6 c9 bf d1 15 1e 91 cd 04 c2 3f
       -0.20087345043695526 0.14077157579246927
0000d0 f8 21 55 42 af f9 7d bf 04 4e 06 10 e0 65 a3 3f
       -0.007318195920853025 0.03788662143338331
0000e0 f4 0d ad 37 83 b4 aa bf db ad 2c aa a1 6a bc 3f
       -0.052158451601396566 0.11100206761027868
0000f0 71 74 9b 1f e2 46 c1 3f 37 47 22 88 46 12 d7 3f
       0.1349756864864591 0.36049044889761056
000100 06 f3 24 6f f3 9f b4 3f c2 b8 63 37 29 f2 c4 3f
       0.08056565726742457 0.16364016727988512
000110 00 1c 10 d9 de e6 bc 3f fd 20 ff 19 d0 5a a4 bf
       0.1128978042544162 -0.03975534741727136
000120 0f 0b c6 d0 76 97 c1 bf 06 bb 77 bb c9 f8 c5 bf
       -0.13743481821082823 -0.17165490773864905
000130 a7 9c 64 99 b4 9e dc bf 53 37 b8 72 b3 25 72 3f
       -0.44718661289011624 0.0044304856960602655
000140 e5 88 55 4a 13 2b c6 bf 62 54 bf ec 49 df bf 3f
       -0.17318955545039852 0.12450086622205128
000150 a5 25 a9 fc 95 d6 d5 3f b6 0f aa 42 92 c8 d8 3f
       0.3412222831144283 0.3872419024485184
000160 dd b8 c4 04 3b ed d3 bf 49 3b 4c 35 90 8e d7 bf
       -0.3113544031683782 -0.36807637410031596
000170 50 7a 5a a7 c8 ba c1 3f 46 e9 7f 23 e3 24 c5 bf
       0.13851268931917327 -0.16518820985204224
000180 25 86 7e a8 b0 14 ba 3f 5f a0 5b 41 d1 1f d0 3f
       0.10187820542935151 0.25194198019608466
000190 64 dc ab bd 68 f5 c7 bf a2 a0 7c 4b 78 14 d3 bf
       -0.18717679272933474 -0.2981243836570774
0001a0 ae 33 d4 6b 4f 5a d0 bf c3 41 64 57 67 1b d7 bf
       -0.2555120995537504 -0.36104758772219386
0001b0 5f b6 fe 14 de e5 b9 3f 10 5f 19 59 0e 0c c9 3f
       0.10116374981472508 0.19568042135755848
0001c0 50 88 51 b1 44 bb d4 3f d7 5b d8 12 45 fe bf 3f
       0.323929951822838 0.12497359953009322
0001d0 8c f4 e4 31 56 c7 a7 3f 97 0c 11 13 42 f4 bd 3f
       0.04644269331991166 0.11700833287709354

bias f8 [30]
000000 2a 86 70 55 6b 80 b2 3f 93 7f f9 ba 35 2e a4 bf
       0.07227202258993573 -0.039415053438232615
000010 5a 89 0b 9a 09 bd a7 bf 7a 0d 9a 4f d3 09 b7 3f
       -0.04636411672051351 0.08999367421534102
000020 39 df 2c 87 eb 8f d1 3f ea 9e 51 04 03 f7 bc bf
       0.2744091816016297 -0.11314410071792805
000030 5b ec 5c 4f 87 39 c5 3f a5 72 09 b6 d9 e0 c3 3f
       0.16581813216348248 0.1552993906833723
000040 d9 5a 1d 96 54 53 b3 3f 78 35 d6 f4 3d 49 b3 3f
       0.07549027123364328 0.07533633449039268
000050 78 06 ec 8f f9 b2 c3 3f ff 32 54 cb 97 f2 cd bf
       0.1538993790382397 -0.23396584919137095
000060 e6 31 b7 3c ac ec 8d bf b7 3f 1a 2d 30 de 99 3f
       -0.014611573794263099 0.0252616431740191
000070 39 3a 39 49 98 a8 b0 3f 27 05 f0 14 0d eb cc 3f
       0.06507255351719089 0.22592319032995897
000080 5f ee 84 00 bd a9 9e 3f 0f 42 21 4f a2 c0 b2 bf
       0.029944375187581303 -0.07325186187632247
000090 9e cb eb dc a8 4a 9a bf 83 95 a5 b9 3c 5b 74 bf
       -0.02567542885203588 -0.004969823081727556
0000a0 61 77 7c 5c b7 69 a1 bf 63 9a 11 05 d0 fa be bf
       -0.03400967601758854 -0.1210145962119014
0000b0 94 4c 46 d8 17 fe a6 3f 0d 05 ed f2 8e 3d c5 bf
       0.044907326842030276 -0.16594111310590912
0000c0 18 7a fb 0f 01 e3 97 3f 24 5d 86 3e 43 35 ba 3f
       0.023326889610752216 0.10237522388921555
0000d0 99 bc 02 d9 bc 56 b1 bf 14 f9 10 2c 86 e6 8e 3f
       -0.06772976205933147 0.015088127345845005
0000e0 b3 a1 29 c9 8e b5 8b bf cb ad 21 a0 3f 06 bf 3f
       -0.013529887689586717 0.1211890951105296

weight f8 [30, 30]
000000 d6 be bc 8c ef 44 d1 3f d7 8c f7 6c 69 c2 b8 bf
       0.2698325037372177 -0.09671648893668149
000010 97 f9 92 75 8d 9f cd bf ff 1b f1 a8 ab b0 c9 3f
       -0.23143165818141817 0.20070405720818482
000020 3d c1 e2 26 83 e7 c2 bf e3 15 42 cc 66 1b 8f 3f
       -0.14769019507139972 0.015188983067001288
000030 4f a8 a8 ec 5f ec aa bf 19 96 9e ad 1e aa d0 bf
       -0.05258464588071431 -0.2603832908156121
000040 f1 0a ea d2 e0 cf cc 3f 49 b4 af e4 0e 16 cd 3f
       0.22509393976732597 0.22723566213918137
000050 f4 38 f6 3d 1a 99 c8 bf f6 6c 09 75 68 e7 cb bf
       -0.19217231774786792 -0.21799951281250401
000060 33 bb fa 6b 7f 65 bf bf 21 45 b1 94 a0 40 d3 bf
       -0.12264248262611659 -0.3008195354533019
000070 1b 44 b4 3f 3c 85 ba 3f 79 9a 25 4d be e3 cd 3f
       0.10359551005628058 0.23351267592370897
000080 c7 87 ca ac 89 78 d3 bf 80 5c 87 dd 57 80 bc 3f
       -0.304232043019621 0.11133336218277812
000090 78 54 01 a4 e9 ee ce 3f 5e 3f 7b a1 20 e1 c0 3f
       0.24166603572908563 0.13187034497104383
0000a0 bb 2b ea 3e fc f8 aa bf 43 b1 0b 4f 36 9f b6 bf
       -0.052680857353230214 -0.08836688451601042
0000b0 85 e5 63 d0 77 33 c9 3f c4 99 63 7b 3a ac b8 3f
       0.1968831794290901 0.0963779975169024
0000c0 11 b8 d6 be 71 73 cf 3f 27 f2 7b 07 ae d5 cb bf
       0.24571058100031043 -0.21745849004209214
0000d0 c7 55 b9 b4 90 2d c1 bf be 8e 70 de 56 00 d3 bf
       -0.13420304130947455 -0.2968957111608964
0000e0 67 4f 68 ea fc 68 ce 3f c0 c2 c5 18 32 31 cf bf
       0.2375789780204471 -0.24368883332819813
0000f0 85 3c ac d0 6b b4 b7 bf 65 a2 65 d5 d6 a4 56 3f
       -0.09259675831366294 0.001382074163837421
000100 26 c1 21 71 11 81 d2 bf 03 63 b5 86 ac e7 c0 3f
       -0.28912769363434376 0.13207012727323084
000110 3b b0 a0 f9 4a c4 ce 3f 7d 26 05 a3 c3 f4 ba bf
       0.2403653830418778 -0.10529730539306033
000120 13 ee 7f 81 16 2d c3 bf 9f 87 f1 99 0d 89 63 3f
       -0.14981347392300445 0.002384687962646972
000130 f6 7e 24 9e ef 7b c1 3f ae 7c a7 4e 86 bb c6 3f
       0.13659472677044676 0.17759779778041235
000140 37 28 1a c8 f4 5c d3 3f b8 66 cc fd e3 e0 cb bf
       0.30254859486797464 -0.21780061619283742
000150 09 aa bc a3 66 65 c7 bf ed 6e a4 b4 22 1e c4 bf
       -0.1827820109841272 -0.15716966457772888
000160 84 0d 40 be 3e b5 c4 bf 42 3f 2e e2 99 21 d1 3f
       -0.1617811612087331 0.2676758488460004
000170 62 c5 7f f0 01 cb d2 bf 94 80 53 76 35 97 d0 bf
       -0.2936405991195753 -0.25922905497828563
000180 90 3a de ae 39 22 d1 bf 9c 1c 7d 80 41 0e 81 bf
       -0.2677139480301003 -0.008327972158112033
000190 52 f9 04 2a 7d 1e d4 bf e4 fd 0e 9e 88 01 d0 bf
       -0.3143608961435308 -0.2500936072865143
0001a0 de b0 37 65 81 52 c2 bf a0 86 be 26 2a d7 85 bf
       -0.1431428665376932 -0.0106643002580456
0001b0 3e 37 45 d8 b2 fb c8 3f 6a 83 d9 61 f0 3a a1 3f
       0.19518123207165589 0.03365279383138538
0001c0 3e 92 1e 15 d3 e3 d2 bf 65 ea cc d2 9b 23 d4 bf
       -0.2951553064579321 -0.31467338167173003
0001d0 eb 36 a7 9e 7f d6 c5 3f 7c d1 96 00 87 c2 ce 3f
       0.1706084751771678 0.24031150368467624
0001e0 9c 26 3f 94 d5 6e c1 bf c0 18 d3 07 71 53 cc 3f
       -0.1361948942051655 0.22129643327770587
0001f0 d8 89 28 43 0f 26 c7 3f f2 9b a6 da 9f 1b 9d bf
       0.18084898738113853 -0.028425691337954313
000200 88 cb cf b3 ad 91 c9 3f 25 b2 b3 f0 d9 70 cc bf
       0.1997582557665647 -0.22219394925140637
000210 61 25 ed 35 ca e1 b6 3f 0e a7 43 1b 19 03 bb bf
       0.08938278023301428 -0.1055160228312639
000220 30 4a af a4 45 bb d2 3f 97 af c5 00 bd e4 81 3f
       0.2926801784753108 0.008737064920488353
000230 66 0e f5 52 87 bc c2 3f 05 48 92 7d 66 91 b0 bf
       0.14637843657156963 -0.06471863332470214
000240 4d 06 f0 24 9b c5 bc bf 9d e6 b9 b6 6c 4d a7 3f
       -0.11239022876545697 0.045512578301850605
000250 e8 21 af 69 fd 5e a7 3f 2f 1f 8c d0 93 de c5 3f
       0.045646590376751395 0.17085502322174181
000260 14 29 10 df 41 54 d1 3f 78 a9 20 c8 7a 0a ae bf
       0.27076765807636716 -0.058673703126561116
000270 c4 4a 59 07 61 84 a5 bf 26 c1 23 46 b1 8b d1 bf
       -0.042025596758909184 -0.27415115212990526
000280 b0 3e 03 94 89 1e d1 bf ad 69 6d 3c 14 81 cb 3f
       -0.26748885588038274 0.21487667990261397
000290 33 54 83 dc 75 00 c4 bf ea db 48 14 30 0d cc bf
       -0.15626405017124653 -0.219152460007279
0002a0 aa b9 9b b5 75 4f 6c bf a2 79 49 97 64 26 cb 3f
       -0.003455858136354813 0.21210915934620994
0002b0 2c cd c8 54 81 fb cf bf e1 70 e0 80 ac 27 78 bf
       -0.2498628295885309 -0.005897210923674318
0002c0 1c 1d 59 e4 a9 92 d1 3f 2e 04 01 bd c9 1c c8 3f
       0.27457663821810896 0.1883785412665317
0002d0 d5 70 25 04 4e 15 b9 3f 10 3f 42 66 16 4f be 3f
       0.09798133469797972 0.1183942794470989
0002e0 68 48 70 4f d5 1b d2 bf 1e 10 9b 7c 27 01 d1 3f
       -0.2829488063590646 0.26569544952894997
0002f0 b3 c3 1e 94 7c 5a c8 3f c7 7b 1e 61 db aa c5 bf
       0.19026143295698503 -0.16927664034025566
000300 cf 69 f2 dd 5c f2 d0 3f bc 22 26 cc 0b 9e 99 3f
       0.26479264902596084 0.02501696046377576
000310 ea 5f ad 0e d5 d5 c9 3f 15 18 77 2c 9a de a5 3f
       0.20183814255392402 0.04271394532001708
000320 b9 cd c0 34 ba 62 cb 3f 1c 32 cc 50 b7 5a b3 bf
       0.2139504201492011 -0.07560296747778533
000330 4c 8a 49 4b 0a 41 bc 3f 79 c6 32 3c fd 40 9a 3f
       0.11036743486469297 0.02563853912278666
000340 ac 50 53 9e ef 4a ba 3f 60 eb 0e 7d 09 50 cd 3f
       0.10270593276374268 0.22900503736840516
000350 24 9b 6d 59 2e 70 8f 3f c0 71 f7 6c 42 e2 8e bf
       0.01535068712628413 -0.015079993200679875
000360 c7 00 69 57 ec ec d2 3f c7 08 d7 6d 7d 66 ca bf
       0.2957106450667308 -0.20625274527816925
000370 dd cf ac 76 a7 0b d4 bf ad ae ed 1f 73 3d b7 bf
       -0.31321131314621004 -0.09078139810088244
000380 93 ef c0 08 f4 78 cd 3f c7 8f a7 3d 79 a9 b1 3f
       0.23025370051788893 0.068992211868646
000390 9e 7c be 37 52 8c c5 bf 12 a0 fe ac 4c 5b b5 3f
       -0.1683447620571074 0.08342437003614148
0003a0 66 46 c9 da f1 a1 d3 bf 43 b5 ff ff 03 c2 d1 3f
       -0.3067593227943689 0.2774667739857543
0003b0 b5 99 49 0f c1 88 d6 3f b0 84 bf 20 67 7c d1 3f
       0.352096810273362 0.2732179469877094
0003c0 80 5c 61 62 7e c6 b0 3f 84 fc 85 e3 7a 13 d2 3f
       0.06552877332556939 0.2824389669330645
0003d0 a6 41 d3 72 33 58 d1 bf 27 2c 4a c3 6b f1 a8 bf
       -0.27100836003685413 -0.048716895665244224
0003e0 75 e0 77 de 4a f2 c9 bf 57 2b 1a b0 8a 40 ac bf
       -0.20270667898853714 -0.05517991447148656
0003f0 77 36 d6 73 26 5e 66 3f 99 82 22 e2 2d ad d0 3f
       0.002730441191210183 0.2605700214717586
000400 6e cd 4e 70 7f 2e a5 3f 62 e3 25 ad 39 ee b0 bf
       0.04137037511773199 -0.06613502957578768
000410 99 b7 7b 69 d7 2e b0 3f 0d f4 4a 11 98 07 b4 3f
       0.06321474385523941 0.07824087545573395
000420 b0 5d 36 a0 50 92 a1 3f b4 4c 2c 73 e0 e2 d0 bf
       0.03431941943852779 -0.2638474583374759
000430 f4 d5 42 a0 1f 71 b8 bf 17 c4 4f 87 4f 43 c4 3f
       -0.09547612822174029 0.15830415827761676
000440 5b c4 2b cd ca e1 c8 3f 98 e7 3b fd e5 be 8d bf
       0.1943906308947899 -0.014524266043270548
000450 77 fd 14 cb aa f4 cc 3f 06 ff bf d7 13 4b 96 bf
       0.22621664920914572 -0.021770772975286533
000460 5b 92 9a 53 6c 49 b8 3f eb cd 5e 8b b3 73 95 3f
       0.09487034836872381 0.020949178105821458
000470 53 72 cf d1 4e d9 a3 bf 60 27 df 18 21 17 c3 3f
       -0.038767302619565534 0.14914334978521548
000480 74 5c 26 fa fc d3 a4 3f 4e f2 a1 17 ab 5d 91 bf
       0.040679841552610535 -0.016958878819865845
000490 3e ce bb bd 80 97 c5 bf 4c a6 88 4d ea 6e d1 3f
       -0.16868600143753726 0.27239472934397635
0004a0 91 2a ea f9 c8 87 90 bf 74 7d 83 e3 26 10 c0 bf
       -0.01614297891004896 -0.12549291714729416
0004b0 17 73 53 56 60 3e b4 3f e4 19 1c 3b 61 c9 c5 3f
       0.07907678706710573 0.17020812402934304
0004c0 7a 7d 5e ea 06 d3 a2 bf 9d 1f 8d 82 ab 0b b9 bf
       -0.036766258344182526 -0.09783431947027883
0004d0 8c ad 22 f6 e8 80 a7 bf d2 d5 d5 5b 99 5b c4 bf
       -0.045905380292732806 -0.15904538139481744
0004e0 be a6 a6 68 c6 dd bf 3f 7e aa e3 fe 35 b1 c0 3f
       0.12447776846843348 0.13040804811256018
0004f0 70 6c 9c 5f d7 e5 cb 3f f1 99 f6 bf 21 7a a5 3f
       0.21795169991023355 0.041947416956919066
000500 de 8b 8a 85 22 3d cc 3f 42 1e 0a 24 c3 ae ba 3f
       0.2206156875664353 0.10422916059371182
000510 33 a8 e4 5a b5 a5 b0 bf 2d 0e ad 49 1a be c8 3f
       -0.06502850979873713 0.19330147359333819
000520 84 08 0a d7 c8 61 bd bf 7b e9 6e 2f de 3e bb 3f
       -0.11477332353573116 0.1064280381969293
000530 1a 9d 22 9c ec 76 c9 3f 1a 22 c1 11 96 75 b7 3f
       0.19894178031720672 0.09163797315080338
000540 aa 36 1f cb 23 a6 d2 3f 51 a1 38 e3 b3 24 c6 3f
       0.29139036975980537 0.17299507708345144
000550 ce 5f 70 a1 4d 45 cd 3f 33 3e 32 91 60 cd d2 bf
       0.2286774671817952 -0.2937852304393999
000560 25 ad 3f af 6e c0 b2 bf d8 4f 24 fd 43 16 b4 3f
       -0.07324878481420123 0.07846474580975327
000570 80 c2 d1 e2 b0 c7 9b bf cb 4f 52 ea a0 89 d3 bf
       -0.027128948062854708 -0.3052751816078369
000580 cf f6 00 79 5a 2e 75 3f fc 89 f4 7c 7f aa c7 3f
       0.005171159180518094 0.18489068604783643
000590 36 07 9f 4f 39 13 ca bf 3f f9 4b 35 c5 46 b8 3f
       -0.20371166599039164 0.09482986975851747
0005a0 48 9a e0 fd 3c 8e c4 bf f5 b0 11 0b b3 e9 d0 3f
       -0.1605907668719786 0.26426387864081785
0005b0 77 13 61 de b4 ea c2 bf bf 0d e0 32 38 e0 aa 3f
       -0.1477876745067552 0.05249190922770763
0005c0 e9 e5 8c 82 59 c7 c2 3f e5 b8 c1 fe 52 e0 bf 3f
       0.1467086684659045 0.12451666564604442
0005d0 9b b9 c3 0d db bc d1 3f 0e f6 cd ca 30 5b c1 bf
       0.2771518358630602 -0.13559541609349463
0005e0 5e 86 a3 b6 89 89 be 3f 67 ac f8 b4 60 da b5 3f
       0.11928616246179888 0.08536343019720648
0005f0 d4 84 16 d0 80 99 ad bf 6d b1 ef 12 5d 70 d0 bf
       -0.05781176128517421 -0.2568581280636611
000600 8e 1f 4b 7b 63 ab ca bf 0e 03 77 7a 44 3a c6 bf
       -0.20835536499202728 -0.17365318279009795
000610 96 90 ef c9 dd 32 af 3f 73 d3 b6 6a 40 80 cd 3f
       0.06093495454823132 0.2304764290871862
000620 c0 2f c4 ad 9f c6 c3 bf fd 03 2d 68 67 69 b2 bf
       -0.15449901566205249 -0.07192083638530274
000630 84 42 5e 97 b0 94 d1 bf 2a 1c 21 0e a2 11 b0 bf
       -0.2747003057675459 -0.06276905865625851
000640 5e 72 ee 65 27 05 d0 3f 98 73 77 34 e7 be c4 3f
       0.2503145690368792 0.16207590162130425
000650 e4 af 7b ba fd fd 99 3f 20 42 7a d9 dc e1 b7 bf
       0.025382961756733283 -0.09329014119635604
000660 dd e9 03 0e ec 14 c0 3f b3 83 eb 0a c9 58 c1 3f
       0.12563849148121067 0.13552201302721087
000670 c6 f0 a4 b5 b8 6c be 3f b9 ba e5 ea 29 4b ab bf
       0.1188464587657477 -0.05330782883071578
000680 44 68 80 98 9f 9c c1 bf 22 a1 7e d9 d7 75 d1 3f
       -0.13759226747862574 0.2728175758334307
000690 64 5a 83 92 2c f1 c2 bf 0c 8d 98 5a 4a bc bd bf
       -0.14798504976234306 -0.1161543341809656
0006a0 03 c5 fa 8d 5a cc a0 bf 37 2d fd be 15 2f c8 bf
       -0.03280909522198707 -0.18893691850312574
0006b0 3c f6 ef 5c f0 58 61 3f 3b 61 d5 24 9d 20 c6 3f
       0.002117604693465917 0.17287029551040142
0006c0 b7 27 fc 43 91 bb ad 3f 94 1a 83 bf ea 4b c0 3f
       0.05807165102858341 0.12731680251291222
0006d0 c4 82 2e 98 a2 8a d1 3f 52 20 f3 75 61 30 be 3f
       0.2740866171025511 0.11792573098785056
0006e0 69 02 10 59 14 f9 c1 bf 55 6e b2 a5 5f cb d3 bf
       -0.14041380261189154 -0.3092879408011176
0006f0 fa 69 3a 86 cd cd c7 3f a6 7f 07 e7 16 d1 90 bf
       0.1859681039248498 -0.01642261300173655
000700 48 5f ca 61 f0 35 b0 bf d7 3d db f5 94 13 c1 3f
       -0.06332304370368746 0.13341009144504198
000710 a2 64 e9 39 15 ae c0 bf 88 e5 ea ce 88 9e c9 3f
       -0.1303125889560635 0.20015058616062853
000720 5a 9e 89 6a 93 f1 c7 3f 57 ad c7 e4 a3 f9 c9 3f
       0.18705980970411212 0.20293091460130583
000730 c4 fa 48 94 0d 34 a5 bf 1b 7d 09 84 31 ae 99 bf
       -0.04141275820847093 -0.025078557666685968
000740 ff 8b 7c 78 06 a5 b8 3f 70 6e f1 ac e2 73 93 3f
       0.0962680858761331 0.018996755414589506
000750 4c fa 4e fe fd 31 c3 3f 60 e1 41 3d 3e 4b c0 bf
       0.14996313970000796 -0.12729623786050137
000760 17 11 c2 f7 88 a5 be bf de d7 05 11 e4 8f aa bf
       -0.11971336411267362 -0.05187905032919081
000770 da 08 4b 2e 8f 03 b5 bf 5a cb fb c0 0f bb c7 3f
       -0.08208556060984354 0.18539616511369666
000780 64 73 33 89 4c f3 89 bf 41 82 8f 4d 2d 82 bb 3f
       -0.012671087204972849 0.10745509284561995
000790 ff da 53 30 08 e4 c1 3f 2a 09 66 67 5d 64 d0 bf
       0.13977148399109038 -0.2561257848502857
0007a0 73 6d 09 82 65 3f b7 bf c8 24 cc ac d7 81 cf 3f
       -0.09081110405661778 0.24614997804045502
0007b0 be 02 71 8c 46 84 c1 bf 68 e6 f8 56 8c 5d c6 3f
       -0.13684923036091406 0.17472986456577932
0007c0 5e 70 35 b9 0d 2a c5 bf 16 4a bb 2d 95 77 8a 3f
       -0.16534587424655717 0.012923398454778339
0007d0 96 b3 01 8d 01 22 c1 bf cc 1d c2 25 97 9d a7 3f
       -0.13385028252687609 0.046124194487727616
0007e0 4d 6b 0b cd 1a 02 c5 3f 3a 8a 48 c8 f3 d3 c5 bf
       0.16412673007911352 -0.1705307701059427
0007f0 11 5e a1 57 72 54 c5 bf aa c7 97 19 17 e0 d1 bf
       -0.16663960722756646 -0.2793023824625559

bias f8 [30]
000000 9b 7c ad c9 19 81 ab bf 24 10 21 91 9e 5c 97 3f
       -0.053719335430963265 0.022814252479534627
000010 f4 1c 0c a3 0b 2b 93 3f e0 cd 65 67 be e8 c8 3f
       0.018718892885797936 0.194602776038308
000020 2b 58 b1 ad cc 18 76 bf 40 42 ea e9 a0 35 ab 3f
       -0.005394744420376833 0.05314352851303683
000030 55 42 ab 4f ef 4f c2 3f 95 51 56 65 4d 7b b0 3f
       0.14306441679083784 0.0643814442067366
000040 d0 e6 53 56 98 a3 b3 bf 0c 18 1e 03 36 8f 82 3f
       -0.07671501262293678 0.009062215776577197
000050 5a 53 16 34 44 fc 9f 3f 8c 68 26 e4 f7 0f 8c 3f
       0.0312357575217733 0.0137023321629395
000060 d2 c2 e4 16 4f d9 9a 3f 6f 9f 45 96 1b 3c 74 bf
       0.026219592830957712 -0.004940135728567315
000070 38 69 6a cd 3c 22 93 3f 93 fb 1f 47 d2 5c 8a bf
       0.01868529323346843 -0.01287235526615208
000080 b1 c2 aa da 7e b2 8e bf c8 b0 a1 e9 41 bb a0 bf
       -0.0149888906938441 -0.032678661126597286
000090 18 6f dc 79 d0 d4 91 bf f3 d8 0b 00 c5 6b 7a 3f
       -0.01741338485508867 0.006450433284717716
0000a0 4a ec cb 72 80 d9 c6 3f df 66 0f e3 7f 60 7e bf
       0.17851262669850804 -0.007416247900403155
0000b0 95 60 58 0c 20 19 99 3f 11 4e 55 ca 54 8d b2 3f
       0.024509907487385425 0.07246904315734805
0000c0 b1 8f 6f 18 2f 0f a7 3f f3 3a 77 84 40 0f 83 bf
       0.0450377194718209 -0.009306434671910923
0000d0 b3 c1 81 c1 f1 62 68 bf 43 11 c6 82 36 1e b2 bf
       -0.002976867846932596 -0.07077351277081782
0000e0 4d da 4f 4a 0e c8 a3 bf 42 30 a1 da 96 99 be 3f
       -0.038635679789810064 0.11953108632695922

weight f8 [30, 30]
000000 65 3d c7 85 10 ad c7 3f 95 ec 5f 37 4b ce d0 3f
       0.18496901065962415 0.26259117515264424
000010 0c 70 3f d2 83 93 cc 3f 20 82 7f ea 23 c2 ce bf
       0.22325179830556896 -0.24029969167806176
000020 24 29 a0 25 5b 1b bc 3f 53 b1 4a 05 94 18 d3 3f
       0.10979242008776119 0.29837513462805026
000030 99 30 c0 b3 76 1d b8 bf 44 fe 16 0b b0 bc d0 3f
       -0.09419958008237685 0.26151658137311906
000040 75 93 32 0a 56 72 c9 3f 0a 29 08 cd 36 9c b6 bf
       0.19880176065376146 -0.08832113748227158
000050 e6 67 2b 9f 5b ff b4 bf 12 9b f6 b4 52 e8 a2 3f
       -0.0820214522931618 0.03692873438858703
000060 89 e5 b5 ba a2 fa d1 3f e1 4e ce 4b 4b 86 ba bf
       0.2809225867600494 -0.10361166573266757
000070 41 29 c9 f8 4b 63 d2 3f 94 91 9a 4d 15 e3 af bf
       0.2873105935620011 -0.06227938244163336
000080 b8 92 f7 cf e2 2d c9 3f c8 1d 78 83 60 d2 a5 3f
       0.19671282915728283 0.04262067417954146
000090 c3 54 b7 8b a1 c7 b3 bf 1a fe 55 96 0d 6b ce 3f
       -0.07726487790144447 0.23764200058575186
0000a0 c0 aa 0f 6e 15 c8 ca 3f 57 b9 07 53 a2 dd d1 bf
       0.20923107027132026 -0.27915247066893784
0000b0 df ff 5b 26 a3 7d d1 3f 96 fe 51 53 61 da 94 bf
       0.2732932924845936 -0.020364304266421294
0000c0 03 38 62 46 cb f3 bc bf bf 0d 79 88 70 22 c9 3f
       -0.11309500187255143 0.19636351264681015
0000d0 8e 85 87 28 83 5f c2 bf eb 4d be 93 7d 2e b5 bf
       -0.14353980521177018 -0.08274063927665735
0000e0 0b 76 2b 92 60 31 8f bf c7 51 d7 32 6a 37 bc 3f
       -0.01523089834284532 0.11022056332814777
0000f0 f2 b7 f4 b3 1e 0f d3 bf e9 28 ed bc b8 ff d2 3f
       -0.29779784749814475 0.29685800981373106
000100 92 ab ac 0e 73 ed d5 3f c2 2a 7d 91 26 77 cc 3f
       0.34261776383453324 0.22238618949844208
000110 c6 6d fe 10 58 de be 3f 67 82 03 f4 61 bc c4 bf
       0.12058020033730718 -0.16199898161632406
000120 4f 09 4c e7 10 a0 d1 3f ae f8 45 c5 46 65 cc 3f
       0.27539465510939903 0.2218407119034444
000130 00 a9 a2 10 ae 97 9e bf 68 e1 4a c3 7e 57 b6 3f
       -0.029875488057464317 0.08727257030375812
000140 c1 1f 7b 3a 2e 8b d1 3f e9 6e bf 67 f2 2d ab 3f
       0.27411990843802064 0.05308492199375598
000150 61 40 8f 6b 99 bf c8 3f ea 2a 06 b5 3b c3 bc bf
       0.19334714652950694 -0.11235402268918518
000160 f7 7a 28 3c 93 9f c2 3f 7c 0d 8f 5b 27 11 d6 bf
       0.1454948467007495 -0.34479698125161184
000170 e4 d8 a0 82 c2 93 b8 bf 2a 3d 06 0b 62 25 b9 bf
       -0.0960046357075473 -0.09822666901731184
000180 e9 b8 93 02 06 8d d1 bf 9f b0 04 06 78 23 8c bf
       -0.2742323899427804 -0.013739526446976234
000190 46 b9 3e c7 9d 38 d0 bf 59 e6 24 47 7a b0 c9 bf
       -0.2534555860282989 -0.20069817041239693
0001a0 19 4a 7e cb 2f 6c 58 bf 4b 76 af 04 39 73 9c 3f
       -0.0014906374690083545 0.027783289824461026
0001b0 94 18 18 0a f1 67 cb bf 09 ad 0f 06 02 77 bb bf
       -0.2141095446861 -0.10728466651896808
0001c0 ac cf 08 53 ab fc c2 bf 20 7e 69 27 67 ba bb 3f
       -0.14833585314192754 0.108313033220377
0001d0 4e b9 14 f4 a7 43 ca bf 16 b0 c1 b1 86 f8 c9 3f
       -0.20518969934478054 0.20289691619416378
0001e0 15 1b e8 59 7f 0d b1 3f 87 1d 12 78 0d 2d b2 3f
       0.06661220498072525 0.07099994832434763
0001f0 db 59 90 7c 6d 81 9f 3f d0 3d 46 30 7e 7d d2 bf
       0.030767164924407325 -0.2889094802312373
000200 67 e6 32 3c 44 a9 c5 3f 4a 8d 18 f1 dc 70 ce bf
       0.16922810496707827 -0.23781930706273108
000210 dd 52 bc 74 11 6a 88 3f 08 51 00 8b 2e ce a5 3f
       0.01192105901240253 0.04258866736214101
000220 dc dd a1 83 61 9c c9 bf 21 e8 79 59 59 95 c3 bf
       -0.20008486678464876 -0.15299527043299668
000230 84 f6 1b 65 16 a3 d3 bf 88 50 cb 89 03 78 ad bf
       -0.3068290698427989 -0.05755625779207302
000240 0e 98 ac 6f 5b 37 d2 3f 98 f1 11 10 ba fb b7 bf
       0.2846287336891472 -0.09368479626022574
000250 46 90 65 ee 2c 7b 9a bf e1 02 42 d0 3a 03 9e 3f
       -0.025860502291280583 0.029309195481348808
000260 fb 7a 63 bf 50 56 c6 3f a6 14 74 1a 4e a8 c5 3f
       0.17450913758417372 0.16919876376792792
000270 68 8d f0 d5 37 52 d2 bf 70 2d ff 6d 03 56 c1 3f
       -0.2862681950811834 0.13543742056786412
000280 ce a5 02 52 df dc d4 3f 7b 3b c1 30 40 3e d0 3f
       0.32598097809622295 0.25379948388302126
000290 00 a7 97 89 80 10 d1 3f c2 c3 7c bb 85 c7 c3 bf
       0.26663220822102573 -0.1545264401879916
0002a0 13 21 34 ce e8 45 c5 bf 81 64 b5 a2 fb 04 c9 bf
       -0.16619596546684842 -0.195464567611257
0002b0 b1 e4 76 50 4d c0 c6 3f 59 ad b0 dd 8f 9d cf bf
       0.1777435915844641 -0.2469959099265491
0002c0 8e a8 98 fc 8c 11 ce 3f 2e 0a 65 0d ba 2c 86 bf
       0.23491060575299055 -0.010827497037671465
0002d0 da 1c e4 56 e0 3f ce bf e1 ca 09 f2 0f 2c a6 bf
       -0.23632435076453967 -0.04330491857117181
0002e0 8f 0e 7d 04 62 cb d1 bf f5 5f b4 94 67 0a c1 3f
       -0.2780385059197465 0.13313002358404416
0002f0 24 a4 ea 34 9d 1d d1 3f db 81 ec 92 52 1c ca bf
       0.26743250053056244 -0.2039893357659953
000300 73 a9 e2 da 6b ff d2 3f 5e a7 fa d1 64 22 cc bf
       0.29683967948462636 -0.2197996163643507
000310 a0 fb 7e 24 e6 f4 c4 bf 30 43 d0 3b f9 6f c7 bf
       -0.1637237241938836 -0.1831046621378163
000320 9f 64 a0 4d a9 4c b3 3f d4 77 52 b9 da b5 a4 3f
       0.07538850922755323 0.040449938890773446
000330 6b 58 81 12 f4 75 74 3f e2 e0 2c 66 01 18 ca 3f
       0.004995301635139264 0.20385758866337428
000340 2c 3c 45 96 a6 e9 d2 3f 4f db 72 a3 f9 b3 d1 bf
       0.2955109088406427 -0.2766098114183721
000350 63 0e b0 84 5c de d3 bf 18 84 83 40 1a 1a b0 3f
       -0.3104468627718459 0.06289829325716345
000360 b6 d0 63 da 9b a0 cf bf 4a d0 0d 21 f7 93 b0 bf
       -0.24708889163560394 -0.06475777203542168
000370 1e 24 23 07 4c 29 c8 bf ca f8 10 12 1d 7b 9a bf
       -0.18876028393268113 -0.02586026594894334
000380 29 12 cc f2 c9 b8 c1 3f 7b c3 a5 ff ea c4 77 bf
       0.1384518085034341 -0.005803029979106418
000390 fc b7 af f9 61 a7 c6 bf 0a 9f 9d 10 e3 8f b3 3f
       -0.1769831151172524 0.0764142909589475
0003a0 d3 55 c2 92 9d ea ad 3f e5 0c 7d 8f 07 55 c5 bf
       0.058430599369937795 -0.16665739542268124
0003b0 8f 7e a4 fb 57 f6 c9 bf 11 bf cf ec 82 7a b3 3f
       -0.20283031260713755 0.07608812600642191
0003c0 06 e1 b4 5e 97 8f cb bf ce 07 bd f8 27 b6 c8 3f
       -0.21531955837577516 0.19305896420888619
0003d0 7d 21 5e 38 fd 22 c7 bf f5 e3 0f b4 d4 f4 6b bf
       -0.1807552838547614 -0.003412642894997204
0003e0 42 1d a3 ca c1 a2 d3 3f 32 2c 4d 6d 0e 9b d3 3f
       0.306808898818833 0.3063388888737705
0003f0 47 76 88 95 b7 89 c8 3f 1a 47 a8 9d 05 2f c0 bf
       0.19170279313486757 -0.1264349956332403
000400 df cf 0f ea 81 80 b4 bf 6e 53 af 26 02 79 c4 3f
       -0.08008586849592757 0.15994288338574897
000410 ea c4 e4 22 7d 52 be 3f 99 d8 4e e0 b5 69 a7 bf
       0.11844617940802818 -0.04572838175902056
000420 0c 5f 5a 72 61 e2 82 3f b4 ca 7a 87 20 9c 71 3f
       0.009220849325444223 0.004299284999137388
000430 0f b5 6c b1 5b 48 a0 bf c1 92 ab 3c f3 0a ca bf
       -0.03180204907253358 -0.20345917189037802
000440 91 56 be a3 09 6d a5 bf 48 cd 08 73 ea f3 cc bf
       -0.04184751628706097 -0.22619372002518845
000450 c4 95 97 ba bf 4a 98 3f 33 67 5e d5 59 5c bc 3f
       0.02372264458053565 0.11078416308592125
000460 1f 17 da f1 c6 bf a5 3f e0 d5 36 e2 5d 39 c7 bf
       0.04247876837057007 -0.18143819375624926
000470 26 fd 0b 31 d5 ad c8 bf d8 16 50 96 82 23 c2 3f
       -0.19280495543351 0.14170868243689116
000480 91 f3 3c 0a 10 69 d0 3f d2 96 74 a1 34 20 a6 3f
       0.2564125156384814 0.04321445914164958
000490 3d a4 2c a3 9d dd c5 3f ff 79 fb ed bd ba c6 bf
       0.17082567660807682 -0.17757391090613336
0004a0 8e fa a3 60 66 82 92 bf 6d 1d 47 11 ff 69 6e bf
       -0.018075561188192917 -0.0037126523768368697
0004b0 88 94 47 47 f4 09 c8 3f 9e 18 16 e6 8f ff c9 bf
       0.18780377846193042 -0.20311163649256953
0004c0 99 d9 44 c0 90 d8 9c 3f e0 c1 30 0a a5 34 b2 3f
       0.028169881568112485 0.0711157941702889
0004d0 9a f0 4e 0c 4f 4a c2 bf ab 1d 40 53 c9 1f c9 3f
       -0.1428927240466507 0.19628254475558768
0004e0 e4 60 ec 9c 9c f2 d0 3f 2e 52 5b 39 39 0c b4 bf
       0.2648078472571014 -0.07831151628790486
0004f0 60 7d b7 c6 ba d3 d1 3f dd de a3 7f ee 7b b5 3f
       0.27854794889386447 0.08392229667867519
000500 02 50 3b ac a6 9c ce 3f 4a c3 4a 14 2b 21 90 bf
       0.2391556111311957 -0.015751526940849282
000510 d7 2b d6 1e 66 06 d3 bf 9b 2e 2c 37 26 5d ca 3f
       -0.29726555835139606 0.20596769041036542
000520 79 8e f3 6c 7b 7d a8 bf f8 8e ec b2 2c 39 ce 3f
       -0.04783235268567138 0.23611983047987173
000530 d4 64 ad 16 2b 96 c3 3f 95 37 f2 42 86 5a b8 bf
       0.1530202732781506 -0.09513129362514257
000540 28 aa f2 b1 c0 8f bf bf c6 36 95 61 29 39 c4 3f
       -0.12328724235946054 0.15799443497456006
000550 11 79 4d 57 d8 73 d3 3f 8b 37 7d 00 39 8f d1 bf
       0.30394562268874475 -0.27436661765829545
000560 e7 32 5a 9c 51 f6 cd 3f a7 ff 48 42 47 d1 ca 3f
       0.23407955297843516 0.20951166855411182
000570 d6 bb 44 97 9a 7b ba 3f 68 4e 2f 93 fa 2c b2 bf
       0.10344854538992307 -0.07099882214907327
000580 2a 82 36 ec 6f 1d d3 bf 40 85 d1 24 17 9b c0 bf
       -0.2986717039839585 -0.1297329835679566
000590 5d 74 9a 5b de 5e ce bf ae 89 e9 7c e0 3e d0 3f
       -0.2372701594621586 0.2538377017828236
0005a0 77 6c 75 10 05 eb b1 bf 0d 27 85 9b ba 12 c7 3f
       -0.0699923672849979 0.18025906175380904
0005b0 bd 60 94 38 70 e9 c9 3f 34 89 96 81 4a cc d3 bf
       0.20243647349048458 -0.30934393553811224
0005c0 7a f7 75 63 9f cf d0 bf 67 38 f2 49 88 e0 cd 3f
       -0.2626722785279224 0.23341468439724908
0005d0 2f 68 6c 1d 88 88 ce 3f a1 fb 77 26 3b ac d0 bf
       0.23854161678974736 -0.26051214939792017
0005e0 84 28 aa 32 36 81 c5 bf 90 fc e3 dc 6b d8 be bf
       -0.1680057284723412 -0.12048982756458515
0005f0 7f 74 64 6f 61 fe d3 3f 69 e4 b6 65 34 47 c7 3f
       0.312401160031932 0.18186049429440068
000600 1f 3d 23 8d 0b 18 bc bf ee 1f 2d df f2 93 c5 bf
       -0.10974189944976274 -0.16857753655699476
000610 40 1e c7 63 68 1d d2 3f 75 f2 dd 87 df bf c0 bf
       0.2830449079887991 -0.13085550436143803
000620 74 77 77 dc 6f 19 d0 3f 13 2e 33 67 c5 63 c7 bf
       0.2515525486941137 -0.18273227252062493
000630 28 1e f4 ab 2d 2b c6 3f ef d0 b5 ec 0e a8 b5 bf
       0.1731927003495326 -0.08459561614091958
000640 73 85 7a 8b 67 2d c0 bf e6 0f 8f 1f ec 37 d0 bf
       -0.1263856345222326 -0.2534132297698747
000650 98 e8 16 8d c1 dd c0 bf 57 d9 e1 a5 e3 64 c3 bf
       -0.13176745785842026 -0.15151639556615734
000660 b5 49 a7 91 5d ea cf 3f 05 ac bc be 37 14 bf bf
       0.24933976757035983 -0.12140224844613108
000670 3f a5 fa f0 df 11 9e 3f 95 78 a2 4e 00 ea ca bf
       0.02936506183929066 -0.21026614989836348
000680 c6 ff 18 3a ae 09 b8 3f 3e 86 ab 69 ee b5 d3 3f
       0.09389771383666731 0.3079792053159486
000690 3f 27 99 ad f1 10 d1 3f a6 61 a2 a7 c3 a7 a2 bf
       0.26665918305353736 -0.036436189854785625
0006a0 96 6b d8 28 2b bd c0 3f a1 7f 6e 7b 26 8f c4 3f
       0.13077296728519333 0.16061860110221196
0006b0 c9 64 03 a8 89 45 ce bf 1f d9 39 37 52 0a d0 3f
       -0.23649712280056281 0.2506299533191782
0006c0 7f 7d ac 64 96 71 c5 bf 45 9f 9f c4 e7 7d a3 3f
       -0.16752891460144423 0.038069956542868634
0006d0 25 94 91 10 41 5a bc 3f 06 26 1e 24 8b 56 b2 bf
       0.11075216917522875 -0.07163304931432188
0006e0 93 ef b1 28 f5 84 b0 bf a2 53 31 50 99 38 af bf
       -0.06452877276927742 -0.060978690184732245
0006f0 e0 e0 01 80 6e 87 85 bf 25 52 80 e9 54 83 cb 3f
       -0.010512221604799199 0.21494542504719152
000700 31 aa 66 8a e8 b5 cf 3f 73 b6 37 48 60 cb b8 3f
       0.24773890264380463 0.09685327304006268
000710 a4 c8 0b b3 3c b6 c1 bf 39 6a f1 a6 25 10 c7 bf
       -0.138373935150928 -0.18018026973261828
000720 6f e0 cc 83 3c 2b cc bf 62 5c 2a 9f 0b 06 c7 bf
       -0.22006946979104522 -0.17987199088813371
000730 b6 2a 37 36 95 3f bf 3f 7d 3c 66 c6 3c 9a ce 3f
       0.12206394742603774 0.23908195197552465
000740 c5 9b 6f c2 7c 9b bc bf 8e ad cb 48 a1 fd c7 bf
       -0.11174754855129183 -0.1874276738593434
000750 e4 a4 aa c2 9f dd c3 bf f3 b4 7c 65 5a 3f d0 3f
       -0.15520092969135313 0.25386676703313
000760 8b 54 b2 ff cc 0b ba 3f 0a 8c 32 98 bd c1 ac 3f
       0.10174256556122623 0.05616562350157757
000770 54 71 fd d1 78 a8 c2 bf 25 f5 73 90 5b 87 c4 bf
       -0.1457663560239647 -0.16038078835837513
000780 52 ff 5d d6 08 a8 cf 3f 9c 8c 1c e8 11 25 c9 3f
       0.24731550662181206 0.1964437850338968
000790 9a e7 c0 ee 9a 51 d3 bf c3 19 6c 68 e0 e0 c2 3f
       -0.3018557864739876 0.14748768900626716
0007a0 7e bb 1f d9 ff 51 c0 bf b3 75 33 9b 7b 2b a9 3f
       -0.12750242330318068 0.04915987271827351
0007b0 b5 d3 58 c7 36 e6 c5 3f 14 74 04 2c da 7b c1 3f
       0.17108807309855725 0.13659217023169445
0007c0 08 cb 5a 5c 39 bc d4 bf 73 b8 e5 aa 0a 9e d2 3f
       -0.323988285245989 0.29089609803384703
0007d0 cd f0 7d 30 de 70 b2 bf 69 5c e1 76 8e 4b b6 bf
       -0.07203472789655337 -0.08709040071822617
0007e0 a6 ac 5e 57 85 e6 d2 3f 81 63 0a bc a2 63 ba 3f
       0.295319876978008 0.10308281985125058
0007f0 c0 21 09 cb 87 d6 cc 3f 1e 50 0e 48 a8 2c c2 3f
       0.2252969495186914 0.14198783415179234

bias f8 [30]
000000 37 0e a9 bc 39 7f 45 bf 86 39 2b c4 f2 62 b4 3f
       -0.0006560356062625454 0.07963483132627944
000010 8c 20 56 83 63 a3 83 3f 5f 15 f0 f8 cb 81 38 bf
       0.009588983007020845 -0.00037394742770432103
000020 31 7c be 5f f3 5c b0 3f 59 3c a8 b3 ab 38 b0 3f
       0.06391831481458678 0.06336472641145131
000030 4b af b8 a2 69 26 0d bf 17 b2 0e 7d bd 31 2f 3f
       -5.559930681572777e-05 0.00023799360363109596
000040 fb 2d 71 8d d0 46 75 bf 29 29 f1 06 c5 b1 b1 bf
       -0.005194487245784081 -0.06911879939540157
000050 98 6d ed 6e 0f c8 67 3f 71 87 ba 72 7e bc 44 bf
       0.0029030133659213135 -0.0006328217909479084
000060 9b 5a 5f 97 1d 91 63 bf ea 14 f1 6c 3a 84 97 3f
       -0.002388532443528502 0.022965348147654753
000070 8b a1 59 63 cb 58 70 bf ee cf 7f 3f d6 84 8d 3f
       -0.003990931019508879 0.014413522541850878
000080 a7 c5 35 07 84 e8 69 bf aa c0 1f 74 8e 51 6e 3f
       -0.003162629954822821 0.00370099852533919
000090 b3 68 60 5e eb 81 65 3f 30 b8 00 24 8f a9 5c 3f
       0.002625426964198396 0.0017494104249737956
0000a0 88 6a a0 4a 01 1b 80 bf e1 ba 53 7d 02 2a 9e 3f
       -0.007864008035587192 0.02945712938247425
0000b0 58 5c 07 c2 c4 05 7e bf 85 af d4 54 b8 98 3c bf
       -0.0073297201019704925 -0.00043634891774745776
0000c0 71 4a 64 8a 35 8f 86 3f fc 96 08 7a eb 28 80 bf
       0.01101533726299417 -0.007890548383396638
0000d0 26 03 81 a6 a9 6d b0 3f 9b 97 77 55 5d 78 a1 bf
       0.06417331996000239 -0.03412143390941865
0000e0 f1 35 f6 cf 00 6c 73 bf 0c b2 1f d3 47 cc 83 bf
       -0.004741671727413786 -0.009666978006827719

weight f8 [1, 30]
000000 ad 90 8f 33 3d 84 c4 bf 79 8b 11 3b dc 49 d5 3f
       -0.16028561608903172 0.3326330735055119
000010 8c 8b b9 f1 a5 cd c6 3f c3 75 8c 74 a5 dd b2 bf
       0.1781508856102757 -0.07369455428530274
000020 95 c4 68 8f 69 1d c9 3f c0 8d b2 ac 55 34 b3 3f
       0.19621009352116361 0.07501731363532027
000030 ec 50 43 59 09 1c a2 bf 9a ae 69 f3 62 5a 9a 3f
       -0.03537015165935195 0.025735422236194162
000040 d5 77 af 64 81 8c c2 bf b1 c4 ab 35 73 15 d1 bf
       -0.14491288582115538 -0.26693420640283266
000050 8e db 3c 7d d0 d7 c1 3f e3 7f f6 81 06 d9 b0 3f
       0.13939863314746187 0.06581154511377423
000060 f9 e0 12 62 b5 7a a8 3f 50 78 1d 84 b5 48 bd 3f
       0.047811191770451296 0.11439070201365209
000070 ea 08 b6 6f c8 39 c6 bf 87 7c 77 9d 75 97 a2 3f
       -0.17363839583055746 0.03631179377747978
000080 30 c4 07 ae fd c7 66 bf cf b8 2e 67 02 6e d6 bf
       -0.0027809099849425353 -0.3504644401208567
000090 b0 3d 60 9d 33 11 bf 3f 04 1a 0e e9 2c 1f 96 3f
       0.12135622589288775 0.021603299831918235
0000a0 2b 59 ce d7 0c 28 c9 bf 9c 4b a4 89 f6 6a be 3f
       -0.19653473412899677 0.11881962643046368
0000b0 db 0a 46 1a 88 4a d0 bf 73 f4 c8 77 ae ad a4 bf
       -0.25454905095845753 -0.040387584802808706
0000c0 e5 cd e8 13 e9 d5 b2 3f 4b 2c 52 5a 17 1a ce bf
       0.07357651458806165 -0.23517124090389738
0000d0 41 83 01 73 f3 ca cb 3f f0 7c e2 a8 36 97 c5 bf
       0.21713107219241048 -0.16867717024158635
0000e0 2e 6a 8d a2 6f 9e cb bf b5 36 7b ee 8e ee b3 bf
       -0.21577258526925064 -0.0778588611821885

bias f8 [1]
000000 00 00 00 00 00 00 00 00
       0.0
