DAL_BFGS/BFGSNN/steady_NS/results/AONN/AONN_t2/u.pt (torch, 19603 bytes, 8 tensors)

weight f8 [30, 2]
0	0x3fd6306299a32e27	0.3467031956067523
1	0xbfd221f04840c667	-0.28332144790610986
2	0xbfd175a442d1f619	-0.2728052761593474
3	0xbfd06c622d953a03	-0.25661520434815105
4	0xbfdee2a531c0e5b6	-0.48258333071461423
5	0x3fcf015114cf25ec	0.24222768322060462
6	0x3fcc55f98bf21d5e	0.22137374242104618
7	0xbfd5530645a1f359	-0.333192413330655
8	0x3fde594ac7e153d3	0.4741999580340323
9	0x3fac213be8a9667f	0.05494105544194116
10	0x3fd1c0af6a2a6346	0.27738557212574155
11	0x3fd3db6badf1bf64	0.310267372004992
12	0x3fb72f9adeafb3c1	0.09057014404943599
13	0x3fcfd9d26ce3bd6c	0.2488348991096062
14	0xbfce9212a2c9ec8a	-0.23883278797788804
15	0x3fe0dbe2ea8b4467	0.526841600507521
16	0x3fddd3e1c4478e6d	0.46605724494859296
17	0xbfe627eaac0c6dda	-0.6923726425479189
18	0xbfe68f12ffd8aae8	-0.704965114307325
19	0xbfb97f582ad6f1c9	-0.09959937139405563
20	0xbfcdec1f45bb261d	-0.23376837639652673
21	0xbfd6aa9d7e48c985	-0.3541635258908616
22	0x3fd85687fec1c952	0.3802814472066035
23	0xbfa478cfc2da4525	-0.039984219108314435
24	0x3fcb5c23b961bb63	0.21374937583774586
25	0xbfa86b8e346b7213	-0.04769558324708014
26	0xbfde888ec8139e02	-0.47708482302411437
27	0x3fe496bf5084a94d	0.643401772749067
28	0xbfd4d750b669997c	-0.3256418019649556
29	0xbfc5b80035213db1	-0.16967775911551322
30	0x3fd233d2c9faed69	0.28441304897906733
31	0x3fbe5af2eea39f9e	0.11857527090216854
32	0xbfd5d374aff9a401	-0.3410312384135637
33	0xbfd68925a2571209	-0.3521207890846943
34	0x3fdcaeec59f5fece	0.4481764677548029
35	0x3fd2a8ba588d4785	0.2915483345760708
36	0x3fbd5e22a3c13579	0.11471764085691473
37	0xbfe5bf4a0ce47d4d	-0.6796007396514284
38	0xbfc59e557839ceb3	-0.16889446611786738
39	0xbfc7aca482a03755	-0.18495613458838514
40	0x3f9d4ac7d20db6e6	0.028605577655460922
41	0xbfdd5a923ab46777	-0.45865302784806466
42	0x3fe0f0871f5e59b0	0.5293613064448461
43	0x3fc57f478993dac7	0.16794676034597542
44	0x3faf33e2fd2f269e	0.060942738920471515
45	0x3fce5da1749ae1cb	0.23723238175968073
46	0xbfd3af1ded4d712f	-0.30756328748772693
47	0x3f98598627072bbe	0.023779007083969843
48	0xbfdcb60e0b54e32f	-0.44861174685097444
49	0xbfd1c74782d9907d	-0.2777880456762956
50	0xbfceccb775484652	-0.2406224558513253
51	0xbfba2053ee7bc8a1	-0.10205578396179017
52	0x3fd755d93a779d8d	0.3646147795647828
53	0x3feddb5335a5befa	0.9330230758477847
54	0x3fd1717098775008	0.2725488175321975
55	0xbfe13c8807147eca	-0.5386390817911544
56	0xbfc0f21bb6594061	-0.13238855746976966
57	0xbfd1552a09aef7e3	-0.27082301088000643
58	0x3fd88fc3ee417a80	0.383774740859657
59	0xbfd7a08474e334d0	-0.36917220511243176

bias f8 [30]
0	0x3fbc159b5a6a8c07	0.10970469434191453
1	0xbfa4430d459d0aec	-0.03957406496785673
2	0x3fa7be8f68fe91d5	0.04637573391599729
3	0x3fb42c3d7352c955	0.07880004945289916
4	0xbfb2d537aad9cb22	-0.07356594010506659
5	0xbfe66863e04bce9a	-0.7002429371627443
6	0x3fd5dff1444036cc	0.3417933622848579
7	0xbfc8d2820d04d552	-0.19392419467628003
8	0x3fd35862031e3762	0.3022694616746461
9	0x3fc9fc809cb0ffb7	0.20301826144168242
10	0xbf95e24b934b6ace	-0.02137106024279483
11	0xbfc5e664b629cc90	-0.17109354872409144
12	0x3fc9be29bda72af4	0.20111581573868131
13	0x3fc311b947ae710b	0.14897838592595067
14	0x3fd8ef843c557774	0.3896189297864716
15	0x3fdf0784c3d402f4	0.48483389972538693
16	0xbfc562b570ab1787	-0.16707485200293723
17	0xbfcba52ff3500b63	-0.21597861652852676
18	0x3f866e765a01bb24	0.010952877637661347
19	0x3fcd4e674b83d148	0.22895518481494492
20	0x3fb18e4d7973e5cf	0.06857761588243892
21	0xbfd45c72c911d9cc	-0.3181426013537958
22	0xbfc6e04c90f232fd	-0.17872006490178896
23	0x3fb8f79ef578338f	0.09752839558514224
24	0xbf99b12ec79324b9	-0.02508996098621161
25	0x3fc110f917d2ee01	0.13333047545698665
26	0xbfed25b729ab477a	-0.9108539403771225
27	0xbf794b4b76f4b879	-0.006175322326539606
28	0x3f9e1e70e8bfe4fa	0.029412998395831537
29	0xbfaa716cf9aacb89	-0.05164661929793286

weight f8 [30, 30]
0	0x3fb6ecb47df65bcf	0.0895493323827019
1	0x3fcbfce8deba4642	0.2186556899583128
2	0x3faf61d73959c066	0.06129334044533223
3	0xbfd159d1389f959d	-0.27110701112391117
4	0x3fd375579a6c0af2	0.3040369995143656
5	0x3fcf3f78bb697e36	0.2441244998071725
6	0xbfab65a737bd18c2	-0.053509927324328924
7	0xbfa796ce0e3519d8	-0.04607242511206139
8	0x3fd697e8c186115b	0.35302180193709426
9	0xbfd3fd8bb64b1421	-0.31235020448758816
10	0xbfbd3f0493e6613b	-0.11424282656515043
11	0x3fbb38a9d4aba9c9	0.10633336488869029
12	0x3fc7e19013fdf75d	0.1865711305253467
13	0xbfd06adb008f74be	-0.2565219407532132
14	0x3fb194c5d8f11e05	0.06867634340698466
15	0xbfb8b6874281c640	-0.0965351617212713
16	0x3fc4ed40bfdc7697	0.16349038475248243
17	0x3fd4c24689f6726e	0.32435763810079876
18	0x3fcb3ddaf8990335	0.2128251756530745
19	0x3fbd36d89ec7cd7a	0.11411813618160763
20	0x3fcd497794bac6d1	0.22880453836619677
21	0x3fcf6b766fe530a9	0.2454669996608392
22	0x3fcb5adba551f032	0.21371026584881886
23	0x3f782460a5ac2d4a	0.005894067314112414
24	0xbfb2eca20aaac9c0	-0.07392323265484091
25	0x3fa85b8990717d62	0.04757337463592638
26	0x3fd6243fb59f266e	0.34596245514385415
27	0x3fcf3392a6fd1453	0.24376137880077184
28	0xbfd326e287e7e37d	-0.29924834510853043
29	0xbfa976fd7c3a0aa2	-0.04973594800414573
30	0x3fbd4b25476c1f9c	0.11442788118085762
31	0x3faaea0cb166329d	0.05256690660016725
32	0xbfd812d746790f19	-0.37614995843999705
33	0xbfaacc6ff89b4ca1	-0.05234098348378181
34	0xbf7d4f1fbd93d7ce	-0.007155536638711225
35	0x3fd2947209aa46bf	0.2903103918443825
36	0x3fdcf74c1bdb865d	0.452593829350098
37	0x3fca5af3188afa40	0.2059005613172804
38	0x3fb44e1fd9bb0961	0.07931708398522154
39	0xbfb6ccada14b3517	-0.08906064212643049
40	0xbfd886d97fb79a35	-0.38323056671507355
41	0x3fd3ecd073bc83ab	0.31132899572736034
42	0x3fcbff20df1e9b88	0.2187234010172825
43	0x3fd0370fc59d2945	0.25336069391473287
44	0xbfa7331a0d1cbe53	-0.04531175050794602
45	0xbfba409c9956280d	-0.10254839652603227
46	0xbfd27817cce05a8f	-0.2885798931833187
47	0xbfb7ee4ba248bbe5	-0.09347984992994858
48	0x3fc0e04a560d94b2	0.13184479905900087
49	0xbfd8b29a44da473e	-0.3859010383977085
50	0xbfae74b00b5a724d	-0.059484006296064075
51	0x3fcb3c1341bd62a6	0.21277085027647508
52	0x3fb67b4ff90ac786	0.08781909780625882
53	0xbfb609bdb908436f	-0.08608613746060965
54	0xbfd3611b949903f3	-0.30280198585029366
55	0x3f92cb1ce529abe8	0.018352939116464656
56	0x3fd659607d8d042a	0.34920513401817976
57	0x3fc6aa01b93f3a53	0.17706319375288845
58	0xbfc4d114f8564a1d	-0.16263067365487496
59	0x3fcc48b3839506f6	0.2209686653605371
60	0xbfbcfffc70f0b545	-0.11328103787737571
61	0xbf50c3055bd2e979	-0.001023059113590989
62	0x3fb18536a4f46eb3	0.06843892600266592
63	0x3fc0cb52e8a788fa	0.13120495185928133
64	0x3f96aa32c405eefc	0.02213363000326661
65	0x3fd4a80fceab7665	0.32275767500491376
66	0xbfc36a9ba436c7a9	-0.1516909171892256
67	0x3fc323a00932c355	0.1495246930039921
68	0x3fb78bd6bb26f570	0.09197752064843256
69	0x3fbbd409f99d6cb0	0.10870420784106005
70	0xbfb367a1251a9225	-0.07580001026014623
71	0xbfcaa7d96afda19c	-0.2082473537841566
72	0xbfcd40d5a5500f38	-0.228541093558414
73	0xbfb614736d876770	-0.0862495558170886
74	0x3fc8821e55777b64	0.19147090123348243
75	0x3fb575c1c45dd701	0.08382807773690716
76	0xbfc08bdd6a02055a	-0.12926833797613818
77	0x3f9cdddf41df2bff	0.02819012488889072
78	0x3fc779dc4bdc61b8	0.18340638832229472
79	0x3fb2908742bbf68e	0.0725178277898186
80	0xbfb58742a7bff644	-0.08409515948729857
81	0x3f98e3c6651e967f	0.024306392595141887
82	0x3fbd452c38b97843	0.11433674225688244
83	0x3fb7b00a8afe9743	0.09252992528362562
84	0x3fbea6fe587e12a2	0.11973561916790712
85	0x3fd0eca9632fe5fb	0.2644446819900563
86	0x3fcf9b06552fb402	0.24691847953309326
87	0x3fd9d5d324bfd77c	0.4036758288269693
88	0x3fd06a1921aea7ca	0.25647571839601524
89	0xbfa31e5b12d1116e	-0.03734097103782373
90	0xbfc4c56af2ebc3ee	-0.16227471219420359
91	0xbfd5fc44fa7a0d91	-0.34352230511304876
92	0xbfb5956170751f4c	-0.08431061740440987
93	0x3fc1a222f7e994ec	0.13776051621531538
94	0x3fc7af964387479b	0.18504598901068622
95	0xbf79a47852b09f43	-0.006260366451023294
96	0xbfc07d9f24e6b35b	-0.12883366872611188
97	0x3fbe882fa1532160	0.1192655342921447
98	0x3fb61e5e4b7a213d	0.0864008840818586
99	0x3fc929f7f33aa1a4	0.19659327865998677
100	0xbfc2fa0cc9c0cf34	-0.1482559189913616
101	0x3fa83720e3139f21	0.04729559680873608
102	0x3f9025cfd8dcc81f	0.01576924096224996
103	0xbfb42e7068e31aca	-0.07883360443802725
104	0xbfc9ba4aab0e6bfb	-0.20099767067299
105	0xbfcb9a315ffd1efb	-0.21564309298468473
106	0x3fb45cba24ed22bd	0.07953990365525505
107	0x3fca97df7e5b8997	0.2077597968082727
108	0x3fa5d6ff1cf2bb12	0.042655918391906536
109	0xbfbf4e04b6ba2064	-0.12228421650991234
110	0xbfc7a2dfc244f557	-0.18465802179154409
111	0x3fc7b40f862ac2b9	0.1851825146782369
112	0x3fceae5498dbc202	0.23969514335432512
113	0xbfb5802ec3456f6a	-0.08398716227878614
114	0x3fb27c3f545c2225	0.07220836457793973
115	0xbfd54f903dcc731d	-0.3329811671736012
116	0x3fd466518473b38b	0.3187450211979061
117	0xbfd141ab186c4a6b	-0.2696330774789774
118	0x3fbd41a8ffa457d1	0.11428314439066802
119	0x3fc5ae326107d4d6	0.16937856424161762
120	0xbfb2ec08f911ed7a	-0.07391410904704357
121	0xbf708c576914bc84	-0.004040090033682667
122	0xbfd15bdcba7d7eea	-0.27123182498870213
123	0xbf6f9e6dd5080a53	-0.0038597245368248516
124	0xbfd0a26f0ff10b3d	-0.2599141746215315
125	0x3fc1d81236825c98	0.13940646802504797
126	0xbfc24289f8583904	-0.1426556074733939
127	0xbfcb219bee11a91e	-0.21196316837751622
128	0xbfd31c498ac0c53b	-0.29860151815508446
129	0xbfd1214dc48e4df4	-0.2676577014437662
130	0x3fb942021ad58e35	0.09866345553523888
131	0xbfd2eb98fe35b87c	-0.29562973809414195
132	0xbfa69e8b0ebc59b3	-0.044178338574215735
133	0x3fb647534639e8fa	0.08702583755976781
134	0xbfbb4ac90a4b9c2e	-0.10660988332129825
135	0xbfa46cdc9e9d4a10	-0.03989304958544804
136	0xbfb4c07231554148	-0.08106149391574491
137	0x3f1b060ac3611c1b	0.00010308685963976475
138	0xbf90ff03801c8e8c	-0.016597799963291623
139	0x3fb2ad3bd70ce653	0.07295583725217485
140	0xbfc9187d2d46b2b1	-0.1960598441195507
141	0xbfbe1925f1311af0	-0.11757123125526525
142	0xbf75cec49e9c16d3	-0.0053241424991534335
143	0xbfa3dca28924f3dd	-0.03879268573880499
144	0xbfd0db65fa4cec2b	-0.26339101260572545
145	0x3fcb7e675ab3be88	0.2147950356370425
146	0x3fc96fc75e9d8ef3	0.19872371787925366
147	0x3fb59d4761851b18	0.08443113451822304
148	0xbfb564c42067698f	-0.08356881896125955
149	0x3fa39bb056d12bce	0.03829718646792167
150	0xbfc752ed09c7d362	-0.18221819856230598
151	0xbfbdc82c3a6e8078	-0.11633564402154828
152	0xbfc0b116b3f5079a	-0.13040431773157196
153	0xbf9e216e1ac2932c	-0.02942440069513734
154	0xbf743ee50adb147b	-0.004942793557067944
155	0xbfd24f93b25e2447	-0.28610699099278175
156	0xbfc02d7996b61e84	-0.12638778552012664
157	0x3fc2674cd04742b7	0.1437774674400509
158	0xbfc3f0e3521aff81	-0.15578881749206278
159	0xbfacea0646fc92f0	-0.0564729653981767
160	0xbfcd4591571314b2	-0.2286855387848497
161	0xbfc4422cdcb99ad4	-0.1582695081480866
162	0xbf93136dcd92266d	-0.018628802940418177
163	0xbfc87fabb3d9fb85	-0.19139620096026647
164	0x3fca853905495083	0.20719063528179413
165	0xbfb498a9e4ce6c2b	-0.08045446239559399
166	0x3f910756aa098557	0.016629556778189194
167	0x3fc392b23e181d2b	0.15291431457465285
168	0xbfc139dfd219d560	-0.13457868346055601
169	0xbfd17867eb12063d	-0.27297399479002477
170	0xbf9edd4f7922e51d	-0.030141107338498608
171	0xbfc6ef354fd8c117	-0.17917505644573659
172	0xbfca73f6832d57eb	-0.20666390805371235
173	0x3fcd21bb53a4e834	0.227591911165122
174	0x3fd18d0ec3971a38	0.27423447704896686
175	0x3f725a85a2b80dcc	0.0044808597699587775
176	0xbfc65a5b70d666e6	-0.17463248262065817
177	0xbfc57108fc9e8cbe	-0.16751205763748617
178	0x3fd5069e0fd6f266	0.3285288958248088
179	0xbfc047368f48acf4	-0.12717325207027097
180	0x3fc5d84c7e42b96f	0.17066341557569895
181	0x3fd16cd4b3dacfd5	0.27226750911654324
182	0xbfd98bcaab530609	-0.3991572068299268
183	0x3fcd117cc96aef36	0.22709617457246062
184	0xbfa16fe2da82e842	-0.034056748555898256
185	0x3fcc6008a5dd89ab	0.22168071841140366
186	0xbfcedb6c6beb5b71	-0.24107127446651647
187	0xbfddafd7a38ce0db	-0.4638575646563489
188	0x3fdc35a96f38de8d	0.4407752596048134
189	0xbfd45287db272337	-0.31753727342270416
190	0x3fca7165af43b10c	0.2065856080802252
191	0x3fd36c1008b836b6	0.3034706196930118
192	0xbf8cbea85aab94f0	-0.01403552557662599
193	0xbfde7edeb879bffe	-0.4764935304183381
194	0xbfd129db2e5943c5	-0.26817969824065485
195	0x3fb91ad3edd00830	0.09806561046573914
196	0x3f9a19f78b690702	0.025489681133200832
197	0xbfd26d9c69d7393c	-0.28794012390143897
198	0x3fe12d65ae2e28b0	0.5367916490515849
199	0xbfb6b034819f82bb	-0.08862617649675546
200	0x3f7d0276118a8d80	0.007082425313146401
201	0x3fce00bc34fff603	0.2343974360264128
202	0x3fa81e5c04d0a03c	0.04710662421013054
203	0xbfd9175a38d3b525	-0.39205031919012107
204	0x3fcf08d655e8deb4	0.24245719141776123
205	0xbfc4b65157ea7d03	-0.1618138961102674
206	0xbfc1953f935ad292	-0.13736719794328117
207	0x3fc467b1c08bb393	0.15941450025220813
208	0x3fb3702b6ff9b77d	0.07593032344604285
209	0x3fdd2a81f575fdd6	0.45571946116248563
210	0x3fb6f6560c2a004f	0.08969629094099328
211	0xbfc38986426def75	-0.15263441318154106
212	0x3f99911078233755	0.02496743901502126
213	0xbfb6686938f77926	-0.08753068581379306
214	0xbfbbf51d8626f483	-0.10920891308974671
215	0x3fb12ea7bcd597e4	0.06711815223897549
216	0x3fb0a3202bf312e6	0.06498910019861234
217	0x3fbdc91a47867769	0.11634983297559888
218	0xbfcd82fdea780e49	-0.2305600542896278
219	0xbfaba2c5bea265f9	-0.053976230164334234
220	0xbfbddfed48324bfa	-0.11669810307130027
221	0x3fd6e7eb332af54e	0.35790519711357127
222	0x3fb0b5f38ec4a6aa	0.06527635798979739
223	0xbf952f99a37355ca	-0.02068939266321993
224	0xbfd701eda1434136	-0.35949269054710287
225	0xbfc703e5db501ce7	-0.17980645378722857
226	0xbfc90bb8d834ef26	-0.1956702285477771
227	0x3fd6bef5a987726f	0.35540525012564833
228	0xbfab0793a27baed1	-0.05279218061863634
229	0xbfca39c412880a5b	-0.20488787560323626
230	0xbfa9cc243b947698	-0.05038560130399822
231	0x3fb867ed796341d4	0.095335809837031
232	0xbfab0d713326da9f	-0.05283693074618622
233	0xbfc0761a2e2afee9	-0.12860419515890634
234	0xbfbae458ca6766a4	-0.10504679624082286
235	0x3fb9817fe4982a3d	0.09963225680272898
236	0x3fdd01b2e37b0df2	0.4532286855212241
237	0xbfc8919b48dffa89	-0.19194356020303285
238	0xbfd38d82d7076183	-0.3055121517077383
239	0xbfb074b3d343b96d	-0.06428073795152552
240	0xbfd2ff0edf638e6f	-0.29681751075097557
241	0xbfc5c17fb3a6bc59	-0.1699676158145589
242	0xbfd626c3b0220789	-0.3461159915969963
243	0x3fc05730d508ba1d	0.12766085054450196
244	0x3fd90eaa7156b13a	0.3915201289007829
245	0x3fd5841fa266eac3	0.33618918284961924
246	0xbf9817be89a49736	-0.023528077269609336
247	0x3f71075a57d744b9	0.004157402899594925
248	0xbfa0c2123ce89b10	-0.03273064607156162
249	0xbfdf648856b7a074	-0.4905110213135295
250	0xbfd2ac7c730f8e7d	-0.29177771793749924
251	0x3fd4f2a2ab9ef6b0	0.327309291456781
252	0xbfc33ec29831ca70	-0.1503527873170074
253	0xbf91522336f6ad0f	-0.016914892415724355
254	0xbfd70d991e167374	-0.360204963095206
255	0xbfae9bd390eb18cc	-0.05978261131308357

bias f8 [30]
0	0xbfd08df3a00a9416	-0.25866404179606783
1	0xbf9a1219d03ca443	-0.02545967420079288
2	0xbfb9f34569808c07	-0.10136827302680738
3	0xbfb6e893bdf71737	-0.0894863451750013
4	0xbfd01cb0339495dd	-0.25175099408292373
5	0xbf98d77c48018463	-0.024259511847393955
6	0xbfcba1e18dbab40d	-0.2158777181661268
7	0xbfd3560615caa75b	-0.30212547424399866
8	0xbfe0829ddf97023c	-0.5159444205274393
9	0x3fc115726fdae3b0	0.1334670110861942
10	0xbfb640b7e95602bc	-0.08692502447776013
11	0xbfbc298755950f2b	-0.11000867690478049
12	0xbfc831ef2979e162	-0.18902387166213958
13	0xbfa11eeaa2b1ca0e	-0.03343899951950756
14	0xbfbbece2ece8e902	-0.10908335002833172
15	0xbfc0902eb4039c4c	-0.12940009870291858
16	0x3fc76fec9c72acca	0.18310315741596234
17	0x3fc03e1f843c8553	0.1268958469091027
18	0xbfb80d62f8bc5e71	-0.09395426342632064
19	0xbfd1a87a854df8af	-0.2759081174662112
20	0x3fa96ceb43d8d5e8	0.04965911105356807
21	0x3f9a0a0a0440d36f	0.025428921231838538
22	0xbfd18671d6131cd4	-0.2738308516095007
23	0xbfc18c59ee690e59	-0.13709568158275223
24	0xbfb41df5b6fd8afc	-0.07858215062655555
25	0xbfb7e7d157763f2b	-0.09338100800800635
26	0x3fb1ae3b06967203	0.06906479750472987
27	0x3fbceb041d8e0693	0.11296106072952687
28	0xbfd695b3d07389ce	-0.3528871093423306
29	0x3faf45bf4d08b94f	0.061079004434179233

weight f8 [30, 30]
0	0x3fad111713e1354c	0.05677101247475011
1	0xbfc77a574423485c	-0.18342104746858723
2	0xbfc82c15f22b4c5b	-0.18884538960137118
3	0x3fc97ce468c25c1a	0.19912390818782982
4	0xbfb051f2391bc782	-0.06375039953470998
5	0x3fbcc1020ef8cfa2	0.11232006898427341
6	0xbfc08f31f5724b94	-0.12936996922198019
7	0x3f93f004e83d6bdd	0.019470287966537703
8	0xbfd45b45f761d8bb	-0.3180708804933478
9	0x3fc7daf4be4a8d9b	0.18636950770915636
10	0x3fce7c657dcd7462	0.23817127840712532
11	0x3fcb974e2d524ae9	0.2155549737259073
12	0xbfc4a0df6edb366a	-0.16115944779305674
13	0xbfbaee0658a632b0	-0.10519447006499649
14	0x3f96e50afee84a41	0.02235810452300258
15	0xbfc384b2da141448	-0.15248714111672457
16	0x3fcb6527d7474da0	0.21402452479979406
17	0x3fd6aede11ae641a	0.35442306257897516
18	0x3fb650706e1e9a9a	0.08716490448441974
19	0x3fc8f15dc622ec45	0.19486591505651255
20	0xbfb35e3b052eea28	-0.07565659405273861
21	0x3fae34d384f65b3e	0.05899678228450121
22	0xbfd07ade75bd9a91	-0.2574993276415763
23	0x3fa90630fdedd13a	0.048875361439885315
24	0x3fbdf9d68ee56fa8	0.1170934771411668
25	0x3fd05229bedbb7c6	0.2550148357248613
26	0xbfd301fc4709e40a	-0.29699618279806883
27	0x3fa07ffeff3cf62d	0.03222653260898443
28	0x3fc581f93205c666	0.16802897398479216
29	0x3f971d72fedff0e5	0.022573277288743383
30	0x3fcdd8ae7f3491ef	0.2331750985259897
31	0xbfd30da16b219998	-0.29770694219623683
32	0xbfcb2fa523b1510a	-0.21239151232533288
33	0xbfa636fedcc79332	-0.04338833279670097
34	0x3fd087ef3651d5e8	0.2582967787232904
35	0x3fb88a820a764202	0.09586346393030712
36	0xbfb37bc4b5c6fd64	-0.07610730588839015
37	0xbfcdb80fd54fa75e	-0.23217962184508684
38	0xbf80c8ac2ac04959	-0.008195252470646496
39	0x3fd045fa68f3e1aa	0.2542711281708089
40	0x3fc64528708842f8	0.1739855336641296
41	0x3fc912a70217da59	0.19588172533231576
42	0xbfc0a1490e3a61e5	-0.1299220389817172
43	0x3fb499cf858b4a73	0.08047196398119087
44	0xbfc8dd626a6421f8	-0.19425611681823773
45	0x3fd784167af9b188	0.36743700036347393
46	0x3fcbfab6484b97a9	0.21858862428706274
47	0xbfa6bdb6e71f2a13	-0.04441615649519206
48	0xbfcdb897f15cb260	-0.23219584737070686
49	0xbfc847e7728adf6d	-0.18969433873075606
50	0xbfdb7988ebea8801	-0.4292928985470326
51	0xbfc7a90ca86195a0	-0.184846479623201
52	0x3f9332601ea120f5	0.01874685465762212
53	0x3fc1c54176b9fa6c	0.1388322667807701
54	0xbfcc0fa5277b8ec6	-0.21922745159019125
55	0x3fcb7ea8b7ce7512	0.21480282759595376
56	0xbfb04929e960dd9e	-0.0636163897296371
57	0x3fd5d5da65ca5777	0.34117755833118885
58	0x3fd1142d214e4b1d	0.2668564629795343
59	0xbfdf3fcec90a6c13	-0.48826951630479803
60	0x3fd488d08540745c	0.32085049641483976
61	0x3fba82b72f8eff77	0.10355706130121499
62	0xbfc122d1be7170e8	-0.13387510107975875
63	0x3fbec87319f44199	0.12024611838956502
64	0x3fa67f78db709183	0.04394128493030094
65	0xbfc1d102151f5589	-0.13919092208258757
66	0x3fc6210e8e6bc15f	0.17288381532808736
67	0x3fc91eef7ac3661e	0.1962565755300582
68	0x3f90d2b96f354492	0.01642884961376418
69	0xbfd1092a037db5d2	-0.26618433323787116
70	0xbfaa8a662715a1ae	-0.05183715083223049
71	0x3fc8bc21edc23fb7	0.19324134930911693
72	0x3fb21cfa31e560e4	0.0707546588722639
73	0xbfb5dc6256836ee7	-0.08539404499191115
74	0x3fcd99d945898d28	0.23125759024979087
75	0x3fc906d2439b93e8	0.1955206709018562
76	0xbfc8501e1e376180	-0.18994499659926234
77	0x3fb2947b0ea0ee20	0.07257813555855153
78	0x3fb8b3be07d84d54	0.09649264995123491
79	0x3fc20f716f1a9334	0.1410962860583368
80	0xbfc2afd24a33394e	-0.14599064467479156
81	0x3fb3232f8c388470	0.07475564168318427
82	0x3fb57245292ae881	0.08377487425869569
83	0xbfc6586d11f008f9	-0.17457354904042413
84	0x3fcc92f2851b7b47	0.22323447703726115
85	0x3f930de98226f3f7	0.018607758110864094
86	0x3fc519b42d7474fd	0.1648469182918361
87	0xbfcdc659ea3c412d	-0.23261569916986372
88	0x3fda060b98622800	0.4066189754599918
89	0xbfd3707169c9865b	-0.30373797732145186
90	0x3fb41a410a9a7309	0.07852560528631271
91	0x3fc5883cbeef5bb1	0.1682201320934076
92	0xbfa0acbaf4a64f76	-0.03256782757230685
93	0xbf95776bfd0a1907	-0.020963370627691293
94	0xbfa210f655639129	-0.03528566162438757
95	0x3fb503fccdf284a4	0.0820920946885218
96	0x3fb39f23b49394f2	0.07664702566724538
97	0x3fd0f87945ae9d05	0.26516563229456863
98	0xbfd1e31fb2a08228	-0.27948753780404667
99	0xbfc0171837b35291	-0.1257047912573808
100	0xbfbbda25204f4249	-0.10879737891014786
101	0x3fc54a095e5ff404	0.1663219176115548
102	0xbfd37ca55f443efb	-0.3044827871644739
103	0x3fd2aa63cf2ccadc	0.2916497729485579
104	0x3fcd9a899b6bc76f	0.23127861107746692
105	0xbfc86f5b72d0d888	-0.19089835268249922
106	0x3fb855c65cffa64f	0.09505882044290924
107	0xbfc642e2e2e5433d	-0.17391620711216574
108	0x3f75e9610d985f83	0.0053495207917179126
109	0x3fd9691d7827d5f0	0.3970407174486743
110	0x3fbb34301ca1046f	0.10626507471990164
111	0x3fcbeaa9a5c6da16	0.21809883684700598
112	0xbfc8f6d06db06166	-0.19503217082889107
113	0x3fcf1752dc3952b3	0.24289928200837138
114	0xbfcccb25fcd7703f	-0.22494959684161306
115	0x3fceb351c6f0c76e	0.239847395075738
116	0x3fc6a7f4bc4d8378	0.17700061029884373
117	0xbfc967d714273017	-0.19848144992863645
118	0xbfd7838aec105190	-0.36740372708416036
119	0x3fd20c7de730a5b3	0.28201243950988014
120	0xbfbd8e2828add874	-0.11545039170400334
121	0xbfc386d75bf41d51	-0.15255252828522228
122	0x3fb617c0eecdfc8b	0.08629995184127119
123	0xbfbdc1910f8953c3	-0.11623484257991294
124	0xbfb398a673875cd7	-0.07654800720716835
125	0xbfc36175cae18b79	-0.1514117470388461
126	0xbfd919178d3590ec	-0.3921564940449247
127	0x3fd5234f7fade647	0.33028018444710877
128	0xbfd08227c0b62a20	-0.25794404811373006
129	0x3f75ee4095c988d1	0.005354168210575065
130	0x3fb749ba22a5c4a8	0.0909687361324979
131	0x3f9c6d9e7459f36f	0.02776191315796289
132	0xbfcd08e651c54fb8	-0.2268340968390683
133	0xbfd44ca4b7f4a447	-0.31717794384400516
134	0xbfd44ff4f1ead09d	-0.3173801767800429
135	0x3fb31f97acbb364b	0.07470081297943769
136	0xbfc58a43e0b1a9eb	-0.16828201743494672
137	0x3fd4f4201ee9e19d	0.3274002363100637
138	0x3fa050584a42ef51	0.03186298281204237
139	0xbfb536c6de8cf1b5	-0.08286707814563139
140	0xbfb6bcc40b9aceae	-0.08881783755605951
141	0x3fa76d2852914ea6	0.04575468070893622
142	0x3fa0dc17feaec5ae	0.03292918189925885
143	0x3f84b6429c089fe5	0.010113258730669325
144	0x3fceac3d32f966d3	0.23963131894088593
145	0x3fccf7ec086cf8ca	0.2263159791127179
146	0x3f93c90a0a03448b	0.019321591244822172
147	0x3fbc50f85afd931c	0.11061050626228702
148	0x3fded94b5a5a6e25	0.4820125944476977
149	0xbfe11aecdfe036b9	-0.534536778695574
150	0x3fd41e2d325e18bf	0.31434183043200997
151	0xbfb805fec0c217ea	-0.09384147840509596
152	0xbfc4496404d00b54	-0.15848970637315551
153	0x3fcbc3fe2a411f21	0.21691872657015046
154	0xbfc5018b4531ae99	-0.16410961989037245
155	0x3f8b26edc1e72fb5	0.01325784442897047
156	0x3fd06e3ae9081746	0.25672791249268234
157	0xbfda2b30647c7d4f	-0.40888604939569445
158	0xbfd2706f3079c11c	-0.28811244710870354
159	0x3fbac7c75d519b96	0.10461088207521949
160	0xbfd0b6307f450069	-0.2611199610582902
161	0x3f95c456edb14004	0.021256788499442805
162	0xbfc996f033348262	-0.19991877079248171
163	0x3fc96f1324986ae4	0.1987022331894287
164	0x3fa6cab54cb58c18	0.04451529084578726
165	0xbfd0bd876d0f19c9	-0.26156793260852546
166	0x3fc963d5d997c8f4	0.19835923313764392
167	0x3fb8a01b384f4b97	0.09619302868604361
168	0x3fcd1c953ec23ca7	0.22743478359595778
169	0xbf99d00a35d67fde	-0.025207671676639502
170	0xbfc535fdbb432797	-0.16571017879169567
171	0x3fceaa8b883e56d1	0.23957962181582684
172	0x3f938d35a97f4e5d	0.01909335944203715
173	0xbfcf68beaf2e1d61	-0.2453840594646222
174	0xbf90a1981a86604f	-0.016241432780219885
175	0xbfc91cb1ead81e66	-0.19618820158960942
176	0x3fbfd20919e3299b	0.12429863817229718
177	0xbfcd36c5126bf4bf	-0.22823394202706557
178	0x3fa31669c910e74f	0.03728037433070474
179	0xbfc7368ed3252767	-0.1813524752599804
180	0x3fc9888dfdf865b3	0.19947981739896434
181	0x3fd32645f796d588	0.2992110174048652
182	0xbfc0e7f0f22107c9	-0.13207828352648068
183	0x3f9e46371ab82163	0.029564724927725005
184	0xbfbb29cf016b7ac1	-0.10610669884361369
185	0xbfbd465b7889efb5	-0.11435481732217918
186	0x3fd0f27f18659d16	0.2648008096934559
187	0x3fd0ca97ae841a7f	0.26236526529866205
188	0x3fd5504b3dd7a4a3	0.33302575148861474
189	0xbfb48e37add07b29	-0.08029506677165145
190	0xbfd0499c237831e2	-0.2544927927381463
191	0xbfc776bb9e7dd113	-0.18331094015923863
192	0x3fd4a0e5e681ae34	0.32232043753058126
193	0x3fc0560a61a420db	0.1276257492793381
194	0x3fd398b3663eb3d1	0.3061951158986718
195	0xbfb2d65bab8cc85c	-0.0735833448241307
196	0xbfa240e8acad8478	-0.0356514654911359
197	0xbfd30c1449234864	-0.29761225836148797
198	0x3faec5f3a5c6a0e8	0.060104001985850364
199	0x3fa93e862e6858a2	0.04930514637469342
200	0x3fd350f458d35257	0.301816069358471
201	0xbfd1c73b150473c6	-0.2777850823638882
202	0x3fc23d675ca05e86	0.1424988939549971
203	0x3fd3554af14c97d8	0.3020808559834882
204	0xbfcc9ebfcf09b11e	-0.22359464272757007
205	0xbfb366c4177619c6	-0.07578683445726772
206	0x3f7b35022d83ee8c	0.006642349726685769
207	0xbf957e2173e4af8f	-0.020988962839666277
208	0xbfd682de85030ea5	-0.351737623114085
209	0x3fcff201d20547fc	0.2495729709140163
210	0x3fb5ca3c89374bbc	0.08511713361740098
211	0x3fbb93f5cc17ba2d	0.10772644264918858
212	0xbfbfc2a14685330e	-0.12406356784522307
213	0xbfc08de8a1bf4566	-0.12933071039018812
214	0xbfb59bc939ceb5b9	-0.08440835629763556
215	0xbfcd27dcf155b787	-0.22777902397086455
216	0xbfd82cc08ae1fa12	-0.37773145258680174
217	0x3fb88c728d6116f7	0.09589305831567772
218	0xbfcb57267cd0de26	-0.2135971173718058
219	0xbfcdb5210c1aaa70	-0.23209012118362038
220	0x3fb880089ad84365	0.09570363788976761
221	0xbfc953ba39530bab	-0.19786765860598385
222	0x3fae786c7fde0098	0.05951251088026871
223	0x3fae1290c0e2865e	0.058735393090739704
224	0xbfce322324b01d5a	-0.2359050683155413
225	0x3f62e1f264e693a3	0.0023050054798709626
226	0x3fc4f9ecb0454dd4	0.16387709242790882
227	0xbfc717d95c8a81f9	-0.18041531580549
228	0xbfbbda5922deec93	-0.1088004789480002
229	0xbfaa17385784e5ad	-0.050958405192840096
230	0x3fbfeb14d0836d90	0.12468080607088994
231	0xbf9ab469112a82b7	-0.026078836128933882
232	0x3fbd515d95439ccc	0.11452278989928572
233	0x3fc8d510a9003d19	0.1940022301864495
234	0x3f60667e0e96fddf	0.0020019971895803702
235	0xbfc61d6e1c5d9ebd	-0.17277313599628555
236	0xbfc2281a87938d4e	-0.14184886569919758
237	0x3f61daae00575925	0.002179469915726833
238	0x3fc051e51f07aebf	0.1274992372049066
239	0xbfc91fc3e641b314	-0.19628189795494022
240	0x3fc5f51de350a762	0.17154286956184267
241	0xbfb4e3630613ab52	-0.08159464739189318
242	0x3f9d8c29c6aeeaa7	0.02885499262968474
243	0xbfd1d67cd219cebc	-0.2787162830129366
244	0x3fbef40f988ee2fd	0.12091157412113414
245	0xbfbd624f5c82ecf3	-0.1147813416345576
246	0xbfa44adad342b1a5	-0.03963359669555481
247	0xbfd1a35153b41667	-0.27559312032858546
248	0x3fc0998c72a89d85	0.12968593214575833
249	0x3fc519b8db210435	0.1648474760022808
250	0x3f8521107a48a151	0.01031697152309677
251	0x3fd236f6e3dcd172	0.28460476162151516
252	0x3fd5e750c04ba1bf	0.3422433736691594
253	0xbfcdbb0ac4e59d67	-0.2322705708895498
254	0x3fc11a2d9926461b	0.13361139276507647
255	0x3fb3346bfded3bd4	0.07501864385015661

bias f8 [30]
0	0xbf94d72b6ee07884	-0.020352057115922154
1	0xbfb03f2a3de48770	-0.06346382151653329
2	0xbfda262df5aae2de	-0.4085802935692707
3	0xbfbf5d6b359ee4c4	-0.12251920756434048
4	0x3fa6b78bcef704b3	0.04436909581591788
5	0xbf8de2db01a675ac	-0.014592848766194454
6	0x3f98753ae1038cbb	0.02388469694495819
7	0x3fa2ee769e7921d0	0.03697558102118459
8	0xbfb4b58a2453f108	-0.08089507471953905
9	0x3f9fb233d5521c23	0.030953225989403543
10	0xbfca6a0ab9f09dbe	-0.20636114195916194
11	0x3f6ac98b6fb6d73a	0.0032699321143025125
12	0x3fa4b55eb8cf7519	0.04044624334322062
13	0xbf8fb14cbbe87e9b	-0.015474891170981045
14	0x3f9e4a0d02c07048	0.029579356472922563
15	0xbfc2b2e1863ec69c	-0.14608401350919997
16	0x3fb9e0e73ef8ae69	0.10108800208461734
17	0x3fca0bd4c7d60185	0.20348605878463047
18	0x3f8cd6bc4a561480	0.014081450480043722
19	0x3fabf8a92e0c50f4	0.054631506796939094
20	0x3fd0167ef83490e7	0.2513730453376994
21	0xbfb72f6f20a5e712	-0.09056753680297572
22	0x3f551dbd8c315e19	0.001288828950029136
23	0xbfb49e25e802ff0e	-0.08053814806316614
24	0x3f87371a847cff89	0.011335570495816476
25	0x3fafe1dfb9c76ed8	0.062270156314949865
26	0x3fa3e21942844a78	0.038834370965692366
27	0x3fbc2a0bbbd40fa7	0.11001656852391638
28	0xbfbf6fa91b3572f0	-0.12279755510594348
29	0xbfc8dcc5fa7f728c	-0.1942374680646889

weight f8 [2, 30]
0	0xbfdd85e5ab8a1bb0	-0.46129743339445906
1	0x3fd0a506599b2760	0.26007231474488
2	0x3fb6f1efd1762932	0.08962916244323507
3	0xbfe98be15071faa8	-0.7983252116390149
4	0xbfeaf1f843d9dd7d	-0.8420373273101373
5	0xbfa3956f24e2749a	-0.0382494671368729
6	0xbf97d2a094a9b1e3	-0.023264416764890227
7	0x3fc3907ff8ad574d	0.15284728662907768
8	0x3fc0d080b5d2ed4c	0.13136299970742937
9	0xbfbfc41e9ad756dc	-0.12408629684736233
10	0xbfd7d2f37031cddd	-0.3722504230165365
11	0x3fd323d3ddba7157	0.29906174328950413
12	0x3fdb004114ce2e6d	0.4218905165841765
13	0xbfe0f0eae5cbb958	-0.5294088829230459
14	0xbfd3585838f0f7c9	-0.30226712761566127
15	0xbfe2d805180cf086	-0.5888696164834222
16	0xbfe57b6f198a2608	-0.6713176249333523
17	0x3fe3285668c4b226	0.598674015641852
18	0xbfdadb2c9bbf982b	-0.4196273346882459
19	0x3fbea5792b9391ce	0.11971242250326172
20	0x3fc84371aabdb01a	0.18955822789155335
21	0xbfea1d93ad3d3cd9	-0.8161104568079295
22	0x3fd7f2c6a23937a1	0.3741928657735745
23	0x3fdcef3f1c58b768	0.452102449114014
24	0xbfe7956c167db8f2	-0.7369900168685304
25	0x3fd3159bbb799ecf	0.29819386776078444
26	0x3fd6afce4c7ea036	0.35448033781222266
27	0xbfdbbf97b3f26584	-0.4335688836377687
28	0x3fb2e05e17e7521e	0.0737360771520987
29	0x3fe259da56d354e4	0.5734683700381109
30	0x3faccef10e0dc250	0.056266339269204324
31	0x3fdc5878862a7724	0.4428998289312054
32	0x3fd7f59d00c7100d	0.3743660457223548
33	0xbfa3df1f8e35452e	-0.038811670407662965
34	0xbfe975489af95fe4	-0.7955668474996824
35	0x3fe35dc6aa6fad2d	0.6051972702820528
36	0x3fded80082386c89	0.4819337150272039
37	0x3fcf2c086f6f15cc	0.243531279002282
38	0xbfa9466631b62e9d	-0.049365228241268634
39	0xbfdcd806e910a2f7	-0.450685241320158
40	0x3fe9ff0ee1a060a6	0.8123850256697736
41	0x3fc2569994726baf	0.14326781986605172
42	0x3fe06571d87362bf	0.5123833873322708
43	0xbfc77dc952d03d67	-0.18352619689583635
44	0xbf5a8dacc52ec9e7	-0.0016206919869828863
45	0x3fdd31c18536c80c	0.4561618615072127
46	0xbfd734b200ed1ec0	-0.36259126749471804
47	0xbfa7ebab3309a2e5	-0.046719884853535544
48	0x3fdb20b769105c21	0.4238718534483628
49	0xbfc0aeea4d512567	-0.1303379895710279
50	0x3fc500811ea9bc3a	0.1640778922769373
51	0x3fd02fcdd258e261	0.25291772405356566
52	0x3fbe83d337d5da4c	0.11919899094741843
53	0xbfd88c8b385ab50c	-0.3835781145415502
54	0xbfd95fd5a588be23	-0.39647427716679057
55	0xbfe3ce26197f4d0b	-0.6189146516793768
56	0x3fbd73951f9441f3	0.1150448991868485
57	0xbfdfa0184535930d	-0.4941464115020587
58	0x3fe5411c035fbf72	0.6641979280375223
59	0x3f7c75c6df0e2c1b	0.006948258248381324

bias f8 [2]
0	0x3fd13feee436573d	0.26952717100481377
1	0xbfd01c50cd3a2ac9	-0.2517282489940667
