DAL_BFGS/BFGSNN/steady_NS/results/AONN/AONN_t2/y.pt (torch, 19603 bytes, 8 tensors)

weight f8 [30, 2]
00000000: 9a81 e0d0 ccf1 b83f 3e2c b690 9cd4 b7bf
00000010: 4aae 814a cdb8 a6bf 4529 bc53 4bde d0bf
00000020: f30e 36cf 251a eabf 9a2a 01b6 6430 d73f
00000030: ffd3 166a 41eb f23f 42e9 aa10 a7a1 c63f
00000040: 3f08 3ed1 e93c eb3f f443 13bb f6aa bd3f
00000050: 040e 1ac2 a895 da3f 44ee 746a b25a c43f
00000060: 6901 ef84 9bf1 b03f ec5e cb6d e198 e43f
00000070: 698f 9cc5 3f4d e63f 230b 730e 08e6 f4bf
00000080: 5428 f60f b959 d9bf c9ba ee72 2937 d8bf
00000090: ef0b b07c dc39 e3bf 4289 e5d2 87f7 b83f
000000a0: 8abd 047b 2565 c4bf 95de 08fe 120e eabf
000000b0: fa1c f1a9 4003 d03f b2ea 60eb 9817 eabf
000000c0: d92e 1b97 63d0 ec3f 81ec 5a24 ee31 e6bf
000000d0: e31f 36f5 324d dcbf beec a776 eb0a d7bf
000000e0: dfb9 4a6e 31e8 f63f cff7 61b5 52bc f7bf
000000f0: a48d ff8f 3f9d d4bf 3a70 bbaa dacd e8bf
00000100: 2ec5 56d8 218d ccbf 38fc b431 c3b6 d2bf
00000110: 9ab0 7f43 d724 b6bf 7be2 6795 5cf9 cf3f
00000120: 4e9b 07ac 26e7 c43f 4fbc 7682 9b18 d73f
00000130: a9dc 9989 378a e83f dc4a 5bf2 9ba5 c03f
00000140: 8ca1 ccc4 3f6e e4bf f856 a1bc d496 c73f
00000150: 97b3 c5cc c875 d33f 4130 9a9f a308 dc3f
00000160: 742a 750f 9a0b e2bf 944f 205d 8009 d33f
00000170: 0916 b1a2 0e01 ecbf f249 4f4e 51c6 cb3f
00000180: 7970 a656 2cd4 c8bf b1c8 991d d5e6 48bf
00000190: 368a 8a5b 3315 fdbf 00c9 b939 4227 fd3f
000001a0: 4d0e 994c d5d6 ac3f 78ff ef83 f9ee c9bf
000001b0: 23da 94de 2f8d b03f 7c86 1fb2 0f9f e1bf
000001c0: f942 4330 b909 d3bf 51d3 5942 5376 e2bf
000001d0: 44a4 d9c3 8fba cfbf e315 9c47 1f81 d23f
0.09743957614455781 -0.09308794529913286 -0.0443786767435453 -0.2635677640652328 -0.815691857060726 0.3623286988628621 1.1824354309185308 0.17680824579094617
0.8511857115520413 0.11588995044009193 0.41538447337390516 0.15901785085758224 0.06618663783502189 0.6436621803686342 0.6969298228836865 -1.3061600269726987
-0.3961012512087383 -0.37836681579476 -0.6008131442362109 0.09752701662867927 -0.15933674341929943 -0.8142180406202494 0.2501985225284923 -0.8153805348623193
0.900438113335862 -0.6935950002729357 -0.44221185633113985 -0.36004149043555944 1.431687765910844 -1.4834773144971114 -0.322097674010559 -0.7751286825764574
-0.22305701316285237 -0.2924049363536514 -0.08649964712066308 0.24979741378026063 0.16330417060745578 0.36087692013365297 0.7668721854705797 0.13005399068659684
-0.6384581416833028 0.18429049692593202 0.3040639877061095 0.4380272921196174 -0.5639162351520342 0.29745492071492063 -0.8751290490696998 0.2169896728870096
-0.19397501212086235 -0.0007599392512942696 -1.8176759315325746 1.8220846419249597 0.056326547241522286 -0.20260542814503046 0.06465434249990003 -0.5506666640250866
-0.2974684687915637 -0.5769439979472769 -0.24788090765949466 0.28913099282394067

bias f8 [30]
00000000: 6d58 5df9 74f6 ebbf 14eb b193 9d5b e23f
00000010: 014c 0b98 e6e4 e83f 9742 cf0c b136 db3f
00000020: 59c4 c27b 7fa9 f2bf 4f87 36eb aa4f bbbf
00000030: a13d ad44 bc98 ee3f 45da 3c37 721a d4bf
00000040: 7aca cef4 93eb c93f c6ad 55ff b48d d6bf
00000050: a351 6f4d d885 a23f 0a4c 2ece 972d e03f
00000060: 051a 6203 e2b2 e8bf a653 9951 fdf2 d5bf
00000070: 91ed 3a1e 5990 f53f bb62 d367 8a23 dbbf
00000080: 4a9d 430f a93c dfbf e9d3 0ab7 3e3d d6bf
00000090: d9d3 1ce0 c2b6 c8bf d30e 4297 db73 f0bf
000000a0: 967c 1a28 c452 c23f f3d9 3559 7b45 ebbf
000000b0: b600 e870 907d e1bf 70d7 5b04 9a45 9b3f
000000c0: e481 1143 64a6 e4bf 37ec 4df2 4df2 c7bf
000000d0: ef05 76dc 50b2 e1bf 1c17 6adc 7600 d63f
000000e0: 36bd e36c fda3 be3f 737a 45eb 4f30 eebf
-0.873835074463171 0.5736835369747006 0.7779419870006451 0.4252131104558798 -1.166381343308123 -0.106684381890344 0.9561444608061046 -0.3141141452246397
0.20250176862244357 -0.3523991101744425 0.036177405788893745 0.5055655505151446 -0.7718362871244727 -0.3429559037079407 1.3477412396303843 -0.4240442289279078
-0.4880774163306866 -0.34748809695457666 -0.19307743018148818 -1.028285590030397 0.1431508251016324 -0.8522316687001975 -0.5465776639175803 0.026632696643864973
-0.6453114805154283 -0.18708204585331753 -0.5530170732383207 0.34377833866925456 0.1196897879451527 -0.9433974833626294

weight f8 [30, 30]
00000000: cf7f 22f6 91d5 903f 27c0 6898 f4b3 c2bf
00000010: dca2 5b0e 264d babf ee4f a3b3 4a3d c7bf
00000020: b4c4 5833 03f2 b23f 9647 96bc 1d00 a03f
00000030: 43e6 64c5 5986 cebf 45e8 a805 3d56 c83f
00000040: b68b d497 611d d1bf ba79 c18e 26db cdbf
00000050: 4194 14b8 8937 a5bf e328 dfd4 a935 a7bf
00000060: 4b97 9f4a 54c5 d23f 6bb6 7af8 3706 d6bf
00000070: 6732 a42e 6e78 96bf abd3 aa76 b654 d83f
00000080: f43d ace8 b063 b5bf 7825 9ddf f4d6 8c3f
00000090: b728 87e4 c578 c3bf f0f0 2598 4e72 803f
000000a0: e852 8ac8 643a d1bf f246 7868 184c cc3f
000000b0: 30c9 1e8a 6923 c5bf 8166 eb8c 3283 d3bf
000000c0: dc95 8b2f a364 d8bf 9dbf 60ee bcc3 d5bf
000000d0: 17d2 87f9 ab0e da3f f2f4 863f a276 d53f
000000e0: d1e4 e4ac 8aca c5bf e5fe e283 5056 b53f
000000f0: c038 33e5 ebfd acbf 8a60 8f3d 5861 d33f
00000100: 88ff 59bc 4a93 a63f e4a1 1c1f d989 dfbf
00000110: cd41 5eee a43d e7bf 9b8e 1e22 9f65 b43f
00000120: 17d8 2ad5 eb59 a7bf 9071 f009 d218 e53f
00000130: 4297 5818 b056 e53f f7fd 9ff0 10ab d93f
00000140: 654d 6342 0d55 e33f befd bf01 bb2c a03f
00000150: e960 2533 7356 863f f291 e628 17ad d93f
00000160: e300 3eef 5546 cebf 5e2c f3ca 4e42 d93f
00000170: ba34 6576 5b04 c4bf 2765 6b29 7a89 b0bf
00000180: 56ed 04fa eaa8 e1bf 9d06 fb3d ddfa e2bf
00000190: df8d 0916 c529 d53f ea34 0cfd 1cb3 dbbf
000001a0: c300 152f e35d d2bf b413 b3d8 bb5c dd3f
000001b0: 1cd9 485f 167f cbbf 2353 6e74 5c0f ce3f
000001c0: 2f6c f0de b81a abbf df60 a810 6e1c e03f
000001d0: 335c 6b0e f083 c03f b88b 959d 5b21 e5bf
000001e0: c6a1 3186 a2cc c23f d69d 8b69 1936 903f
000001f0: 41b2 b629 bc50 9fbf 6d5b c176 54b3 b0bf
00000200: 3152 cb5d 7e87 e2bf 7aec e05b c911 c2bf
00000210: c86f 4bfb 4372 a83f e8c3 c17d 1dc0 c7bf
00000220: bd63 b809 acda db3f 31f4 1d24 d589 d33f
00000230: bd43 293c 2e28 983f 60c0 2a51 3c70 dd3f
00000240: dde1 541e c389 cdbf 0e0e f161 1656 acbf
00000250: 862c db96 4cb0 e23f eeea 5a88 68c1 c03f
00000260: e4e7 5904 38ae cabf 5728 86e0 5455 97bf
00000270: b356 2e33 6e57 debf 0cfa 9123 628a e6bf
00000280: bfbc 5901 5b71 c53f dd2b dd1a a296 ddbf
00000290: 2264 5405 83d5 c1bf 5a0d ebaf 0025 b5bf
000002a0: 9b6d 5951 a83d ccbf a0c6 f58d ccc5 d9bf
000002b0: 6c39 6e84 4774 c5bf 54e2 79ea f2d5 b93f
000002c0: 2bfc 15a1 70e5 dc3f 9cd1 8bcd de81 c7bf
000002d0: 113e 1fc4 37be a7bf 77c7 0d46 4c2e c33f
000002e0: 5ac5 463e e7a6 c6bf cf51 99cb 8191 c7bf
000002f0: d290 6c94 941a c8bf 629f 8abd 3cc2 d0bf
00000300: 7fa0 edf0 4e2b b0bf e9f6 f670 2221 ab3f
00000310: f092 9ae3 8e5f 8dbf 1a2d e457 8927 c2bf
00000320: c36e 9f20 5fdb d13f 3295 934a 4093 d1bf
00000330: a3a1 a94a f7bf d23f 78c1 6089 0590 d53f
00000340: 1caf e11c 5356 c3bf 8709 f14b dd32 bb3f
00000350: 622d be4f 1d5f 87bf 4e11 aac1 4c85 b4bf
00000360: 6b1f 9107 52e6 a43f 2d6f d9b3 ec5e b0bf
00000370: c693 8e9f 4f71 c63f 10ce 6029 7624 b83f
00000380: 227f 3cf3 6e5c d43f bb37 b136 cd5c babf
00000390: 57c8 c153 ec3a cf3f 96ea 6afd 532b c63f
000003a0: a877 9bea d024 b0bf 5f7d 268c 9048 c13f
000003b0: 4879 a124 429f b93f 8493 baf5 23fa b63f
000003c0: dbc8 e0c9 5783 c8bf 5474 e21e 9c91 a23f
000003d0: bef5 ea99 1d0e e33f 625e 15f0 566a b8bf
000003e0: 1e4d a3ad 39c8 dabf 04eb 01e8 7d39 cebf
000003f0: a20f cff5 5cce c83f 44a6 7bb0 80c1 e9bf
00000400: 6601 45b3 f429 c5bf 5d6a 8094 a86d b8bf
00000410: edbb 5e5a a839 2cbf 375b 3548 f509 d3bf
00000420: 4060 bf7f de6f e4bf 1a52 baa0 e4d8 c1bf
00000430: c13c d8e9 8b4e d23f d998 2265 c5b2 dabf
00000440: f163 45e8 88ba c0bf bf8b 9cc5 b517 be3f
00000450: 90fd 6a15 bb15 d23f ceb9 f130 2d9b d2bf
00000460: 344f e4fb e0b3 d93f f1e0 f0fa f6bd b03f
00000470: e5e5 c15c 832b c8bf 8b19 ce37 e726 ca3f
00000480: 8cf1 8dc0 0157 c03f 7e25 a8dd b057 cb3f
00000490: 7d53 cd69 77a7 d1bf 10e9 2fc3 1620 c4bf
000004a0: 2137 fe52 86f0 c6bf bb5c 0c3a c974 dabf
000004b0: dd39 fb96 8df8 a7bf 4d3a dc76 1322 d23f
000004c0: cd82 101c 72ba dcbf 8e05 bd72 a185 b9bf
000004d0: 6e1f 6c8f c4ff 963f 51a4 5c90 3d53 bfbf
000004e0: c069 4a3b 7532 cf3f 1083 3415 9f77 d23f
000004f0: 01c5 bcbc 6c87 cb3f 5bbe e34d a785 8a3f
00000500: 0f14 1331 32bf e13f 22b0 1e67 108b d43f
00000510: 7d93 8c65 355c d83f a478 b7d3 02d0 d63f
00000520: 65bc 1851 903e d1bf 0c2f 1ba6 101d d43f
00000530: 0239 fb93 a5ec c73f aff3 d8bc 2a8a c83f
00000540: a67a 9094 305f debf 6254 9ee6 30d4 d4bf
00000550: e7e8 8272 bb55 ce3f 3d4e 98b7 d560 b83f
00000560: 784f 216a 5e26 a3bf b714 e081 802d c73f
00000570: 035e 6694 fc15 bcbf e978 dd88 6089 d83f
00000580: 2ebd 0657 0dc6 d83f d556 55f3 4595 84bf
00000590: 3b4c e03f 79bf df3f 803b 1b71 0c90 d1bf
000005a0: 6073 c98b 0d0d ae3f 132e 15fc bb56 773f
000005b0: 50af 6257 6d22 dabf a52f 42f8 63bf ad3f
000005c0: 9ef1 0167 65c3 d53f a2cd c197 baf2 ca3f
000005d0: 6f57 606a ac5c d2bf ea26 3abf 0879 d6bf
000005e0: b91d 5adf 3aef d1bf 4af8 d018 ff27 783f
000005f0: a645 c1da 4216 9cbf 04bb cabc 6c9c a8bf
00000600: 37d1 00f9 8959 c73f 2bad 66f6 7271 b13f
00000610: da88 2c35 257d d1bf c67e e39a 14a7 b3bf
00000620: bdc3 4bfc 64d6 d4bf d75d 6e24 ff84 81bf
00000630: eb30 81c3 c02b 903f b624 9559 a18c de3f
00000640: 85d9 a570 566a d8bf 88b3 c39e 787b e23f
00000650: 4098 dec3 5497 babf 309b 5948 910e cbbf
00000660: 3e0c b8f8 0329 c3bf b59c 0031 74e0 d13f
00000670: aba9 400e c1ba aabf 350e 9ed7 0823 c8bf
00000680: 6f2d e920 ba27 a93f 2cd9 cf65 e175 bdbf
00000690: 70a6 1e6a 344d ca3f 3e46 3728 89ea bc3f
000006a0: 3932 ee0d c097 cbbf 60f6 3621 4963 a53f
000006b0: ef88 e757 4370 993f 6412 2455 2015 c1bf
000006c0: c28f 0eaf dd2b c03f a791 0cb1 3dfe d43f
000006d0: 42b2 7afd 7454 ad3f 1b28 d3e2 1fd6 c9bf
000006e0: c662 83e6 0ccb d73f 4ac0 b150 0b0d c3bf
000006f0: c614 111e 8258 c73f 4e73 8dca 66fb be3f
00000700: c7ed ca15 4e9f b53f 53a4 5ea5 7a62 a93f
00000710: e88c 8e08 e12c b2bf 4060 8ae6 7c12 bebf
00000720: 5f77 a7d4 4819 d7bf 2224 abd3 4abb c3bf
00000730: 7a08 20e9 d2de d4bf c15e bb56 1647 c3bf
00000740: fdd8 2e25 be7f 9fbf 99d7 92eb 072b bbbf
00000750: ee6f 29a4 66cb cbbf 14e5 6ef1 d0c0 c73f
00000760: 4459 84ca f577 c63f e65c 6679 028f c03f
00000770: c49e ea79 a2f4 d13f ab34 97ce 6f46 d1bf
00000780: dd86 c39f 9723 bd3f 91b1 9401 b22b dbbf
00000790: 3e00 8a4b 32ae cd3f 8d1b 4e0b 66f9 ca3f
000007a0: 6682 f5db 294f d43f 6d98 57cf 04fb a3bf
000007b0: f7f9 b870 3cfb a33f bdc6 7032 5fc8 d43f
000007c0: 54fd 310c ab12 d2bf cae3 ae55 32f8 d43f
000007d0: 5e22 f4c7 ad79 c2bf f6cf a489 d7ea c0bf
000007e0: c082 15bb 9ce6 b43f 6426 3512 714f bd3f
000007f0: d93b 46d2 2ac8 edbf a279 6951 11dd d5bf
0.01643970551288004 -0.14611680452208128 -0.10273969507728559 -0.1815579774034854 0.07400531772215652 0.03125088622176901 -0.23847505701432867 0.19013178612095963
-0.26741828753636854 -0.2332504460382106 -0.04143934604716338 -0.045331294284169286 0.2932940224403537 -0.3441295553737748 -0.021943780514492774 0.38017045582392467
-0.08355241470803049 0.01408187205710719 -0.15212320002166788 0.008030523317522825 -0.2691890676881443 0.22107224560800592 -0.16514319652703469 -0.3048826576392472
-0.38114242213336325 -0.3400719001683628 0.40714549415796014 0.3353658314116067 -0.17024358217330485 0.08334830493822272 -0.05662476704456898 0.30281644832349086
0.04409249829495737 -0.49278858221307886 -0.726274934351801 0.07967562277786515 -0.04560791947498915 0.6592798418164865 0.6668320155629106 0.4010660505154812
0.604132299102656 0.0315912665973843 0.010907077787735324 0.40118960375028145 -0.23652147466419313 0.39467210597348934 -0.1563829734899736 -0.06459773551195679
-0.5518698580921562 -0.5931230745847703 0.33067443039018757 -0.4328072043579839 -0.28698043439727544 0.4587850204664463 -0.2148158993965773 0.23484378514390256
-0.05293824883866482 0.5034704518648389 0.1290264196784122 -0.6603220060172736 0.14686996033129968 0.01583137232492312 -0.03058141712760887 -0.06523635768222187
-0.5790397483747879 -0.14116780267963575 0.04774677698671287 -0.18555039062951484 0.4352216811108141 0.3052876332001829 0.023590776845882056 0.45997531820740356
-0.230766668138826 -0.055344294982685324 0.584020895615496 0.13090235383955168 -0.20844173634014773 -0.022786451534138354 -0.4740863323034816 -0.7043924994212047
0.1675218350023666 -0.46231892226631804 -0.13932836303936919 -0.08259586615445383 -0.22063163730750265 -0.4026976953819972 -0.16761106458984487 0.1009208509875717
0.45150390368502497 -0.18365082775529806 -0.04637312192027932 0.14985040112111012 -0.17696848431436757 -0.18412802163460504 -0.1883111691214539 -0.26185530195151874
-0.0631608331874549 0.052987171449314925 -0.01434241897670449 -0.1418315581471255 0.2790143793660997 -0.2746124962125861 0.292966673767774 0.33691538253608355
-0.1510719195388156 0.1062448797611407 -0.011411885257777758 -0.08015899398930523 0.04081970541352472 -0.06394843474248253 0.17533297816149068 0.09430635938843346
0.3181416869501722 -0.10297854027996227 0.24398569192595929 0.1731972682371931 -0.06306176879613068 0.13502699702528795 0.10008633989625537 0.08975434064138993
-0.19150826794936546 0.03626716496476293 0.5954730993468542 -0.09537261353886486 -0.41847078282190064 -0.23612951115122638 0.19379770281204595 -0.8048709341939646
-0.16534289124866602 -0.09542325616386323 -0.00021534137812070868 -0.2974827962074644 -0.6386559004849985 -0.13943155143773894 0.2860441001548218 -0.4171613204620264
-0.13069259015426796 0.1175492865991563 0.28257634250254515 -0.2907212236376865 0.4016039333230197 0.06539863230216604 -0.18882791546984304 0.20431223130090034
0.1276552381713255 0.21361361334883705 -0.2758463414405055 -0.15722927599546965 -0.1792152314414404 -0.41337805432108227 -0.04681818454774931 0.2833298359627506
-0.4488797449176161 -0.09969529200772895 0.022460051778608152 -0.12236389898738877 0.2437273540025 0.2885511118966386 0.2150703355378383 0.012950236382010141
0.5545893629538358 0.3209877974538832 0.3806279651346854 0.356445986513686 -0.2694435874900079 0.314273988926957 0.18690938687945652 0.19171652051036633
-0.4745599222968998 -0.32545111199698884 0.23699133960128124 0.0952275822858661 -0.037402105765663884 0.18107611028259438 -0.10971048949283362 0.38338483205542545
0.3870881414286086 -0.010050341118282994 0.49606162298113404 -0.2744170288614711 0.05869333583243619 0.00569795066378333 -0.4083512643216993 0.058100818686482904
0.340051031678536 0.2105324975014869 -0.28690634144128685 -0.35113733934905034 -0.2802264386341125 0.005897518608490479 -0.027428669549697603 -0.048068426175964546
0.18242001207694056 0.06813734546328891 -0.27326326554078906 -0.07676819592915782 -0.325585600264329 -0.008554452227868587 0.015791904385239624 0.47733339069652503
-0.38149033547178873 0.5775721646183323 -0.10387162954302287 -0.21138206513134028 -0.14968919414977394 0.2793245771922089 -0.05220607089025305 -0.18856916931336945
0.04913121845001 -0.11507996307031892 0.2054811018145304 0.11295373184045673 -0.21556854896734182 0.04177311449482768 0.024842312088261428 -0.13345722348471434
0.1263386826295783 0.3280176381106465 0.05728498071889422 -0.20184706283026874 0.37176821242387026 -0.14883557739404046 0.18238855808355064 0.121023582888893
0.08446205169723618 0.04957946079896005 -0.07099729975611846 -0.1174696028559774 -0.36091824309356996 -0.1541532071626373 -0.326100089703807 -0.1506069110389401
-0.030760737437696573 -0.10612535001095437 -0.21714480415073417 0.18557178295831334 0.17553589237713585 0.12936430862166687 0.2805563154783892 -0.2699241178023139
0.11382434511645152 -0.4245419516980969 0.23187855423384635 0.21073604156501027 0.3173317573582949 -0.0390244963744387 0.039026154289320596 0.32472972799142125
-0.28238941374725823 0.3276487194776193 -0.14433834327089107 -0.1321668073738917 0.08164386336785423 0.11449343390008832 -0.9306844813271439 -0.34161789846793955

bias f8 [30]
00000000: 478b 4224 4f7e c0bf ddc8 1a54 8cc3 eabf
00000010: f917 cc1f cbf3 d4bf 6ec0 a7c0 f7f8 dbbf
00000020: 7d17 8b4f 7f20 d6bf 4a7e 0fdc 5749 cd3f
00000030: 07d6 3a36 7f97 dabf 6fbc 7b44 6285 b7bf
00000040: 070c d18b 3af7 d8bf 7f2c 81eb 4fd2 ca3f
00000050: 1ec7 a13f 3234 fa3f 2776 7403 7d4b e3bf
00000060: 1145 b2e8 88f5 e2bf 7521 da49 7786 e4bf
00000070: 631a cc7d 0033 903f 4104 bab1 46e5 d2bf
00000080: a5b0 f880 5474 e0bf 203d 09d7 0db0 9fbf
00000090: 475f 5930 8ae0 e93f 000b cbaa 1a4f b5bf
000000a0: 5bb5 adf7 4758 cdbf e838 2e58 d9bd c4bf
000000b0: 9971 6417 bfa7 cabf fadf f0da 602e e2bf
000000c0: c7ae c90c 830f ba3f 31d6 261f 14c7 923f
000000d0: 648e 5eaf d962 68bf 6150 1c5a 4794 c03f
000000e0: 0f4b e395 d7ed f03f ef83 d2d5 eaf9 d2bf
-0.12885464926247378 -0.8363706247967247 -0.3273799715537958 -0.43707078756324946 -0.34573347824004214 0.2288007568849813 -0.4154966382587592 -0.09187902614552156
-0.39008964208568425 0.20954321860549283 1.637743233263286 -0.60296488451758 -0.5924725098467737 -0.6414143030570317 0.015819556882912155 -0.2952439056026073
-0.5142004507993262 -0.03094503045059327 0.8086596435850674 -0.08323828382257759 -0.22925662606886985 -0.16204373174372866 -0.2082442154140949 -0.5681614185514257
0.10179919302180017 0.01833754959235118 -0.002976823011481321 0.1295251073830768 1.0580669264788332 -0.2965037429913186

weight f8 [30, 30]
00000000: 017a 64dd 5a78 e0bf 58d3 7193 0f19 85bf
00000010: 9197 297c 5d10 6dbf e630 a5e7 6a94 b73f
00000020: d3c8 d733 95d6 b53f f1ff 2adb 9bb2 bbbf
00000030: f164 0388 7b08 c63f da16 f43c af47 dbbf
00000040: 83c9 af93 06c8 e03f 240a ff19 9cb8 d23f
00000050: 9d34 0a0a 1d7c cfbf 77a3 8f37 d2fd af3f
00000060: 0550 2b2a 1176 cbbf fe6d be81 1b89 bf3f
00000070: 4908 6c9b ca70 b3bf dfc6 bd32 87c5 d3bf
00000080: d4cb d165 19ed d33f e051 66e1 4498 d43f
00000090: 91df cfc2 6e47 cdbf 5fcb cfc2 09e7 c5bf
000000a0: 1909 e95f fe93 d0bf 7c90 7fd8 3a3a a23f
000000b0: c086 aaf7 5534 cdbf 1913 394c 2d99 d03f
000000c0: 66af 6e28 fe63 d23f 6262 07bd 5cf2 d23f
000000d0: 6d72 35de 2a8f c9bf 64ed 44c0 99e0 c0bf
000000e0: 6ffd c39f 68d6 d63f 8082 f655 7356 abbf
000000f0: 510b a6a9 3584 bd3f 100a e981 76f5 d33f
00000100: a759 9115 f450 e9bf ac75 5cd5 8bd9 d2bf
00000110: 7338 2f7d 0e40 b1bf d229 7abc c9a7 d5bf
00000120: 5204 e6fc 908b e53f dea6 d1e4 5a0d cebf
00000130: df5c 29c5 2427 d9bf def3 9047 4ae7 c7bf
00000140: abf8 9e6e c87f c73f 502c e7e3 a269 d03f
00000150: 55c8 aa8f 853b d53f 6282 03e5 9485 db3f
00000160: 2c1f 54e2 839c d9bf 40e7 0fe9 4844 d53f
00000170: 53ea feeb 9104 d2bf 3447 3827 7629 a0bf
00000180: b251 2275 64cc d3bf 0113 140c bfb0 de3f
00000190: 9a6e 4d0d 71e4 b93f 6804 90c2 9253 dbbf
000001a0: 9109 c336 957d 823f 5d1d eb68 0c8e d13f
000001b0: 1cae f519 cabb ca3f 27c8 9f4b 9c9b aebf
000001c0: 2802 6183 7783 b43f 6122 356f 2556 c9bf
000001d0: af26 c440 2d7e dabf 8eaa eab0 4e83 bebf
000001e0: 3c92 644c 7aab cd3f d8c1 dc43 eb07 c33f
000001f0: 75c3 deae b820 b0bf cc4a a740 ffca d43f
00000200: 29ab 9682 6fb8 d0bf 24fa 0fd6 54de da3f
00000210: 3687 dcb6 0983 d3bf ed81 47f0 2339 b13f
00000220: 80ab 4d1b 5a9c b23f e369 0517 c1c2 c33f
00000230: b46d 81d7 9a09 d1bf 43f7 b47a b2ae 4f3f
00000240: 9bae 5923 4d76 d0bf cde0 5bdb e6cd c2bf
00000250: 1fa9 6c2e ff42 cebf 3fa6 96f5 5f56 c33f
00000260: 9dbf 1641 20b1 aabf e554 1b24 0bc6 c53f
00000270: 0693 791f cc2b c93f e2fa bbad 565f d8bf
00000280: 440a b505 31bf b93f d767 e19e 5232 d1bf
00000290: 55ea be83 652e c4bf 9c3a 4dfd 9c24 b1bf
000002a0: 4b73 d936 8959 d03f 3332 71b7 95d9 d3bf
000002b0: 2289 b336 bd36 c1bf a33f 014a 45eb de3f
000002c0: 91e0 a23a 04dd d6bf 0b50 d58f 52d7 ca3f
000002d0: adfb e6a1 d831 c6bf 6d39 6adf bc27 633f
000002e0: d14d 6bae 8243 cdbf 490a ce6b 7632 953f
000002f0: 825d e44d 8352 e33f 232d 8d9f c539 d8bf
00000300: f10b cce4 ef3b e13f fde1 8052 48c2 aa3f
00000310: 50e1 c639 b924 d63f 361b 346f 4acf a93f
00000320: d573 15bb 5cd0 a03f 5575 efe4 0b44 d13f
00000330: 38f5 d868 8298 a0bf 40b6 5364 e2da cf3f
00000340: 7294 b68e c254 c53f 910c 1630 3a51 af3f
00000350: 8519 990b 7b1c d1bf 1805 19d7 f86b c83f
00000360: c6e8 bff3 017c bc3f ca6f 541c 4823 d53f
00000370: e636 a987 09c2 d53f 6fee 8153 81a2 d53f
00000380: f5d8 fcb2 ce5e c53f efd3 ca18 ff4f bfbf
00000390: d6b8 8438 a952 c83f e3bc d0a8 6a14 95bf
000003a0: a0da 4331 d61e b03f e3fb 6d93 a0f7 d1bf
000003b0: 111a 62fa 6a64 c03f 76da 4f41 34d4 d4bf
000003c0: 3e92 3e82 94d8 9bbf 85f4 d1de 4a1b d73f
000003d0: 2177 8a4a a2a3 e13f d1bb 475a d497 c03f
000003e0: f065 892a 86b7 d0bf 0005 7fce f31f d33f
000003f0: e53a c258 d066 a73f 95a7 e9ca fe80 d53f
00000400: 4474 1371 e554 c1bf d4fb efac cdcd c4bf
00000410: e686 6ac1 ac04 d3bf 531a 6bc2 1bc2 c3bf
00000420: e00b 6b07 caa4 d3bf 5ad3 0699 b42e d1bf
00000430: 8c7b d1fc 6163 b83f a47f 6fa1 c736 b33f
00000440: 12b1 037c 29ed dd3f e777 56f9 715d 8abf
00000450: 1fa7 fd34 38eb c7bf 18e9 50ea ec6d a2bf
00000460: af6e 3701 f2e4 db3f e083 2f43 f50d d0bf
00000470: a4f0 1738 bc82 b83f aba1 9f6b b715 b4bf
00000480: fb74 294b 7be9 ca3f 6c95 6a0f 50eb cd3f
00000490: 4135 e296 7bfc c63f 0caa e6d6 ed51 d33f
000004a0: 0173 ee0e d405 ccbf ca25 ddc9 1c57 c3bf
000004b0: d009 5caa d999 8d3f b075 c9fb 6469 f0bf
000004c0: 6113 566b 1f9c b93f 8bb5 3164 6c70 c7bf
000004d0: 412c ebf9 92f6 cb3f fa7d ba01 11b5 ac3f
000004e0: 3cec 0142 1814 66bf 4939 9029 0578 c7bf
000004f0: 2949 6215 92ea 943f f7e4 9463 612e c6bf
00000500: 6cf2 f598 9182 d73f 3db9 1375 032d 743f
00000510: 3a19 3aa5 b4c3 c53f 4a28 c5d2 855f b53f
00000520: 6477 79bb cf83 cabf b840 a24d 3fe1 c03f
00000530: 5f91 ec37 ac63 c13f a664 ff64 37b3 d3bf
00000540: 32e8 0603 9858 b03f 2226 aed6 079c c83f
00000550: 0204 caae f5cd 983f a37b 469e af63 c43f
00000560: b9b6 99f3 503c c8bf c790 8033 d4b0 ccbf
00000570: 84a9 6680 bf88 a8bf b38c 28f3 e8f4 9d3f
00000580: 2535 cbca c4b8 d33f d69c 39ba 8270 d1bf
00000590: 154d a468 2539 b53f 530a 4504 deee b0bf
000005a0: 7bae 570b 3a54 e43f 0cad b6dd b328 ef3f
000005b0: 13fc 873c 8d75 e4bf c4f6 4163 b800 aabf
000005c0: c956 c40c 7d8f cebf 73cd d464 a12a ecbf
000005d0: d66e 64ab ff5b d43f 6fbb 7a8b e006 d2bf
000005e0: 632d 0cd6 c671 c43f db34 83f1 7e04 c6bf
000005f0: 169f 83a0 c1e1 d6bf 9b0d bd09 5a30 babf
00000600: b656 73b6 d393 dabf 0821 b353 3edb d73f
00000610: 762d 5349 109a d2bf f359 8751 cf02 cebf
00000620: fbe0 708f 03af a1bf 5525 eb5f fdc6 e0bf
00000630: 2e38 d6e4 1117 cb3f e92f 81dd 15c6 d33f
00000640: b346 4378 eed2 c63f 796a 00f8 e2b7 cdbf
00000650: 2b59 11ec 99a0 c23f 42f7 3cc9 3ea6 ba3f
00000660: 0ac0 a5ff 1f7b ca3f 85a3 ed58 cab2 b5bf
00000670: 115a 8807 c120 c63f 7200 87aa e57f cabf
00000680: 252d 99b3 0258 d13f fc56 cabe f0f6 d2bf
00000690: 3c04 f0b3 b2a9 c6bf 5aae b775 3155 663f
000006a0: 1b71 f36f 122b cabf 4a11 e8c0 216b c0bf
000006b0: 41c3 3576 4f43 c9bf f014 074e 062d c43f
000006c0: 62f1 3753 dd4a 94bf f6f4 618b 8bff bbbf
000006d0: 8dae e5d4 67c3 d5bf 219f b842 5f17 c9bf
000006e0: 33cd 43d4 259f a03f 1d4b 0161 5bc8 693f
000006f0: 2426 9e43 fc5d d5bf 1e26 e04d d467 cf3f
00000700: b694 f9ac d574 c6bf 6122 83f2 357a b03f
00000710: a896 6731 b61c ad3f bb35 d97a ecb6 9abf
00000720: 60a2 8f7e fd48 c13f 7b10 0e1f c034 b03f
00000730: b42a a65f 0136 e23f c9c4 4c11 b364 dcbf
00000740: 33dd 7342 1a90 d2bf f8c2 dab0 d5af d4bf
00000750: d24c 4064 6181 b43f e55c 2517 a662 ba3f
00000760: 12b9 e61a 7b81 c7bf 0d61 c82a b6a8 dcbf
00000770: 8a85 227f 4862 a9bf 87be 3b90 1094 c13f
00000780: 0969 9ed6 93d2 a6bf d941 ea3a 530c d23f
00000790: 7530 3994 374f 903f 2a0c 31ba 0a77 b33f
000007a0: 8f20 c493 f925 c03f e4a3 ffa2 326c d53f
000007b0: 9d40 17ec a2a4 c6bf a264 74ec 848e c53f
000007c0: 4e73 b16c 1633 d2bf cafb d685 1a7c bc3f
000007d0: ebab 6efb 1ba7 d0bf fd2c 985e 39a2 bb3f
000007e0: 5f60 fc50 6c33 c5bf a3b7 3528 cf7f d9bf
000007f0: 5143 fda1 eaf1 c7bf 7135 fcd2 838d 9cbf
-0.5146917652198796 -0.010301706015732812 -0.00354784258643099 0.09210842280771522 0.08530552402206419 -0.10819410420208421 0.17213386670372402 -0.4262502761124388
0.524417198610806 0.2925176862592329 -0.24597514143207358 0.06248337677226961 -0.21454062041323155 0.12318584363531923 -0.07593981070024926 -0.30893115954596156
0.3113463873225417 0.32179376613319555 -0.22874245178513467 -0.17111322414674654 -0.25903281561126473 0.03560050862123007 -0.22815966218063544 0.2593491787304614
0.287353076443415 0.2960426183686079 -0.1996816239360614 -0.13185426605364647 0.3568364677630233 -0.0533939402041641 0.1152986087018182 0.31185686766198817
-0.7911320134397116 -0.2945279677968198 -0.06738367611180411 -0.33836596876122116 0.6732869090484519 -0.23478256390381252 -0.39301413778362176 -0.1867459153599204
0.18358712579169398 0.2564475274672917 0.33175791769020196 0.4300281750165934 -0.40017792799379737 0.33229277381871114 -0.2815289311071513 -0.03156632641561288
-0.3093501228225036 0.47953773669750893 0.10114199232833201 -0.42697590828180987 0.00902859280939053 0.2742949509233393 0.20885587947428597 -0.05978096411844574
0.08013102490895874 -0.19794147424751699 -0.4139512188417979 -0.11919109172110096 0.23179558496589603 0.1486791688307807 -0.0629992892197729 0.32488995851342106
-0.2612570548323441 0.4198200312092999 -0.3048729215389473 0.06727814308351983 0.07269824186884755 0.15438092826919023 -0.2662112335726434 0.0009668704491685238
-0.25722053959064234 -0.14690862379916894 -0.2364195801431572 0.15107345096230237 -0.05213261408368839 0.17010630858445733 0.19664908921108565 -0.38081900564422544
0.10057360066733972 -0.268696456104974 -0.15766591008089628 -0.06696492370722712 0.25546484333408576 -0.31015532411837227 -0.1344830052467581 0.48310978152312084
-0.3572397778148196 0.20969612143619573 -0.17339618592629105 0.002338284389515602 -0.22862275616226538 0.020700311975369954 0.6038223763779771 -0.3785261209602188
0.5385665386860393 0.0522635079109399 0.34599142687104223 0.05040962798562136 0.0328396776555803 0.26977822644206145 -0.032413554476514894 0.2488673200490883
0.1666491696206865 0.06116659008969195 -0.2673633206617512 0.1907950449258713 0.11126720620078165 0.33027842299065624 0.33996809242385806 0.3380435290816654
0.1669557928050335 -0.12231439929276154 0.1900226140946361 -0.02058569579474757 0.06297053053627133 -0.28073896787094393 0.12806451059096038 -0.3254519117175855
-0.027193375062454665 0.3610407997110275 0.551224847400338 0.1296334687062584 -0.26120142129874946 0.2988252178730164 0.045706282458118065 0.3359982472962824
-0.1354033281449195 -0.16253062195025214 -0.29716032875340515 -0.15436121934017652 -0.306932933086669 -0.26847567504892356 0.09526646063157623 0.07505462352082631
0.4676002226904227 -0.012873545095143114 -0.18686583125536857 -0.0359949146299689 0.4358487140541269 -0.25085193215460144 0.09574486131163212 -0.07845636727836929
0.21025029344574606 0.23374367478133296 0.17958016269077784 0.3018755530016797 -0.21892786721300442 -0.15109596115716634 0.01445360232492457 -1.0257310710361303
0.1000384938289023 -0.18311839000982064 0.2184623451524619 0.05606892725085895 -0.0026951288019154956 -0.18335022477590204 0.02042606597439903 -0.1732904182661412
0.3673442834622509 0.0049257407238044145 0.17003496234628718 0.08348881145244139 -0.20714756635691878 0.13187400141442196 0.13585427027386296 -0.30781350005197294
0.06385183404827968 0.19226167662081745 0.02422317389801166 0.15929217556273753 -0.18934070486596058 -0.22414639010196977 -0.047918304847672594 0.029254569855890988
0.3081523876579289 -0.27249210535087565 0.08290323071223711 -0.06614482502212952 0.6352815839322398 0.9737185793250389 -0.6393495733499343 -0.05078674518243312
-0.23875392077814286 -0.8802039117203279 0.3181151555779541 -0.2816697465995536 0.1597221894411219 -0.1720122031460168 -0.3575290744324645 -0.10230028856044841
-0.4152726442092488 0.3727565591220956 -0.29065329704891185 -0.23446074944395398 -0.03453837514865828 -0.5242907403382256 0.21164153741523378 0.30896517401993023
0.1783121192188922 -0.23217427358106926 0.14552616144892147 0.10409920132675857 0.2068824766424771 -0.08475937529659745 0.17287457340053483 -0.2070281107571677
0.27099673785115136 -0.2963220465838814 -0.177053773746623 0.0027261701595671485 -0.2044394537578079 -0.12826940459502573 -0.19736665031407521 0.1576240426058244
-0.01981683559823589 -0.10936805870911201 -0.34005161085836094 -0.19602576024885202 0.0324642011272779 0.0031472954506538546 -0.33386141398713876 0.24535611917990335
-0.17544051118890075 0.0643647877760798 0.056859677821006926 -0.02608842372710794 0.13503998450984778 0.0633049083535883 0.56909245187247 -0.4436462086624258
-0.29004532327185756 -0.3232321002097218 0.08009918878115066 0.10306776108824385 -0.18363894284761578 -0.44779733827591955 -0.04957796623171891 0.13733107607503234
-0.044575328777869024 0.28200226548599755 0.01592718927558719 0.07603518529599343 0.12615890231268564 0.3347288696082258 -0.1768993046557669 0.16841184182775232
-0.2843681394058891 0.11126867072651617 -0.26019954255997274 0.10794409331736073 -0.16563180879961956 -0.3984258549379495 -0.18707020673402977 -0.027883586647523943

bias f8 [30]
00000000: 69f7 ddc7 7ca8 d93f 0a74 3876 b284 f0bf
00000010: bb81 c8ae 76b8 ca3f 24c9 c5c3 0479 ad3f
00000020: c164 0515 7a91 ca3f 5ddf f740 2ad3 b73f
00000030: d1ff ade3 32f2 e03f a964 7df2 79db cf3f
00000040: bd96 a202 93cc bf3f 4adb 1e32 19c1 d2bf
00000050: 4783 1a10 6644 ddbf 618d f188 b09c c2bf
00000060: 07a4 3096 634d cfbf 1a1e 16dc 4198 c9bf
00000070: 0a73 ab20 2a43 b0bf 632e dc4a 88f5 ddbf
00000080: 3060 1ef8 926b d1bf e588 d06a b42b b5bf
00000090: 8e6c 20be 63cc b4bf f7e3 47df 2ff4 e9bf
000000a0: a3c0 bf75 bb52 d43f 65e2 da3d 2f8a 953f
000000b0: f8df 7db9 9fbc d8bf 445b 3a42 7bda c8bf
000000c0: 6b8f f2a4 6c27 dbbf 42d7 d0c2 5fc6 d4bf
000000d0: d687 c428 02c4 d2bf 2c99 314d 016e a23f
000000e0: 31c0 55d1 d215 acbf aca1 4790 bb14 e2bf
0.40090865629451017 -1.0323967569340788 0.20875438246095065 0.05756392373850108 0.20756460215014808 0.093065873013868 0.5295652815693704 0.24888538685153108
0.12421530546506694 -0.2930357922991119 -0.45729972431768257 -0.14540678679177702 -0.2445492251729606 -0.19995902296453566 -0.06352484986878096 -0.46811110792689287
-0.2721908019098036 -0.08269813163545654 -0.08124373809589455 -0.811057983489376 0.3175495767491247 0.021034944677668217 -0.3865126906816836 -0.19416752561365958
-0.42428127391962417 -0.3246077921388527 -0.2932134054300354 0.035995522187294376 -0.05485400014265485 -0.5650308435406735

weight f8 [2, 30]
00000000: 515e 73e2 ae99 e7bf 6c01 24ca 1e7c dabf
00000010: 96f3 75e6 7a83 dcbf df3d 9ed0 da46 f3bf
00000020: e50f 06bf d222 e2bf 2958 3154 9efc d03f
00000030: 08b7 425a 56f3 f1bf efbf 20d4 ddca b43f
00000040: c456 6063 7c37 be3f 8085 edb5 3834 b23f
00000050: ae6c ada9 9961 dcbf 6def 4875 510e d5bf
00000060: b3c4 4a13 5b16 eb3f a491 7cc9 d577 b0bf
00000070: 9644 96be 77b4 d7bf b4fe 0a68 a74d dabf
00000080: a9f4 c2b7 a3c0 e53f 8541 160d 2947 f2bf
00000090: d262 20bd 9bd1 b1bf f781 3d15 0f7c dd3f
000000a0: b2ba 4917 59b2 c5bf a0e5 44b3 4e76 e93f
000000b0: a991 124f ec8b bebf 2b5a 5ffe 173a db3f
000000c0: d399 d988 4be8 db3f ce13 410f 13a7 c63f
000000d0: b0e2 b994 1d9c e33f 2b43 d310 934b db3f
000000e0: 319e a2e1 2cb3 e83f fd13 031a 4c3d d73f
000000f0: 35d0 f0d7 8e54 e6bf 0fc8 ebec b731 de3f
00000100: ae69 cf4f 56df de3f f81a 54a8 6352 b5bf
00000110: 3e8d 51e3 1673 e13f 6d8b 5b75 6d6d d9bf
00000120: 5077 6c6c 60b1 f53f 5070 270f 7af0 e63f
00000130: f0a4 bb9a a508 da3f c9f7 217f 911a c3bf
00000140: b09f 66ae 102b dbbf 1724 f348 739e ba3f
00000150: 688c 67ec c282 f73f edda 2ff2 ce7f c63f
00000160: 34b4 4e90 9dd5 d6bf 0e09 f16e 4130 c33f
00000170: 279f 7ae3 d100 e6bf a82d 2a11 6e7e b7bf
00000180: 1b0e 49b4 9c48 bebf 6ab1 cc06 20a2 b2bf
00000190: f7e6 b238 fc4a e83f 01b2 0e8a 7c93 e6bf
000001a0: 468e f13f 8abc 833f 3bc3 8ad0 9b82 d83f
000001b0: 5368 bd79 2931 d93f 1d83 d300 3424 b03f
000001c0: aeae 1571 51cb c63f 80e7 9c9a a581 c6bf
000001d0: d820 1e08 c824 f03f 527d 4f35 83c2 e8bf
-0.7375101492752468 -0.41382570019052056 -0.44552490716869764 -1.2047985219140782 -0.5667508822375537 0.2654186079211081 -1.1219085241131683 0.08122049740700253
0.11803414751224311 0.07110933724972845 -0.4434570462232824 -0.3289989133224854 0.8464789749906657 -0.0643285386000288 -0.37038987743387375 -0.41098961983150706
0.6797655667393389 -1.142373133774613 -0.06960461966844925 0.4606969554352242 -0.1695052493773424 0.795691824088113 -0.11932255678636373 0.42542075959264264
0.43605316509493014 0.1769737076266708 0.612807074051565 0.42648769991960717 0.7718719870508207 0.36311628856884665 -0.6978220193473194 0.4717845739061212
0.48238141817059954 -0.08328841075499926 0.5452989997687963 -0.39730392895415073 1.3558048472691162 0.7168550773599325 0.4067777644218742 -0.14924830157900562
-0.42450348883948674 0.10398026019096594 1.4694241747427217 0.17577540231260205 -0.3567880543949429 0.1499101440150032 -0.6876000826787035 -0.09177291792928222
-0.11829547311304404 -0.0727863327599089 0.7591534716986804 -0.7055037208970704 0.009636955334094154 0.38297171941217173 0.3936256111970852 0.06305241604014751
0.17807977697099403 -0.17583150910814638 1.008979827604028 -0.77374420559128

bias f8 [2]
00000000: 2de9 55c7 2183 e8bf 02b7 286b 8d37 e73f
-0.766007317855189 0.7255313008260773
