AONN_BFGS/BFGSNN/steady_NS/results/AONN/AONN_01mu_t1/p.pt (torch, 19347 bytes, 8 tensors)

weight f8 [30, 2]
0	0x3fded3c6a615be81	0.4816757795260643
1	0xbfdfee7ec8beaf68	-0.49893159488669037
2	0x3fe80dca0b22ea15	0.7516832559115892
3	0xbfcde60be8311db5	-0.23358296239369528
4	0x3fb9d13557efe3b3	0.10084851643467978
5	0x3fcb877efde7fa5e	0.2150725116516296
6	0x3fd263cc6873af87	0.28734121513729644
7	0x3fa439d62517556d	0.03950375750325006
8	0xbfdeb8b1c6917b83	-0.4800228537696329
9	0x3fd155dc32e737a0	0.27086548777594466
10	0x3fe1376154d45587	0.5380102783989721
11	0x3fe1323dda0f9c26	0.5373830088618703
12	0x3fdcac611a864d31	0.4480211981801459
13	0x3faeada4d6072c5f	0.05991854775091875
14	0xbfe5d438b9f561f9	-0.6821559555056061
15	0x3fe167908412768c	0.5438921527417775
16	0x3fb585a375ffeb70	0.08407041197635379
17	0x3fd2912babb617bc	0.29011050957376106
18	0x3fc0c6737f57fb55	0.13105624883606973
19	0x3fb6e57bd7269e8f	0.08943914416033237
20	0x3f64121267a89d47	0.002450023600676285
21	0xbfc8a744dfbcc65b	-0.19260464596441093
22	0xbfd1b8723dc28756	-0.27688270598638576
23	0xbfc385386d3b9a4a	-0.15250306447633682
24	0xbfd2a9e7a71d2a87	-0.29162017173499816
25	0xbfdfbfd6f898dd60	-0.49608396794379495
26	0x3fd000e54c8114f9	0.25005466910472723
27	0xbfd194127f4ae4d2	-0.27466261320985297
28	0x3fe6ce0eaef8b67b	0.7126534860050947
29	0xbff0c2a2f4150474	-1.047518685765934
30	0xbfc3ff3d7b0658b7	-0.15622681147642023
31	0xbfdcba0290f0c88f	-0.44885315088607397
32	0x3fcf24ad868276f1	0.24330681865551854
33	0xbfaaa51348ed1fd5	-0.052040674831516455
34	0xbfc688690f0f7f4b	-0.17603791461351145
35	0xbfe87a5c90a127fd	-0.7649367165370219
36	0xbfe1c3634852b346	-0.5551010525283366
37	0xbfc174ca59e2542f	-0.1363766611945336
38	0xbfb8773add7f1493	-0.09556930453898564
39	0x3fd70652f99bfd73	0.35976099372779585
40	0x3fd14b07930be84e	0.2702044425965412
41	0x3fe045da376059c6	0.5085269052095149
42	0x3fd5278d89e66e50	0.3305391165428988
43	0x3fa1b4fc94b7d923	0.03458394351393881
44	0x3fe39a6485217022	0.6125967598159188
45	0x3fd43aa3bb24f42b	0.3160790755826521
46	0xbfeeaf97e72e7808	-0.9589347377075237
47	0x3fc7922846380ba6	0.18414786747606832
48	0x3fac00ef6aab7ee4	0.05469463517306197
49	0x3fcee6c49598f4ef	0.2414174776512605
50	0x3fda74fb2785799c	0.41338995799551426
51	0x3fc93eba5cac852c	0.1972268059262573
52	0x3fe654c48a15bdc6	0.6978476235362272
53	0x3fc43576ed1d8a8b	0.15788160875225218
54	0xbfd01c229b8f6adc	-0.25171723548343805
55	0x3fed1e2e954523d5	0.9099343219214641
56	0xbfe0d3a4712b2ef8	-0.5258352480245483
57	0x3fc4ebe05a142dc6	0.16344837568645526
58	0x3f9b8a399223d73c	0.026894473595312038
59	0xbfa65c8a571def41	-0.043674777159110174

bias f8 [30]
0	0x3fbdb703d0dc098f	0.1160738358412685
1	0xbfbc90213decaaee	-0.11157424699619486
2	0x3fb4451278625290	0.0791789573580195
3	0xbf94d99436a49db2	-0.020361247859140348
4	0x3fb4de66614624ea	0.0815185534940103
5	0xbfde42906a9e1663	-0.4728127518832023
6	0xbfcdbe9e0cbde8ac	-0.2323796808448767
7	0x3fd11b01ba3a962e	0.26727336107646493
8	0xbfca26549e10c23d	-0.20429475515403964
9	0xbfbf36c815a74a16	-0.12192965057992242
10	0x3fd0ccf7f566b83a	0.2625102898117607
11	0x3f8c3487e16b510b	0.01377206951784917
12	0x3fcc8f70cbf5775a	0.22312746008804646
13	0xbfc3f6376fb7115c	-0.1559514327510766
14	0x3fb2ebda164211a1	0.07391131442461198
15	0x3fde88cd01687dee	0.47709965837017776
16	0x3fa65184ea331cce	0.043590692128015016
17	0x3fbdfdd75db65014	0.1171545604505016
18	0x3fd2cccbbf74f93c	0.29374974915471674
19	0xbfb2df76b1395c2a	-0.07372228457221355
20	0xbfdb317a3dd46212	-0.4248948673062226
21	0xbf96722066e32661	-0.021919733314268778
22	0xbfd199019c8887ad	-0.27496376310784393
23	0x3fd10d8ad875ce62	0.26645156038941853
24	0x3fad119cac7f5719	0.056774993950666715
25	0xbfc0346c33100180	-0.12659981244361163
26	0xbfc4527dece93e1a	-0.15876745288777344
27	0xbfd0ee3455371201	-0.2645388443163768
28	0x3fd00650a297da1b	0.2503854358505195
29	0x3fbee733052a112a	0.12071532131273402

weight f8 [30, 30]
0	0x3fd9dc262cca71db	0.40406183599568885
1	0x3fe14518f23c5906	0.5396847468535106
2	0x3fb27a295770ca72	0.07217653641490943
3	0x3fc74988bd7789bb	0.18193158389392558
4	0xbf79d83e771c73f3	-0.0063097419786375284
5	0x3fb3e98a287a5078	0.07778228271701149
6	0xbfabd133b4e93b64	-0.05433045943629258
7	0xbfd550b61870b092	-0.3330512274431011
8	0xbfc0d314b25d36f8	-0.13144167622743175
9	0xbfc28b62f16a8eb6	-0.14487873828794812
10	0xbfc53168f174cd7c	-0.16557037153107135
11	0xbfd3b9306864be50	-0.308178045222097
12	0x3fd3ff7ef97d31eb	0.3124692379394946
13	0x3fd01e2a0cd4e62f	0.2518410802182158
14	0x3fd96caedd7bc5be	0.39725848798033414
15	0x3fcb54679cc4a3ee	0.21351332812017126
16	0x3fa977c0953c0f70	0.0497417623683124
17	0xbfaf67759dbb511e	-0.061336207870825485
18	0xbfc9f597f80f2565	-0.20280742275489697
19	0xbfd5bcacec24a8ee	-0.33964083729610095
20	0xbfb3318622df83c6	-0.07497442580598976
21	0xbf8ffd369d8602ce	-0.01561968486999046
22	0x3fd2c75b483c36f9	0.29341775945873355
23	0xbfcdc2bdc063da53	-0.2325055303005735
24	0xbfc3b6ea70a3843c	-0.15401964664400392
25	0xbfb68eaf6a43201d	-0.08811470360080915
26	0x3fcc57a82ff194b7	0.22142507878303316
27	0xbfdb28b115adc1ea	-0.42435862652840106
28	0x3fb8995cd339eeea	0.09609012753383764
29	0x3fc387d9a188a8be	0.15258331668275632
30	0xbfd4516a9301c75a	-0.31746925693652417
31	0x3fb7f9a29d964eef	0.0936528811201318
32	0x3fcf0486e685cfb3	0.24232565170279727
33	0xbfc6ea37c05d6cbc	-0.17902275936908107
34	0xbfc4bb0d98cb03ce	-0.1619584079799367
35	0x3fd08f1092660376	0.25873197838523454
36	0x3fc3b25c06b64ff7	0.15388059928648065
37	0xbfd28b79f087215b	-0.28976295937584035
38	0xbfc0f7b6de7715ef	-0.1325596414809946
39	0xbfd3a693d882abdd	-0.3070420851096836
40	0xbfc23bab0698e57c	-0.14244592496997288
41	0x3fb54d76f6267e29	0.08321326741724334
42	0xbfd2682d6d4ff57e	-0.2876084868911092
43	0x3fc367acea1c277b	0.1516014235606312
44	0xbfd4c7e02eef2666	-0.3246994455663298
45	0xbfcae5d510574557	-0.21013892457862468
46	0x3fada3d02d5b9829	0.05789042047199217
47	0x3fc1e351bd2842f0	0.1397497342700471
48	0xbf9f9b72567dbc84	-0.030866419342995957
49	0xbfd2139dedc5ec19	-0.2824473211291561
50	0x3fc7810b408281a5	0.18362560892002225
51	0xbfc8f92119351e37	-0.1951028225978335
52	0xbf9f5fc87fa87cba	-0.030638821403155637
53	0xbfc81fe3c10048fb	-0.18847319530375004
54	0x3faef4dffab8d4ac	0.060461997371399206
55	0x3fbe8769e6e2d761	0.11925374876849794
56	0xbfc4a371cc82bbec	-0.16123793111680074
57	0x3fac7e43b8c3b674	0.05565082197595653
58	0x3faf0c382e6059b2	0.06064010206334859
59	0xbfa7f7888e00dc3c	-0.04681040509643039
60	0x3f9c326f189f0852	0.027536140325317433
61	0x3fc4a2c8d6adb2fe	0.16121778948163262
62	0x3fca8c35bd95e934	0.20740386731251592
63	0x3fad2d59bd75c0cc	0.056986622216642496
64	0xbfb0c8b743a67400	-0.06556268121353526
65	0x3fdcdf8ec22dc099	0.4511448761250079
66	0x3fc357c2c2388e60	0.15111574634021263
67	0xbfc9c41f4c0ab15b	-0.201297676210184
68	0x3fd14a22600f57fb	0.2701497972569766
69	0xbfcacaf871f43de9	-0.20931916774905737
70	0xbfb307c35710c7ec	-0.07433720470069688
71	0x3f7082167b9382a8	0.004030311415789946
72	0xbfb9924bc53c5081	-0.09988854947397564
73	0xbfc18623c560d960	-0.1369061197053254
74	0x3fcd61b79d4728ae	0.2295445936163722
75	0xbfc888b9a5eec215	-0.19167252161197781
76	0x3fcce67e0aa9bcdd	0.22578406830459744
77	0xbfd537d920a806b6	-0.33153370083901323
78	0xbfd028dd65af8187	-0.25249419145804847
79	0x3f784aa9f37843b4	0.005930580016426146
80	0x3fcfae21c28953f2	0.24750158308839293
81	0x3fd33a9443c69aa9	0.3004503881333372
82	0x3fb7b1a216293685	0.09255421677627325
83	0xbf99b385c1a550ea	-0.025098886436652736
84	0x3fc94c8d7c3aa7f7	0.19764870229602113
85	0x3fc59d6be8a12fd7	0.1688666234862228
86	0x3fda32e712ea8bcb	0.4093568501213524
87	0xbfc8d7f603c69a90	-0.1940906065403465
88	0xbfd0166af345bd59	-0.2513682723719817
89	0xbfbfc9c5dfd8a57e	-0.12417256083485559
90	0x3fce63f1d73f3dfc	0.23742506990537027
91	0xbfca941c0004d988	-0.20764493943142903
92	0xbfb294718828c35f	-0.07257756780815104
93	0x3fc87e995120fd64	0.19136349164362365
94	0x3fc29f8c765a46f4	0.1454940393346572
95	0x3fd38b09252e5b23	0.30536106711353933
96	0x3fb44dfb40aeb732	0.07931490258371524
97	0x3fcca313818f8508	0.22372669054224326
98	0xbfcb8f56d929f5d9	-0.21531186679560113
99	0x3f791f8729039d4f	0.00613358303983287
100	0x3fcb3d8cd8daf260	0.21281586254726204
101	0xbfad9440f4122873	-0.05777171115285364
102	0x3fc227b9a283ea4c	0.14183731494252283
103	0x3fc50b11799624ea	0.16440027653542383
104	0xbfcb7ba24907cb86	-0.21471050802173525
105	0x3fb0851f7b47927e	0.06453129539256428
106	0xbfbdc7d9460a2a39	-0.11633069953874377
107	0xbfbac18a6e920289	-0.10451569747420754
108	0x3fcf5582b4946b97	0.24479707543727322
109	0x3faa99948b1c8cee	0.05195297430170763
110	0xbfc059ee36f0de59	-0.12774446184788493
111	0x3fcd2be0e528f062	0.22790156545113677
112	0xbfc828b0649a1b02	-0.18874173080640594
113	0xbfb3b544d122a406	-0.0769846926292673
114	0xbfd03648b4ae0c85	-0.25331323284644497
115	0x3fd24e87db0ccd43	0.28604313270189524
116	0x3fa6bc0c75c3552d	0.04440344750916334
117	0x3fcf4d8c684297fd	0.24455409136606923
118	0x3fd18b2a3390ac97	0.27411894832284517
119	0xbfc1b5076dc48b54	-0.13833706722024408
120	0xbfcb2787d5b6e41a	-0.21214387831949538
121	0x3fce7f64797396d3	0.2382627099061013
122	0x3fd328cc0b121659	0.29936505395048624
123	0xbfceecee0bfc2e9b	-0.24160552582940373
124	0x3fc7471fb80089d1	0.18185802921750718
125	0xbfcf875fd0ad1226	-0.2463187951017442
126	0x3fc1cc69a6489e59	0.1390506803447689
127	0xbfd043b1e0b3c122	-0.2541317648274505
128	0x3fbafa5c8b52b360	0.10538271333161964
129	0x3fa830e8962a0394	0.047248142557697964
130	0x3fd31ded2df8e3d9	0.2987015675494696
131	0xbfd0083f35aa9b52	-0.2505033516012435
132	0x3fb84dbcddcd1958	0.09493618407313897
133	0x3f7df4bb36d4e52d	0.007313472085394052
134	0xbfcb4e2144756313	-0.21332183687879844
135	0x3fd6a7ae1aa4a6cd	0.3539843807398995
136	0xbfc8faa25fe37fb3	-0.19514875108779747
137	0xbfcc69c8abadc430	-0.22197826750519445
138	0x3fcb9a45fd5f7f35	0.21564555045824255
139	0x3fd15a103697a6bc	0.2711220296028889
140	0x3fb116ff32112474	0.06675715420091582
141	0xbfcc40960a88dc8a	-0.22072101129899507
142	0x3fcac7fd8de272ef	0.20922822406728112
143	0x3fc0cec2756817a8	0.13130980236763645
144	0xbfb03b093eb65cbf	-0.06340081959784792
145	0xbfbbc376e4bfa0d7	-0.10845130047494266
146	0xbf815c350fc65751	-0.008476652664096614
147	0xbf94c24867a220e3	-0.020272380185390026
148	0x3fad9b9030c4f816	0.057827478364274196
149	0x3fcf5dcf80e75f65	0.24505037111407116
150	0xbfc0ef1316a06977	-0.13229597668471246
151	0xbfd25b1ebfe34cbf	-0.2868115304856466
152	0x3fcca0ba2e0a2d5d	0.22365500686678788
153	0xbfd34253d47d264a	-0.3009233069502427
154	0x3fd44571685a9fa1	0.3167384642679228
155	0xbfd2dc4637d4af53	-0.2946944756720217
156	0x3fba97d205b24942	0.10387909545014387
157	0x3fd0b432fb3daa5f	0.26099848304025913
158	0x3fb2ba4dab4ef69e	0.07315526420912952
159	0x3fafc807d92e5a61	0.062072987805710474
160	0x3f8d724e3c052442	0.014378176886241548
161	0xbfd242d5351fcc42	-0.2853291529456251
162	0x3fc7f6baea853617	0.1872171063536576
163	0x3fb59b150285c128	0.0843976145895381
164	0x3fcb61d7d6927358	0.21392343499328592
165	0x3fc973039e6ee0e1	0.19882245288841374
166	0xbfc19ea8d96b84bc	-0.13765440574846888
167	0xbf827d04ddbddef9	-0.009027517334956313
168	0xbfc2081a99fa289e	-0.14087231176774123
169	0x3f7b67ffd5d432ac	0.006690978390235951
170	0x3fbcd605ee8bde84	0.11264073442350236
171	0xbfb555ee0144abd6	-0.08334243327105581
172	0xbfc636737f03b053	-0.17353671743274166
173	0x3fd58bbe0ba1d7b6	0.33665419708210764
174	0x3fd1f0081495383e	0.2802753640179424
175	0xbfb11d2d6943b82c	-0.06685146160063543
176	0x3fce6d8037c7c943	0.23771670077946724
177	0xbfba0b6db478bd62	-0.10173688560529606
178	0xbfb8e6f3d78500d8	-0.0972740555926096
179	0xbfce72c0a640eee8	-0.2378769695077303
180	0x3fccd0dbb5871a0b	0.22512384761485324
181	0xbfd1a52c52e873e1	-0.2757063684128394
182	0xbfc1b65b7c700203	-0.13837760520983985
183	0x3f99bc1c0084372c	0.025131642848513255
184	0x3fcbbcff08d316aa	0.21670520716559355
185	0xbfdfce605509bed0	-0.496971209568966
186	0xbfdda84f6c66636a	-0.4633978422730737
187	0x3fd9e55d459440f2	0.4046242885097079
188	0xbfcc56a9f539fd03	-0.22139477228117962
189	0xbfb4afe1f618a07e	-0.08080875642974836
190	0x3fd1c969a470405a	0.277918253502326
191	0x3fc38aa5c62ac99a	0.15266868759279079
192	0x3fd13e21a6843081	0.2694172025810602
193	0xbfc9e617e14cb388	-0.20233438969571815
194	0xbfad438f5d7fc516	-0.05715606705042313
195	0x3fd2bd4d60679559	0.29280409254564216
196	0xbf5deb5f294722f9	-0.0018261365231514988
197	0xbfb240d68ad8b620	-0.07130185022170865
198	0x3fd800bd5b188232	0.37504514595096616
199	0xbfbdab44ee02b18e	-0.1158946114616752
200	0xbfd70f5ef7a4137f	-0.36031316932376706
201	0x3f9f1da53008e23e	0.030386525208287767
202	0xbfe055035ee138de	-0.5103775838013254
203	0x3fd372812a9640f7	0.30386380347137226
204	0xbfbf57e9cf11a058	-0.12243520074264447
205	0xbfd7a68413715ab8	-0.3695383252974511
206	0xbfd9e7c66153f1a8	-0.40477141861608823
207	0xbfcef9f97310643a	-0.24200361364708717
208	0x3fd9e6b7cf1da314	0.4047069094290674
209	0x3fbd1eaf7ff1cbf6	0.11374947427411528
210	0xbfb8699dd92e142b	-0.09536158134695032
211	0xbfc6cba04d21daf9	-0.1780891777632048
212	0x3fc78acde2e6c907	0.1839234693448548
213	0x3fcd8d7074bd61fc	0.23087888431724923
214	0x3fc5130f81c9dbb9	0.16464418256120242
215	0x3f938771bfb06e69	0.019071366619853345
216	0x3fc327a3ae40b8ad	0.1496471978038633
217	0xbfd397b0ed7bc1c1	-0.30613349143734686
218	0xbfc4a2fa75e89e57	-0.16122370488413892
219	0x3fb7abb85c1104b3	0.09246399162022349
220	0x3fc709397fff030e	0.17996901273547689
221	0xbf7768671e04b54a	-0.005714800645632076
222	0xbfd0839a9856fe34	-0.2580324638074416
223	0xbfd0474bef2006da	-0.25435160018979064
224	0x3fd07082d05f7eb6	0.2568671259777874
225	0x3fb7731ac03f61da	0.09160010522408105
226	0xbf985ddc110835c8	-0.023795546092562764
227	0x3fb7351b51c87cd3	0.09065409418734598
228	0xbfcddcc894b72a2f	-0.23330027829645547
229	0xbfd2697562227e09	-0.28768667777509954
230	0xbfc3ad768f4bd783	-0.15373117443931159
231	0x3fc350a158df5553	0.15089814033005186
232	0x3fb797801cbe234f	0.09215546323515621
233	0xbf9b0c355e37b710	-0.026413759112919044
234	0xbfc4bf253d0e8381	-0.16208329659732715
235	0xbfb614b76cd68c63	-0.08625360877208403
236	0x3fa94ed5904c84f3	0.049429582466709386
237	0xbfd483a48a8221da	-0.32053483511165626
238	0x3fcb47c2e6342b7b	0.21312748184604033
239	0x3fb45e3f15434e8e	0.0795630862151546
240	0x3fc97509e499c7f6	0.19888423597473065
241	0xbfc351a0870bcfaf	-0.15092856020021148
242	0x3fb9e8a3c3b7d393	0.1012060501887631
243	0xbfc11641f9ff485b	-0.13349175173658775
244	0xbfce5be478927ada	-0.23717933547319242
245	0xbfcc14dbaf3150bf	-0.21938653997734112
246	0x3fd303bd1eed42c9	0.2971031953830275
247	0x3fc26f69642af907	0.14402501479157356
248	0xbfca1fa07606de8c	-0.20409017336873025
249	0x3fd2c990f7577c07	0.29355262903658325
250	0xbfb338ea65e16f8c	-0.07508721339530505
251	0xbfb71093f0374b65	-0.09009670843742652
252	0xbf7645fdd1d9ee3f	-0.005437842830015748
253	0x3fbcb4b2efb704bd	0.11213224747099822
254	0x3fdaf7765859bb2a	0.4213538992689104
255	0x3fd2775337f1a82f	0.28853302443769996

bias f8 [30]
0	0x3f7f7f936c630837	0.007690025208093635
1	0xbfa6aa9f873c4a34	-0.04427050138305724
2	0x3f99dcc10c229218	0.025256172528900306
3	0x3f7939dd9da7a086	0.0061587006443703015
4	0x3fa1e15e97196257	0.03492255777809266
5	0xbf78ccb9f298a917	-0.006054617269493321
6	0x3fd0cee10ad6adc5	0.2626268964620205
7	0xbfb16ea9d37645f6	-0.06809483921667678
8	0x3fc6cf782a1f2e60	0.17820646340111335
9	0xbfcc309c26052570	-0.2202334581036598
10	0x3f945ecd6c4351f3	0.01989289258274769
11	0x3f94c90260a24b20	0.02029803957754972
12	0x3fb4acf0bb2fa241	0.08076386041614915
13	0x3fb191bf7f67db44	0.06863018856516329
14	0x3fd640e7e9e038e0	0.34771154250564784
15	0xbfc51c8b402a56ea	-0.16493359215808506
16	0x3fb5594090ff4736	0.08339313068361495
17	0x3fbf4eb63afc24f2	0.12229479732572537
18	0x3fb44997a6e64b8c	0.07924793076226261
19	0xbf98b8a2455d13cc	-0.02414182232248034
20	0x3f9f893888ada547	0.030796893446141806
21	0xbf96625cfa8a14b0	-0.021859600822172254
22	0x3fbe9b09ba9107ac	0.11955319218489419
23	0x3fbe5adbfe267b49	0.1185739036068131
24	0xbfb5d9e4db08a0df	-0.08535604808332974
25	0x3fa5039719774d22	0.04104301629890929
26	0xbfb79c1d2b095435	-0.09222585964865078
27	0xbf9a66b7874ea6d1	-0.025782458909509757
28	0x3fb5e9603fd78eb3	0.08559228476183982
29	0x3fb835b738268866	0.09456963654386782

weight f8 [30, 30]
0	0x3fb4bab78f192cff	0.08097407573329816
1	0x3fccae9f610dce93	0.2240790580650481
2	0x3fb31d0f8138b808	0.07466217903922268
3	0x3f87e5c0a00b059b	0.01166868675625459
4	0xbfd082e69cd77fb4	-0.2579895526559952
5	0x3fc4ed347b5d35ea	0.16348892234456908
6	0xbfd5fc8d86289d79	-0.3435396013396353
7	0x3fc9ad1a037dba24	0.20059514208283347
8	0x3fcf9a3da78bf376	0.246894556817917
9	0x3fbcd48608255ec0	0.11261785220028298
10	0xbfc0989287966f92	-0.12965613956918937
11	0xbfb2c77df40c8f4c	-0.0733565064261345
12	0xbfcf2b83562bd46f	-0.24351541240290284
13	0x3fc5ce6726487f58	0.17036141747757472
14	0x3fc4ada06126672c	0.16154865974095267
15	0xbfd5d011937e3a7a	-0.3408245029794795
16	0x3fb6115ff9512903	0.0862026199039612
17	0xbfa63439f679c801	-0.043367205941549976
18	0xbfc7788c912deb0e	-0.18336636627994846
19	0xbfd256bb7f84d456	-0.28654372647298965
20	0x3fa9f65f19994558	0.0507077902553969
21	0x3fb66a35c0ad2bf6	0.08755813554778044
22	0xbf80fc7e0803a288	-0.008294090861867845
23	0xbfc5bf1f6396fe6d	-0.16989509928497473
24	0xbfd340f095792814	-0.300838609666813
25	0xbfbe01ea3bfd2d47	-0.11721672024321093
26	0xbfc5f1150c1467e2	-0.17141974534825893
27	0xbfc06932c5a4a483	-0.12821039820235933
28	0x3fd03d0139f87cdb	0.2537234369392089
29	0x3fcfdb0f9a9af00f	0.2488727097423866
30	0xbfcff24db06af7b0	-0.24958201517250478
31	0xbfafe9592d655472	-0.062327181617242725
32	0xbfb7f908bbba906b	-0.09364370902273016
33	0xbfd0bfcc0c00b8c8	-0.2617063634123835
34	0xbf92a8fbe9799640	-0.018222747922115312
35	0xbfb8cda11e7f528e	-0.09688765520633977
36	0xbfc0ab89b4618569	-0.13023492152846508
37	0x3fca381f652d2f07	0.20483772697695476
38	0xbfd150bb94905d91	-0.27055253513523164
39	0xbfc824250521539a	-0.1886030459451405
40	0xbfb46cb4682e9f65	-0.07978370231159955
41	0x3fac12f754735fdb	0.05483220010654551
42	0xbfc9a7f5dafa8b29	-0.20043824379271172
43	0xbfd1c8732635bba7	-0.2778594849723341
44	0xbf866d765422f955	-0.010950970118184836
45	0xbfbf86280fb6e793	-0.12314081557897642
46	0x3fbade057a101cf6	0.10495027761509221
47	0x3fd86f38a9f4c01a	0.38178841206809155
48	0x3fc7c36258d6d5b1	0.18565015161372636
49	0x3fc855c75feb2bcf	0.1901177614548417
50	0x3fd2e204fe2a5887	0.2950451356968035
51	0x3fc34b79df5a116b	0.15074084668971052
52	0x3fc743a9e93d824d	0.18175243271527322
53	0x3fbbf1fa8bc55c13	0.10916105186821339
54	0x3f365cfc941bbd5a	0.0003412357947203036
55	0xbfc5df3bf0c8d37d	-0.17087506539396805
56	0xbfa3a6ad5ec66280	-0.03838102132721577
57	0xbf88dae0623d83e7	-0.012136223791175694
58	0x3fc6a2dbf83f747a	0.17684507009008482
59	0x3fd3776715594c90	0.30416276059003966
60	0xbfbc0a451019ffa4	-0.10953170436005039
61	0x3fcde0f4446a78fe	0.2334275564252905
62	0xbf93fc53f367f27a	-0.019517242175413042
63	0xbfc3dc25221e29ff	-0.15515579381856523
64	0xbfc98a961b534096	-0.1995418198989724
65	0xbf3f0ad5b880bd18	-0.00047366826811674886
66	0x3fc74f1e40391c64	0.18210199485676803
67	0xbfd037f70998e0d5	-0.2534158319208591
68	0x3fa14b3a90106c49	0.03377707489581689
69	0xbfc110cb75149a4a	-0.1333250352556255
70	0xbfb028908d9bbd3f	-0.06311896760211243
71	0xbfd5bdff78319361	-0.3397215532079852
72	0xbfd1222c9268e56b	-0.2677108220846864
73	0xbfb78adfdb1d4089	-0.0919628057429255
74	0xbfcae984bcb05709	-0.21025141919442827
75	0x3fd7a3ce38e01469	0.3693728976653064
76	0xbfb761a67b1ed09d	-0.09133377557629037
77	0x3fbf0637b2c26ae7	0.12118862261051398
78	0x3fc29ba255d6c9b9	0.1453745764861887
79	0x3fc5c5f1873087b7	0.17010325528195633
80	0x3fcc9eb33a638c66	0.2235931429960118
81	0xbfc58bb51359a8ad	-0.16832602925143672
82	0xbf91a957d47e7317	-0.017247555107689907
83	0x3fcf4e7dbb70a9aa	0.24458285953853692
84	0xbfc4c1fba356ea68	-0.16216989017069072
85	0x3fc3297485de0ffa	0.14970261131759327
86	0x3fc26dc6d9d3fca6	0.14397512088905734
87	0x3fbff6e8dd3f1471	0.12486129189990593
88	0x3fa556785cb3df91	0.04167534000038054
89	0x3fcae520e02389e9	0.21011744446066352
90	0x3fc918274788e62c	0.1960496043482619
91	0xbfd1164cad7aad66	-0.2669860548146147
92	0x3fca88aeeb0d0de4	0.20729624249552991
93	0x3fc4eb4a4b2b41f9	0.16343048735008361
94	0xbfc8fc47f823e61c	-0.195199009096357
95	0xbfd24f7b74066dae	-0.28610121088578466
96	0x3fc1d32bfa71bcb1	0.13925695160603405
97	0x3fd3b6afa800611b	0.30802527815241526
98	0xbfc3286e5e30b731	-0.14967136000762474
99	0x3fd387b436f195be	0.30515771260828817
100	0xbfd246c502d2cd3d	-0.2855694320271203
101	0x3fbf8929d75183d6	0.12318669802472412
102	0xbfbd9f8aa63ed67a	-0.115715661608954
103	0x3fc8f647b67471a5	0.19501587304047266
104	0x3fd31fb494f3fdae	0.2988101439113632
105	0xbfd04e0c9e30f571	-0.2547637505375269
106	0x3f71b1365ed62033	0.004319393524731696
107	0xbfa8e91c1c187f58	-0.04865348666157726
108	0x3fcc69469bc1e17e	0.22196276288356026
109	0x3fc936d96fe9ae3c	0.19698636974804795
110	0x3fc5c93180b668aa	0.17020243439475752
111	0x3fb7c11937695a9e	0.09279019930668617
112	0xbf8c553afedd7644	-0.013834439185013932
113	0xbfc1f48527cf6b70	-0.14027466243609465
114	0xbfcdcccf28b2d1bd	-0.2328127812121589
115	0x3fd377edd3967070	0.30419488585335497
116	0xbfc0268659242308	-0.1261756835231369
117	0xbfc54af272d34ed1	-0.16634970289907483
118	0x3fb1be701d7b8fbb	0.06931210250655699
119	0x3fd1c0cf4b6b5057	0.27739317288547255
120	0x3fb0df5cbd2e7895	0.06590823763551364
121	0x3f856f7715a1628b	0.010466509196861004
122	0x3fcd50d19d62eb09	0.2290288942802692
123	0x3f947ca3ab3823a4	0.020006711316486694
124	0x3fd43d9882c78129	0.3162595059530014
125	0x3fb064f1c0ee8e9c	0.06404028854609084
126	0xbfd03a94fc90d5c0	-0.25357556023240235
127	0xbfd31b36cbe7f7c1	-0.29853601372439803
128	0xbf94501da309566d	-0.019836867404896475
129	0x3fb82b7ce74b441d	0.09441357275797242
130	0x3fc164100799217c	0.13586616869930512
131	0xbfc8b76a22550fd5	-0.19309736896877774
132	0xbfd5436783d52bfa	-0.33223903536116917
133	0xbfd3644a056d1a2c	-0.302996163653378
134	0x3fc106729705db8e	0.13300926565326815
135	0x3fd195fc84649b33	0.27477944306376684
136	0xbfd1306fc21cca22	-0.26858133274359564
137	0xbfadf5ffe69b6294	-0.05851745309855008
138	0x3fc07f338799f1f3	0.1288818752399404
139	0x3fb68f897aad3736	0.08812770123514899
140	0xbfc0f851c5d50560	-0.13257810745021015
141	0xbfd1a9b175835a0c	-0.2759822509373471
142	0x3fa28a0f9ca7ee14	0.03620957171730424
143	0xbfbf47a5f47808c1	-0.12218701570967296
144	0x3fa7d9ca5fec1fc4	0.04658348484923594
145	0xbfce671c8a0222a4	-0.23752171267212419
146	0xbfbee49175d07e7d	-0.12067517401055201
147	0x3fd15e84e0e59a10	0.2713939853914846
148	0xbfca9842d7aa379a	-0.2077716401149104
149	0x3fd113966acc0aad	0.26682053021810753
150	0xbfe0a243bb0e73dd	-0.519807687134399
151	0x3fbf932378508bd7	0.12333890616768826
152	0x3fd5df6c7be51dd5	0.34176170443649073
153	0xbf67f7df3d959f2f	-0.0029258117835303725
154	0xbfd030e6324a4190	-0.2529845706094642
155	0xbfcaa7ff0cc0e38c	-0.20825183985450868
156	0xbfd4952ed8bf0742	-0.3216054073965219
157	0x3fc8a87c5a916f33	0.19264177725096374
158	0xbfc1f09b2f2186df	-0.14015521813694584
159	0x3fd5b31a9107024f	0.3390566269190786
160	0xbfa69d2b36d4741d	-0.044167852824309
161	0xbfb2b0978741c780	-0.0730070786683239
162	0xbfde42689cb83131	-0.47280326180113535
163	0xbfd4b0043b6de7b3	-0.32324319652218064
164	0xbfe02689736f95f0	-0.5047042135817588
165	0xbfa47e760bd20533	-0.04002732176105397
166	0xbfa47cb7305f70ee	-0.040014004378209
167	0xbfaa754b25bd52ca	-0.05167612872779655
168	0x3fc8c1c7e0ebdd47	0.19341371996390874
169	0x3fb582013af68e8c	0.08401496591118923
170	0x3fd3093cbf6908d1	0.2974387997857209
171	0x3fcc2616ea422fa7	0.21991239965825324
172	0x3f961560f4a990da	0.021565928395276802
173	0xbfd46bdaf432a30e	-0.31908296439591843
174	0x3fce8eb1ef952a62	0.23872970770237872
175	0xbfb2087712919215	-0.07044166758857558
176	0x3fa8a0f0147cfdea	0.0481028580675192
177	0x3fb34503d76d3eb3	0.07527183541719289
178	0xbfce68822938f22b	-0.2375643445283385
179	0xbfb9da8c1b3e02d3	-0.10099101700871964
180	0x3f7d4837314af9e0	0.007148948284053408
181	0x3fbbf37c8c065596	0.10918405932019079
182	0xbfbef7c5669a960c	-0.12096818690277916
183	0xbfd01fd5a91f8ded	-0.251943030509408
184	0x3fd0d34f9b08beef	0.26289739742331525
185	0xbfcc8ef65c4cc3cb	-0.2231128645594523
186	0xbfd2c79f5e2d6031	-0.29343399235722517
187	0x3fcfe498e717b43e	0.24916373523538654
188	0x3fce6b429119104b	0.23764831623896251
189	0xbfb28dd43b794b2a	-0.07247663928982875
190	0xbfbe18a878e3a64e	-0.11756375266454563
191	0xbfb98e0fdaaab765	-0.0998239430288926
192	0xbfaf7326ecd93a54	-0.06142541543214422
193	0x3fbb3f8c7ed6157d	0.10643842789257536
194	0xbfba30343bdd7179	-0.10229803525493776
195	0xbfcfd62668f562c1	-0.2487228405468809
196	0xbfb49cf75294fa17	-0.08052011266861601
197	0xbfb7fb29e885e63b	-0.09367620398361336
198	0x3fb5760e273870ba	0.08383263070612915
199	0x3f899f737ee6754e	0.012511160192668538
200	0xbfb29e33080b7ee6	-0.07272643038185897
201	0xbfbdceed8dff5d66	-0.11643871990906049
202	0x3fd10e99fba64012	0.26651620459688374
203	0x3fd3238b01b7c301	0.299044372251089
204	0xbfcb1f624d612e1b	-0.21189526346493967
205	0xbfc2573a6c65ef46	-0.14328699391250604
206	0xbfb0de87cf8bc6b0	-0.06589554612198856
207	0x3fcaf76cc059d0bd	0.21067580597048688
208	0xbfb84fb0d31a099c	-0.09496598390436478
209	0x3fc3398edc3f7f94	0.15019403223322725
210	0x3f99d1567cd5607d	0.02521262299464454
211	0x3fc17b379c90e029	0.13657279152698834
212	0xbfc5de242d3eaf17	-0.1708417149469532
213	0xbfb7dc1c6ba1efba	-0.09320237758396291
214	0xbfc60ccb180bdc56	-0.17226542162072417
215	0xbfb78e9e9cd6aaf5	-0.09201995209756915
216	0xbfc670f9fb8bc655	-0.17532276899833002
217	0xbfc6533630e2aa89	-0.17441441905005586
218	0x3fd41539b91a6cb9	0.3137955005310676
219	0xbfd1ab33f3f27ae3	-0.276074398259807
220	0xbf9338af687153f8	-0.018770924329448463
221	0xbf9808c84873ce29	-0.023471002027646435
222	0xbf8eb20d14e6d31c	-0.014988043022506718
223	0xbfd12cdc282fa8e5	-0.26836303638869047
224	0xbfc4a950d58671dd	-0.1614171068766969
225	0x3fc2879aec5affd8	0.14476334133905655
226	0x3fce749b0cef8a03	0.23793352252603492
227	0xbfd2c13a55e298d4	-0.29304369342061176
228	0x3fc008e441b68127	0.125271350942975
229	0xbfc99a013d3016cf	-0.20001235473335163
230	0x3fd2fab63c3a8f8a	0.29655223733629354
231	0x3fc3d894172235a5	0.15504695062228993
232	0x3fc13d8d51b73032	0.13469091882723344
233	0xbfbd4ce986c13e8c	-0.1144548372260436
234	0xbfa25552e896ccfb	-0.035807219402522926
235	0x3fc9b3b8ce4a3c47	0.20079717705491104
236	0x3fb0cca4130286af	0.06562257255657288
237	0xbfd03b0ed2145d92	-0.2536046077306874
238	0xbfca2966711ba980	-0.20438843272070173
239	0x3fc6ddaa62640377	0.17863969616157835
240	0xbfb245e30ed45122	-0.07137889015240664
241	0x3fbe305846d7fdc1	0.11792518357832817
242	0x3fc0a1cbd1f787bc	0.1299376273373677
243	0xbfd10e1f4834cc7a	-0.2664869504107582
244	0x3fd19ad8915dd6c9	0.27507604785874357
245	0xbfcf580a53ed5952	-0.2448742780495175
246	0x3f78e619bbd6bb9a	0.006078815958445194
247	0x3fcd4db8f4dc449c	0.22893440204692161
248	0x3fce91ed87da588e	0.23882836469119123
249	0xbfc12780b6aa66c0	-0.13401802939625007
250	0xbfba08ad6cba1ae1	-0.10169490723101716
251	0xbfd330be30dfd1ab	-0.2998500325477617
252	0x3fc8f197ba888090	0.19487282379214266
253	0x3f68efff1ae368b1	0.00304412675096185
254	0xbf8f3cdc8297c459	-0.015252802596451941
255	0xbfc0a027589ffb3a	-0.12988750293149015

bias f8 [30]
0	0x3fb19d7218d51202	0.06880868059403869
1	0x3fc01b642c6c0e38	0.1258359162239786
2	0xbf767835a4c4af99	-0.0054857345060489665
3	0x3f7e75c9910fd3f1	0.007436549539296942
4	0xbf97237765e341bb	-0.0225962310731249
5	0xbfc1add81bb36793	-0.13811780312135777
6	0x3f97878ecc6161b7	0.022978049492253762
7	0xbf588dc98c57d040	-0.0014986484760557556
8	0x3f495ba4115cb628	0.0007738638985068146
9	0x3f5496152182d25c	0.0012564855915516903
10	0xbf712bfc984bdf50	-0.004192339609964638
11	0xbfa4b7dc85f6ab94	-0.04046525130555448
12	0x3f6d83703a32a7f9	0.003602713769926599
13	0xbf8430d645da2db3	-0.009858774191591068
14	0xbfb2838506ed83b0	-0.07231933039794458
15	0xbfa5df71171a8d46	-0.042720350332525345
16	0x3fa22e12fd618ce6	0.03550776808767768
17	0x3f645916a5e7be76	0.002483886942392928
18	0x3fb543211f9238c5	0.08305556317120295
19	0x3fa218be11bc4eab	0.03534501997469638
20	0xbf9d0759b7e31649	-0.028348352287841192
21	0x3fb9abfc5bec4512	0.10028054470264561
22	0xbfcad83a44bf5686	-0.20972374302680324
23	0x3fb5027e06bb7626	0.08206927933084582
24	0x3fa20666705cb132	0.03520507928473861
25	0x3fb53b0b49ca7323	0.082932191386544
26	0x3fa50fe29d927426	0.04113681958663333
27	0xbfa1c30e7b125a0c	-0.03469128849353717
28	0xbf7643a50ee3e2d9	-0.0054356048187791045
29	0xbf9c7227a253268e	-0.027779216082115137

weight f8 [1, 30]
0	0xbfd50b7c4e4c3968	-0.3288260235430216
1	0xbfdcdc5ffd7374d3	-0.45095062018465376
2	0x3fd0c3024fa78839	0.2619024064898699
3	0xbfb2113034b249c4	-0.07057477270635731
4	0xbfb391f3572d7877	-0.07644577864036416
5	0xbfe2bad57ff864f5	-0.5853068828029381
6	0xbfc2eee38158edfb	-0.1479153043345461
7	0xbfb3b37e8aa38101	-0.07695761570676397
8	0x3fb62d1ed18f8ebb	0.08662598243932511
9	0xbfb0d68939176e0c	-0.06577355998836526
10	0xbfbbbaddbcf4bc28	-0.10832010138686654
11	0xbfced073baf126b8	-0.24073645236994934
12	0x3fc3572ed407e56f	0.1510981116587504
13	0x3fe35dc70a86ccc6	0.6051974492642322
14	0xbfd449b57042921d	-0.31699882471937874
15	0xbfe292eb8a621116	-0.5804345801157378
16	0x3fdffbd2cef3d02b	0.4997450848597988
17	0x3fc1bbc457886441	0.13854269289075385
18	0x3fe6cf721a66e7d2	0.7128229633010454
19	0xbfb1ab0fb9b9c88a	-0.06901644024199718
20	0xbfd0047ee37e0d0e	-0.2502743932347621
21	0x3fcdde78921206d0	0.23335177547783426
22	0x3fe08fe75cef2cde	0.5175663771746277
23	0xbfcbbef914fbe954	-0.21676553272829813
24	0x3fd84b5f86fe43a8	0.3796004122059977
25	0x3fcf9539797bb2be	0.2467414706401509
26	0x3fc731c0667f6882	0.18120579724092428
27	0x3fd8c06d5bcf02d2	0.38674482312857805
28	0x3fd1a1b62d5214b9	0.2754950945457711
29	0x3fa17a893edae165	0.03413800136826487

bias f8 [1]
0	0x0000000000000000	0.0
