AONN_BFGS/BFGSNN/steady_NS/results/AONN/AONN_01mu_t1/u.pt (torch, 19603 bytes, 8 tensors)

weight f8 [30, 2]
000000 7c bd 0b cc 73 7a bc 3f 4c cd ee 79 66 b0 d0 3f
       0.1112434743079031 0.2607666197538563
000010 ca 7d f7 20 44 e2 b6 3f 70 6a 65 2d 7a 1b d5 bf
       0.08939004711964241 -0.3298020785638647
000020 f0 05 54 76 d7 1a 93 bf ff f7 b2 a0 a8 7c dc 3f
       -0.018657080266171577 0.44510856335898547
000030 4f 25 9c 7a a5 48 da 3f ba 3f 3b a0 c9 01 c7 3f
       0.41068398450496074 0.17974205325890386
000040 4a 3f 5a be 48 f1 c6 bf fe 62 2c 22 fb 7b b9 bf
       -0.179238408036776 -0.09954804977713747
000050 3e 46 35 b0 40 09 d0 3f 2b 9c 22 92 b4 ee dc bf
       0.2505647393018967 -0.45206941863074473
000060 51 2d bf 15 e0 11 c4 3f 4f e1 a0 8a ed c8 dc 3f
       0.15679551183562038 0.4497636655610408
000070 32 19 2b 69 b3 5a bc bf 87 9f 31 9a 7e e3 d0 3f
       -0.11075898473345516 0.26388516481392127
000080 c1 a9 42 66 d9 87 bb 3f ef 8d 07 e8 3d 0c d6 3f
       0.10754164454070915 0.34449718150264536
000090 19 ef f6 ad 6f a8 ce bf 5b da a1 8c a8 58 d0 3f
       -0.23951526636471313 0.2554112790452671
0000a0 28 a8 ad 4a a0 b2 ce bf 17 d0 fb 65 09 33 d8 bf
       -0.23982623716739337 -0.37811503371563177
0000b0 d1 44 4b 9a be 8e 9d 3f e7 dd 6d 3e cf 99 ca 3f
       0.02886483971343951 0.20781889484690838
0000c0 83 3d e3 57 66 0f c3 3f 74 7f 37 52 ed 4a c3 3f
       0.14890746394528884 0.15072409166804912
0000d0 08 48 41 c9 24 72 ba 3f ff 9f 03 62 f2 e7 d0 bf
       0.10330419457866935 -0.2641569096726925
0000e0 e0 3c bf ce f2 16 c8 3f 58 0e 1e 67 cc 84 c2 3f
       0.188200331640906 0.14467768702535255
0000f0 c3 2d 2e 60 1f 53 d5 bf ad c6 ee 22 d3 c1 d6 bf
       -0.33319839851966665 -0.3555801240100703
000100 83 84 50 be a4 fd 5f 3f c3 3e 92 20 f1 c7 d3 bf
       0.0019525631735251299 -0.30907848530567267
000110 a4 97 f5 e6 40 40 9d bf e4 fa cb a3 a8 50 c1 3f
       -0.02856542024291965 0.1352740096844719
000120 b2 f6 7f 00 d1 97 b9 bf 8b 56 c2 55 38 d4 dc bf
       -0.09997278463557782 -0.45045288443484627
000130 6f c3 84 46 93 e0 db 3f ce 53 af 78 7c 80 d8 3f
       0.43558198820669863 0.3828421763003548
000140 45 3c 5a 95 b7 d6 cd 3f 16 5e 24 fd 77 b3 d1 3f
       0.2331151465664069 0.27657890053657874
000150 1b ff cc 7a c5 fc de bf 2f 08 a5 9e 1b 9a c2 3f
       -0.48417794220221005 0.14532799955674267
000160 9b f5 96 6c 56 3f d3 3f fa cc 41 13 79 5b d8 bf
       0.3007408199735779 -0.3805830658013317
000170 38 8a 3d 86 88 06 c3 3f df c6 d6 b1 ea 49 b8 3f
       0.14863688044268186 0.09487788049480227
000180 a6 18 39 27 3b 6d d0 3f f9 30 f3 41 0e 46 d1 bf
       0.25666693525671247 -0.26990086021829957
000190 9d e9 af 08 cd de d1 3f 61 71 dd ab fb 05 c1 bf
       0.27922368858676255 -0.13299508945318464
0001a0 d0 df 21 8e 58 3c d3 3f 1d 22 d5 0b 8b f1 d0 3f
       0.3005582225810004 0.2647426238586677
0001b0 57 6b 54 7f 1b 23 d7 3f 1e 55 87 1e 29 1d d5 3f
       0.36151778635546833 0.32990482312500713
0001c0 cc 89 fd 70 fa 23 c8 bf 43 c5 53 b0 dd 8b d2 bf
       -0.1885979701720103 -0.2897867414422601
0001d0 a1 dd 77 af 88 38 cf 3f 07 e1 29 a2 9b 15 af bf
       0.2439127785471387 -0.06071173052345285

bias f8 [30]
000000 45 3f b8 02 8e 61 81 bf c1 5a 86 60 a5 21 8f bf
       -0.008486852128981712 -0.015200893409923368
000010 6d 72 fc 81 96 54 b0 bf d5 5c 06 77 78 b8 86 3f
       -0.06379070924271853 0.011094037182188302
000020 a6 75 70 5f d7 c0 92 3f 26 78 fd a0 ca a4 92 3f
       0.01831375617995481 0.018206754756981657
000030 77 26 67 41 27 9e c0 bf 11 17 23 4a 96 e7 7c bf
       -0.12982645696165537 -0.007056796139470981
000040 1c 5d b4 33 3f 37 c2 bf 49 9d b4 da d4 e0 ab bf
       -0.14231100105892203 -0.05444970292802027
000050 ac 3d 09 73 b4 de b5 3f 36 db 59 e6 76 c2 a5 bf
       0.08542945679186315 -0.04249927102949018
000060 ca 80 b7 41 f5 ac 85 bf b6 1d 5b 87 39 9d a4 bf
       -0.010583797519700861 -0.04026202943128558
000070 8b c2 75 46 f4 5a 93 bf 80 b3 c4 a3 d8 c8 c8 bf
       -0.01890165023854932 -0.19362934109213015
000080 b2 bb ff ec e5 a6 a4 bf d4 fb 34 c5 59 b1 86 3f
       -0.04033583181432422 0.011080457049159088
000090 c5 08 dd fa e6 a4 aa 3f 23 6d aa 1d 7d d6 b0 bf
       0.05203935444161937 -0.06577283834706242
0000a0 fd cc d3 85 36 21 a9 3f d3 b3 94 7d 8a 4a a6 3f
       0.04908151992449381 0.04353745253533927
0000b0 25 a3 d7 d1 51 95 ae bf 51 f6 df e5 38 99 98 3f
       -0.0597329682021324 0.024021996527144932
0000c0 49 07 36 76 1f 75 ac bf 35 1e ea f5 b9 cc 9b bf
       -0.05558107679372754 -0.027148156771117555
0000d0 3d 65 19 b0 a0 70 b2 bf 37 b5 60 c1 52 9e 80 bf
       -0.07203106211945438 -0.008114477659627013
0000e0 50 36 25 10 a3 86 91 3f 0e 11 31 df 73 cc b6 bf
       0.017115161762651987 -0.08905719946875854

weight f8 [30, 30]
000000 c3 18 27 cc 4a 08 c0 bf 5a a3 16 32 22 97 bd bf
       -0.1252530571784459 -0.11558736536848127
000010 d9 c6 44 d8 15 c4 7c 3f 5c 16 61 9c 79 17 ce 3f
       0.0070229390442350876 0.2350914014406723
000020 46 5f 95 f7 d9 fc b9 bf a9 7d bc 56 f3 56 c2 bf
       -0.10151445669668843 -0.14327851996584443
000030 7d 6c 9c cf d5 01 d4 3f 25 40 09 4b b0 02 d2 bf
       0.312612011666438 -0.28141410186526833
000040 07 ca cd eb 11 f3 c9 bf dd 27 26 d7 5f 58 d3 bf
       -0.2027304078470282 -0.3022689438881779
000050 74 ec 2b 40 5e 62 d2 3f 62 2d d6 3e 8e 93 cb 3f
       0.2872539164233736 0.21544054096407722
000060 cc 29 eb 18 76 d8 d3 bf 33 21 1d fb 27 08 82 bf
       -0.31008675034959476 -0.008804619170078886
000070 2c 4f 37 42 ae f0 be 3f f0 ab e1 e7 4c 8a aa bf
       0.12085999600031688 -0.05183639841637688
000080 16 62 8e 52 d7 f0 cf 3f df 98 d5 04 33 d7 c6 3f
       0.24953738719047242 0.1784423612218182
000090 24 b9 99 e2 c5 4f d1 3f 3b 1a fe a7 6f 11 b1 bf
       0.27049395684197663 -0.0666723046434549
0000a0 1f c1 05 40 f0 a4 c6 bf 97 af 76 a8 85 40 bb bf
       -0.17690852285478173 -0.10645327914124746
0000b0 d7 1d 24 87 68 10 bc bf ef 80 61 16 9b 38 bf bf
       -0.10962537097304136 -0.1219574861183934
0000c0 d8 66 6a 97 b9 e2 c8 bf a6 d0 65 93 06 d9 ab bf
       -0.1944190968832149 -0.054390149586568
0000d0 3f b3 4c f3 40 75 be bf 37 51 ef 73 b5 c6 cd 3f
       -0.11897664966518294 0.23262661133652227
0000e0 fb 4b 74 16 dc 84 a3 3f c0 bc c6 b3 fa cc c1 3f
       0.038123014203073034 0.13906797197475917
0000f0 d3 27 40 f1 07 7a d1 3f c9 1b 79 61 0a 03 9c bf
       0.2730731826746908 -0.027355348777088815
000100 ea 0a 4b 38 a3 85 d0 bf 9b b2 d6 ba 33 37 af bf
       -0.25815659043671124 -0.06096803336854358
000110 61 5b 3b e4 b7 6e ad bf 2c 54 51 cf 9f 5c d0 bf
       -0.05748533879312024 -0.25565333600872253
000120 f8 34 93 02 6d 2c d4 bf f0 72 77 ff fa d6 cc 3f
       -0.31521153689830284 0.22531068300204238
000130 c2 0b a8 d9 39 9a b1 3f 6d c2 92 91 15 a1 c0 bf
       0.06875955165746375 -0.12991590126104616
000140 4d f4 b2 d1 8e 03 d4 3f 95 f0 f6 91 d6 41 c4 3f
       0.31271715620443247 0.15825922133615636
000150 99 c4 e4 3a 67 ab cd 3f fb d6 62 83 37 80 a6 3f
       0.2317933118406799 0.043946966923085605
000160 f5 08 96 d2 12 fb cf 3f 83 4f f5 6e 84 60 c4 bf
       0.2498496559383693 -0.15919547479517968
000170 b4 bf b0 a1 88 5f d0 bf 5f a2 67 88 25 35 ba bf
       -0.25583091535645086 -0.10237345295139154
000180 69 bc f8 5e 16 a6 ce bf 08 89 68 9c 1b ea a5 bf
       -0.23944358479772923 -0.042801726191344314
000190 14 b6 8d 8d 57 3c c2 3f ff 9a 0e 93 b9 3a d4 3f
       0.14246649181170368 0.3160842834571866
0001a0 8c 71 94 d2 86 70 c6 bf 69 68 fe e6 e0 e3 bc 3f
       -0.17530904085368737 0.11285215034004782
0001b0 1c 10 21 6e aa d3 c8 3f a0 24 c0 77 52 cf c1 bf
       0.19395952584648135 -0.13913946959681756
0001c0 90 ce 6f bd 11 e7 cf bf eb e0 6e 89 da 51 c1 bf
       -0.2492391753181562 -0.1353104754505304
0001d0 db c1 82 33 07 79 c6 bf 8a f6 3c 90 9f 10 82 bf
       -0.17556848540472356 -0.008820768918322192
0001e0 80 77 20 92 9a 33 a8 3f 41 35 cf 65 56 97 d3 bf
       0.04726870569014263 -0.30611190740895117
0001f0 37 17 7d ae 84 25 b9 bf 56 61 62 03 55 55 95 bf
       -0.09822873363472416 -0.020833328563271657
000200 0a ff 14 be 7b 53 ae bf 28 98 6a d7 e6 e5 c2 bf
       -0.05923067756020657 -0.14764104383829246
000210 48 06 cd ca ff 78 a4 bf a2 71 31 37 97 19 ad 3f
       -0.039985650545088236 0.056835866439288965
000220 98 2e 7e 08 72 f1 c0 bf f1 a6 d2 77 0e 71 8d 3f
       -0.13236833014194782 0.014375794440940367
000230 06 44 b5 00 21 17 bc 3f de ca 12 33 16 2a c4 3f
       0.1097279192665753 0.15753438466852904
000240 ea b4 df 72 96 91 ca bf 5d c6 a3 5c 5e 2c c9 bf
       -0.20756798371386448 -0.19666652224946093
000250 04 71 66 e7 7a f2 c0 bf 93 e3 35 82 39 aa b2 3f
       -0.1323999051936725 0.0729099219223726
000260 5f 75 0e c7 61 c4 d2 bf 27 80 54 70 4a f3 a0 3f
       -0.29323620261296485 0.033106161319892906
000270 7f 1a 0e ea 5a 5c c2 bf 5c 94 f2 6b f4 73 c1 bf
       -0.14344345501395492 -0.13635115881803272
000280 a7 61 fc 59 fe b1 cc 3f 32 e0 4c 8e eb fa b6 3f
       0.22418193239060466 0.08976623748901671
000290 e8 69 98 ec 7d 99 d2 bf 76 53 1d f9 eb 2a d1 bf
       -0.2906184015752431 -0.2682447369345974
0002a0 51 67 16 41 21 ad c9 bf c8 91 51 4f f0 a4 ba bf
       -0.20059600523091572 -0.10407926498880393
0002b0 da 6e 60 16 55 c4 d1 bf 68 93 64 a5 9b a4 c7 3f
       -0.27760817704414154 0.1847109372694391
0002c0 b7 2a f4 0b d1 42 d4 bf ad 1c 0c b1 09 43 bf 3f
       -0.3165781609283544 0.12211666653103022
0002d0 fa 63 d1 42 45 53 c6 3f 22 e8 3f 9e a6 68 bb bf
       0.17441621553987813 -0.10706559527889728
0002e0 a2 f6 22 cc 6f 37 be 3f 36 7d 5c 79 d7 5a c9 bf
       0.11803339704325791 -0.19808476854175588
0002f0 34 8f c5 11 7b a3 c8 3f d2 c6 09 14 fb 18 d4 bf
       0.19248903625259006 -0.3140247054753732
000300 b5 79 55 83 69 2d c4 bf d7 2f da fc 96 97 ca bf
       -0.15763586914813535 -0.20775115343383163
000310 47 df df d8 58 5c cf bf 3f 17 d4 c6 3c 7c cf 3f
       -0.24500570859503965 0.24597892483159886
000320 ef 8b fa 23 7a 04 cf bf a6 d4 5d 31 5b 1e c8 bf
       -0.2423241305997119 -0.18842639837717917
000330 3a c0 e1 31 41 3f ce 3f 8b f6 ca 7c 50 55 ba bf
       0.23630537925373735 -0.10286429449748817
000340 39 ab 8d 18 13 3b b2 3f 43 37 9e 0a 78 41 82 3f
       0.07121390675972074 0.00891393453982981
000350 55 30 71 66 a2 e3 c2 bf 6b 6a b9 0b 22 82 c2 3f
       -0.14757184984262275 0.14459634373163807
000360 54 23 05 2a 2e bd 9d 3f f9 c6 ae 28 a1 32 aa bf
       0.029041978182508046 -0.05116752263655928
000370 d8 04 da d2 e7 7c b4 3f 95 ef 19 3d a1 a8 b8 3f
       0.08003090760941534 0.09632308713656663
000380 d7 67 2f 9f dd fb d4 bf 17 c6 78 b2 5d 2f c8 bf
       -0.32787266297748147 -0.1889454957431986
000390 5e 83 99 d4 00 b9 a7 3f dd 69 9e 25 c1 f5 b1 3f
       0.04633333773813918 0.07015616577556423
0003a0 d4 5e a0 98 95 52 a9 3f 89 4e 11 4a d4 7f be bf
       0.04945819366565521 -0.11913801964083794
0003b0 b3 48 ed b2 c3 f6 bc 3f 18 c2 7a c3 51 5a 53 3f
       0.1131403266747693 0.0011812017891480505
0003c0 c1 ee 6b 3e f2 7b cc 3f f6 96 b8 97 c6 2b af bf
       0.22253253982477442 -0.06088085748733178
0003d0 5d 79 6c 23 9b 61 ba 3f cc 1f b3 6e 8e 24 c9 bf
       0.10305184950673181 -0.19642811208018285
0003e0 e0 87 b1 5f 64 53 97 bf ac 7c 05 88 70 9c ba 3f
       -0.02277905305925987 0.10394957848392278
0003f0 6e a1 e0 a7 89 d7 d1 bf bb 29 42 6d d4 5d 94 bf
       -0.2787803782871582 -0.019889182251554987
000400 63 aa d2 22 d9 49 cd 3f 24 d6 2b 49 57 46 ca 3f
       0.22881616783463973 0.205271635749953
000410 8f e4 2c 14 56 f7 cd 3f f3 54 87 cc b2 c0 d2 bf
       0.23411060319066165 -0.29301137898921964
000420 23 82 f6 ed 29 1f c0 3f f3 2d 3f 4a 19 be ba 3f
       0.12595104331286774 0.10446317732492343
000430 61 7f c0 32 36 f8 c7 3f 06 65 d9 fc f0 a1 a0 3f
       0.18726232030985115 0.032485514512425026
000440 e6 e4 fc 82 75 73 ce bf 73 53 38 58 03 d0 c1 bf
       -0.23789852996723154 -0.13916055495851828
000450 23 5b 9d fe c4 75 d3 bf 8f af b0 84 71 9f c2 bf
       -0.30406308045114566 -0.14549082736027372
000460 1b ad 1f 84 68 4e d3 bf 6d d7 f5 80 1a a1 a8 bf
       -0.30166066076954373 -0.0481041223928703
000470 4c 8b dc b0 79 9c d2 3f 90 6f ee 71 a2 6c d3 bf
       0.2908004977381793 -0.30350552679168974
000480 da f4 10 92 6b c3 91 bf 9b 84 c7 76 80 20 c1 3f
       -0.01734703139321856 0.1338043766000155
000490 bf 16 95 53 60 3b 76 3f 63 d5 19 79 c6 72 cd bf
       0.005427719378820305 -0.23006516373758776
0004a0 f8 00 f5 29 25 3c c9 3f 6b 82 61 10 f1 f9 a1 3f
       0.19714798496898545 0.035110028504963996
0004b0 8d 45 eb 41 a8 f8 cd bf df b4 72 ae 16 94 b2 bf
       -0.2341509172315849 -0.07257215270029203
0004c0 c3 a1 02 38 ce 78 d2 3f 3d b4 70 5f 15 92 a0 bf
       0.28862338514093383 -0.032364528561040086
0004d0 f6 ef 56 5f a1 f0 d2 bf bc e9 71 4a 6d de be bf
       -0.29593691168315617 -0.12058146541122644
0004e0 66 64 b7 b4 0e f7 c6 3f 4c 2b 59 ff 03 02 d3 3f
       0.17941459487954886 0.29699802337988923
0004f0 a1 3c 3f 62 0a 8d a9 bf 1c 86 04 0c 5d 8d c3 bf
       -0.04990417908958845 -0.15275157057571753
000500 39 9a 4a cb 3f d0 b0 bf 23 cc 3b 84 72 73 92 3f
       -0.06567763055009203 0.01801852161493057
000510 fe f7 b3 94 5c 67 d3 bf 97 af 22 d0 30 6d cc 3f
       -0.3031836940934908 0.22208223498216448
000520 12 7b 6a a6 b1 ba d3 bf 53 53 86 c3 ba d8 c3 bf
       -0.30826989413792305 -0.1550515608511441
000530 9c c0 49 43 f6 a3 c7 3f 87 3a a6 fa 64 03 d0 bf
       0.18469122205306554 -0.25020718076204
000540 d2 3b 12 8b ca a9 c2 3f 5f 4d e4 1f 22 de a2 bf
       0.14580661573970005 -0.03685099257759349
000550 5f 82 2c 04 b2 7f bc 3f b2 59 bd 5a 97 3b c8 bf
       0.11132347680951103 -0.18931857996603935
000560 74 f6 7d d4 2d 2a d3 3f 2c 57 84 bb 93 59 91 3f
       0.29944940329719505 0.01694327194225946
000570 67 7a 95 27 63 82 c7 3f ad 70 f8 ca e5 aa d4 bf
       0.18366660530860487 -0.3229307634480943
000580 df 31 ec 87 3f da c9 3f bc 60 7c e7 e0 47 d1 3f
       0.20197290551040134 0.27001211744346754
000590 a5 3f 98 da 86 2d c7 3f 6e 67 df e5 c7 cf cf bf
       0.18107686685152405 -0.24852846836329995
0005a0 13 2b 0f 33 5d 49 d0 3f 63 31 78 d1 77 47 bd bf
       0.25447778688673955 -0.11437176574708512
0005b0 ab bb 01 87 bb 32 d0 bf 67 c9 b3 ea ac 58 c6 bf
       -0.25309646782164447 -0.17458116016457412
0005c0 e0 c4 3e 97 70 31 92 bf f8 9a 4a e8 e3 6d 27 bf
       -0.017766722899698162 -0.00017875105927097463
0005d0 26 f6 6e ef e8 5a b9 3f 69 78 65 02 ed 43 87 3f
       0.09904342504065564 0.011360026965743413
0005e0 54 d1 a5 c4 85 cb c3 3f df 04 e5 09 9c a0 d2 bf
       0.15464851476611818 -0.2910528275134094
0005f0 71 4d c8 af 19 13 9e bf ad 5b 95 00 3e b9 d2 bf
       -0.029369737008960898 -0.29255628640151593
000600 b6 c5 12 2d 3e 8a a0 bf a5 ca 86 7a 38 03 b1 3f
       -0.03230470943652668 0.06645539275522568
000610 eb 73 3b 01 4f c9 c6 bf 46 c1 4e fd c2 67 d4 3f
       -0.17801845131080482 0.318833110209216
000620 cd f3 c8 b7 7f 2d c7 bf d5 83 67 6d be 6f c9 bf
       -0.18107601617694372 -0.1987226518822626
000630 05 1c 08 3d 73 52 a6 bf 38 33 89 e9 0c 67 ca bf
       -0.04359779472365947 -0.20626984980699503
000640 fe 86 64 8c 1b 8f c2 3f e8 e6 56 b3 01 cf d0 3f
       0.1449922976981312 0.2626346827852175
000650 16 02 dd 82 ba 5e c0 3f fc 36 91 a3 c1 40 d2 3f
       0.12789088620958527 0.28520241711963457
000660 bf d5 72 be 6b 97 c3 3f 14 c7 9a 0c 76 9d a8 3f
       0.15305849837538507 0.048076333082816586
000670 4b d3 0f 03 86 ce b5 3f 45 eb d2 be b4 6c 6b bf
       0.08518254828215992 -0.003347733515139425
000680 4d 4a 22 0b 71 44 b4 bf 90 a7 5e 3d f8 b5 d2 bf
       -0.07916933557343349 -0.29235654824389545
000690 7c c8 bc 94 7a ef d2 bf c6 a1 b6 a6 db 3d ca 3f
       -0.2958666279329305 0.20501275673201586
0006a0 02 65 ed a9 0d 3e ce bf dd c6 7f 02 f0 1e ca bf
       -0.2362687186930899 -0.20406913873698942
0006b0 73 6e a4 a9 5e 54 d2 3f 7b 73 f1 b7 63 c5 d1 bf
       0.28639952246314876 -0.2776727005310062
0006c0 9f a9 22 e9 62 9b c0 bf 4d f2 52 d1 6d 53 ad 3f
       -0.1297420156818818 0.057277137567755966
0006d0 1d 08 d9 8d be e8 be 3f 3b 3b cf ed 55 32 be 3f
       0.12073889697151725 0.11795556121726929
0006e0 f9 c5 ae b5 c7 cf 78 bf d5 5d b0 73 17 e4 d0 bf
       -0.006057529560096858 -0.2639216069960331
0006f0 b1 13 c1 08 ac ea cc bf f9 56 4a 86 a4 45 c2 bf
       -0.2259116213555479 -0.14275032574794702
000700 71 9b 42 5f 42 97 a0 bf 3e 79 9d 72 08 6b b3 bf
       -0.032404016617241356 -0.07585194395276049
000710 2d 03 e2 60 74 4d ca 3f e8 60 1b 3a c4 98 c2 3f
       0.20548872690781064 0.1452870639539079
000720 29 c5 b1 3c cf 23 d1 bf 35 67 fa 58 f7 b6 b3 bf
       -0.26781063964070256 -0.0770105926734715
000730 95 c8 fe 33 3c 89 cc 3f 6c 4b 4a 43 c7 6a c4 bf
       0.22293808497267223 -0.15950861726431798
000740 3b b4 6b a7 ed cc ab 3f 2f 1a 1a 48 46 7f d0 bf
       0.05429785412511775 -0.257768221294472
000750 db b0 38 c0 a8 d5 d1 bf 22 80 54 5f ae c7 d0 3f
       -0.27866572162271347 0.26218756970956936
000760 21 b5 90 ba e9 64 98 bf 6c 7c 26 2d 6c 1f be bf
       -0.02382245255664828 -0.11766697027495504
000770 79 57 f1 19 fb 89 d1 bf 3d 4d 50 ab bd ca b8 3f
       -0.2740466836306648 0.0968435805555616
000780 07 cc 99 92 87 29 c4 bf 27 25 16 d7 20 42 c2 bf
       -0.15751738222351738 -0.14264307501097415
000790 0f 4d cd 37 9b 26 ca bf 5d ff 35 b8 8e 2e c8 3f
       -0.20430317139344153 0.18892082209276398
0007a0 18 7d 33 ae 16 18 c7 bf 49 77 b3 dd c5 2a bb bf
       -0.1804226255980914 -0.10612141287444134
0007b0 de 4a ba 88 9d e2 d3 bf b0 38 9e a3 c0 07 91 bf
       -0.3107065043670171 -0.016631135927632712
0007c0 d3 a8 14 d9 7a f9 9f 3f 1e 47 89 93 60 1e c3 3f
       0.031225127696566112 0.14936454013746298
0007d0 21 0d 4e 38 54 ee cd 3f 47 4e 9a 64 ae 3c b2 3f
       0.23383572339307881 0.07123842197534556
0007e0 dd 5b 40 e8 0e be cb 3f 4a ec df 65 5b 87 d3 3f
       0.21673761692429042 0.3051365370626554
0007f0 9d 7b e5 28 59 99 d1 3f a7 a8 c6 bc d8 64 bb 3f
       0.2749846362475468 0.10700754746236162

bias f8 [30]
000000 92 87 76 1d 83 11 9a bf 33 a5 c3 24 a4 43 81 bf
       -0.02545742862060469 -0.008429796573596526
000010 5e 9d 51 d7 d2 ae 51 bf f9 65 50 45 18 75 94 3f
       -0.0010792788500795995 0.019977931242555844
000020 39 ee 14 0e 62 43 b6 bf 12 eb 59 cc 1a 8b 8b bf
       -0.08696568340104073 -0.013448914872460391
000030 50 cd 27 6a 67 34 ac bf 94 33 e3 01 12 6f 7c 3f
       -0.0550873105129549 0.00694186243181329
000040 db e4 46 32 73 2d 7e bf 97 68 58 6f bd e1 97 3f
       -0.007367563234248221 0.0233220671853834
000050 24 0d 83 84 ef b7 82 bf 44 f8 b6 77 9c 73 8e bf
       -0.009139891845171784 -0.014868948367503639
000060 fb 64 13 4e 22 8c 9e 3f cd b0 9e e6 ce 63 25 bf
       0.02983144380127543 -0.00016319180150271007
000070 aa ff 51 ea 90 15 9d bf 36 ab a9 15 e0 1d 6a 3f
       -0.028402580549027036 0.0031880737927187054
000080 a5 4a bb 91 d7 60 52 3f 1d 3f 76 0f f4 ec 86 3f
       0.0011217217606157928 0.011194140169009931
000090 d1 9a 68 2e 0f 63 9c bf 41 3a 54 eb 14 3e ac 3f
       -0.02772163124805155 0.05516114590328814
0000a0 71 70 c7 9a e5 46 9e 3f 5d 79 b3 0d d7 7a af bf
       0.02956732518383415 -0.0614840702271404
0000b0 3f d7 e4 98 8a e6 ab 3f c6 e3 d1 00 3b 1c 8c 3f
       0.05449326626187067 0.01372572036983567
0000c0 ec c4 df dc cb 1f 6c 3f da ec 4d f5 65 ee 82 3f
       0.00343313042594017 0.009243771122547196
0000d0 b3 36 09 3e 7d 6f c9 3f b9 fe fc a7 88 26 83 bf
       0.19871488122082823 -0.009350841166109946
0000e0 6c 5b 70 b6 77 3f 96 bf df 7e c9 aa 76 63 95 3f
       -0.02172648478525778 0.020887235807434897

weight f8 [30, 30]
000000 cb e6 31 0b 59 6e c1 bf fe 36 dc 9f 08 f1 d0 3f
       -0.13618004843356454 0.264711528886309
000010 8b 6e 1b 85 5d ff b9 bf c3 1e cc 56 05 dd bd 3f
       -0.1015528154343263 0.11665376061511794
000020 69 b3 ab 8a c9 5e b4 3f fb b4 c3 e3 d7 b4 c8 3f
       0.07957133899226466 0.19301890012085451
000030 49 ed 7f 78 d8 83 c9 3f 72 72 9e 46 e0 9b c5 3f
       0.1993361080529701 0.168819460374738
000040 f2 ee 5e 40 74 27 b4 bf f3 e4 61 4f 2a 7b bb bf
       -0.07872702189973405 -0.10734810293242329
000050 30 58 15 54 bc 47 c3 bf 2d b2 5c 61 b4 8a b7 bf
       -0.15062669854768407 -0.09196021439556352
000060 e2 35 d5 f9 16 ef cc 3f 88 4e 96 bc 15 49 b2 bf
       0.22604644011373326 -0.071427687207967
000070 80 d3 c3 cf 87 a3 d2 3f d6 4d da 3e 4a b5 ca 3f
       0.2912311104731131 0.20865753239614432
000080 23 93 58 e8 db 17 c3 3f c1 ff 76 88 44 f5 c5 3f
       0.1491656193258218 0.17154747641870752
000090 1c 92 df eb 0b 98 d2 bf 69 bc d6 4b 4d 44 71 bf
       -0.29053018602852076 -0.004215528429468576
0000a0 ff e7 55 8f c3 55 ac bf 11 29 58 d1 25 c0 d2 3f
       -0.055341826674478505 0.2929777664545706
0000b0 9e b4 bb e8 37 f6 9f bf 4c 8f 9f 3c 1b 86 c4 3f
       -0.03121268613806604 0.1603426023494826
0000c0 5b 43 39 81 df 65 d0 3f 8d 4b 25 be 54 e7 d1 bf
       0.25621783847332374 -0.27974432534136257
0000d0 d7 fe a8 b4 89 be 85 3f 2d 11 6b 21 be de d1 bf
       0.010617328477678196 -0.2792201353406821
0000e0 61 60 20 f2 c6 2f bf 3f 64 59 dd 76 86 0e c0 bf
       0.12182277118006503 -0.12544327548921352
0000f0 15 78 7a 5d 9d df aa bf 8f 73 3e 7d b5 5c cf bf
       -0.05248729482740103 -0.24501675239016804
000100 a4 26 bc 23 d5 b4 b9 3f 85 50 61 31 1d e5 99 3f
       0.10041553614078197 0.025288063181804894
000110 4f 95 d2 3a 7d da c6 bf 0e 34 d1 b7 29 62 b9 3f
       -0.1785427605838472 0.09915409791683791
000120 0c 68 8f df 74 67 bc bf 9f f9 e5 43 49 4f ca 3f
       -0.11095362146389237 0.2055446225676407
000130 ee 13 a2 53 43 7d c8 3f 92 2b 2c 64 33 eb b0 3f
       0.19132272323272964 0.06608887858980797
000140 06 3b 06 aa f5 bd d2 3f 99 21 19 69 d9 83 ba bf
       0.2928442154306342 -0.10357436004517807
000150 85 76 02 74 d2 f0 be 3f 97 03 e0 47 e9 58 c5 bf
       0.12086215336099755 -0.16677585610889586
000160 fc e6 66 33 21 e7 cd bf b4 07 a0 f1 19 c5 d0 bf
       -0.233616018389334 -0.2620301112766541
000170 95 30 5c 39 29 45 c3 3f 9f 02 1c 20 75 6d c5 bf
       0.15054812718188218 -0.16740287845461396
000180 5d c2 96 e8 dd 21 d1 bf 9f 3c d1 04 97 9c c2 3f
       -0.26769206727752765 0.14540374503346684
000190 7d d6 29 2b e6 43 a5 bf 91 8d 4a f4 1a 04 b5 3f
       -0.04153365399262741 0.08209389175549676
0001a0 3a 9c e6 4e cd 11 c9 3f d7 cf 3e e8 5b 8d d1 bf
       0.19585577347354094 -0.2742528694172938
0001b0 4a cd cf 5f 63 0d bc bf ab d4 c3 6d 58 b1 c9 bf
       -0.10957928742555115 -0.20072465285889982
0001c0 7a 69 20 17 9d e6 c7 bf 13 55 e8 b4 e2 5b ca 3f
       -0.1867252695963762 0.20592912515045522
0001d0 9d f8 54 d9 9e 67 b3 3f b7 f7 83 61 a3 59 a1 3f
       0.07579987340884249 0.033887010244128594
0001e0 c0 7c 0c 48 cc 37 bd 3f a6 9b db 7f f3 2b bc 3f
       0.11413265952113516 0.11004564162759198
0001f0 d2 a2 37 16 34 c2 c5 3f ee 45 53 94 30 78 d3 3f
       0.1699891193850563 0.3042108009804839
000200 35 4a cd f3 f6 d0 c4 3f fb 8c 8c 75 9c 62 cd 3f
       0.1626270952643424 0.22957187404345078
000210 57 5f 76 65 30 db cf 3f 27 fa 97 43 de 91 b8 3f
       0.24887661890238164 0.09597577238307818
000220 ec c0 62 cb 82 62 b0 3f 8e 80 c2 10 ac dc cd bf
       0.06400315728638234 -0.2332968789896807
000230 59 e5 86 6e c0 54 c7 3f 8b 25 e5 80 bb 13 d2 3f
       0.18227391621420955 0.2824543722859622
000240 07 96 18 83 e5 41 d1 3f 6a 47 fa c1 35 fc c7 bf
       0.26964700510356504 -0.18738433810772942
000250 8f 1a 55 c2 2f 1f c4 3f 42 ac 8b 87 f6 20 cd bf
       0.15720173825157643 -0.22756845110356677
000260 91 1d cc ec 1a c9 c9 bf 4b e1 35 4a 9e a1 ae bf
       -0.20144974291200105 -0.05982679992570413
000270 37 ce 1e e2 72 18 b4 bf 1f 10 6a de 1a 9a c6 bf
       -0.07849805851474732 -0.17657791004251153
000280 1b df 94 e2 cd f1 b7 bf a4 76 62 19 a7 d5 c1 3f
       -0.09353338987136477 0.13933266391261612
000290 0e d5 1a 5b de 7d bd 3f 1a 6c 4e be 3a 02 d3 3f
       0.115201852075945 0.29701107582667563
0002a0 c6 18 a0 b8 83 05 c0 3f fa d1 c2 9f 71 17 c0 3f
       0.12516829028044735 0.12571544934111484
0002b0 23 4f c0 d1 97 f9 c8 bf 48 15 c3 0e 15 47 d1 3f
       -0.19511697522886448 0.26996351663213547
0002c0 e9 1a 23 3b a0 66 b3 bf e4 f0 17 8a 62 bc b6 3f
       -0.07578469699647496 0.088812025751341
0002d0 be f8 19 1b 10 08 96 3f 2f 30 db 72 80 c5 ae 3f
       0.021515132574216216 0.060100568790943824
0002e0 56 0a 37 bb af c3 bd bf 21 ed c6 0b 62 f4 ca 3f
       -0.11626718826941249 0.21058297705699494
0002f0 87 bb fb 4d 67 bb c9 bf a0 a4 8e c6 d3 e3 c1 bf
       -0.20103160198001666 -0.13976523585487133
000300 1b 0a f4 3b 7b aa c8 3f 51 10 a8 b8 c2 63 c4 bf
       0.19270267894178592 -0.15929445282393087
000310 62 06 1d 6a d0 35 d2 bf a2 1b fb c3 5c 3c d2 3f
       -0.2845345531714881 0.28493422640570476
000320 23 dc 36 74 a3 12 a8 bf 66 ac 9c 25 06 3f b9 bf
       -0.047017200409236425 -0.09861792009603362
000330 7d df f4 10 88 e1 d1 bf 47 57 95 e2 12 40 a2 3f
       -0.2793903508750118 0.0356450940695781
000340 fd 15 83 22 9c 65 b8 3f 78 f4 2c a0 1d 53 c8 bf
       0.09530044405536127 -0.19003649064135053
000350 51 29 73 6a f8 c5 9c 3f d3 4a 65 5b f2 83 cf bf
       0.028098947045500925 -0.24621419394187302
000360 24 be 4c b3 36 dc 9e bf 65 ab 3f 47 77 6b d2 3f
       -0.03013692349776255 0.2878091998851942
000370 46 69 9b 40 e1 a6 c8 bf fc ed b2 06 56 67 cf 3f
       -0.19259277014391268 0.24534106566521519
000380 9a 76 4a e2 9a bd 9e bf 19 bd 72 e4 fc b8 ca bf
       -0.030020160733889335 -0.20877038149544871
000390 aa d2 6f 2d 4f 98 b4 bf df 2e 62 99 8d 81 c1 3f
       -0.08044905528351856 0.13676614751272262
0003a0 7c 18 c6 9f 45 85 b8 3f 63 36 b1 1b c4 97 94 bf
       0.09578356886604128 -0.02011019152660366
0003b0 4f 98 35 b9 1b 1a d1 bf 16 77 61 e5 75 10 d0 bf
       -0.26721852385378936 -0.2510046711012007
0003c0 12 a6 fa 01 a7 96 c9 3f b9 15 37 1b 26 22 71 bf
       0.19991004559169362 -0.004182957508822077
0003d0 ad 70 b1 b1 ed 5b d0 3f 44 69 b0 ac 47 af c6 3f
       0.25561086991161625 0.17722412044606461
0003e0 01 9f 8e d6 b1 54 c2 bf 9a dd 26 8c 55 e6 a7 3f
       -0.14320967651769226 0.04667918525540955
0003f0 2e f8 73 3a b1 58 d1 bf bb 28 d9 8a ab fc cc 3f
       -0.2710383482771047 0.22646087913228094
000400 e8 90 8e a8 d4 49 bf bf d6 5e 03 cc 77 a5 c2 bf
       -0.12222031703146607 -0.14567468129711497
000410 5b 6d 44 a7 4a 83 c7 bf af e5 3d 0e d7 4f 91 3f
       -0.18369420211170503 0.0169061281626221
000420 f0 06 d4 99 de 1c d0 3f 1d c3 70 99 02 8c bb bf
       0.25176205656326456 -0.10760513540368462
000430 f4 9e b8 2d e9 31 c1 3f 53 b0 f5 6d 43 31 ba bf
       0.13433565838317174 -0.10231419977725524
000440 5e a3 a7 ad d8 3b c9 3f 5a c9 fb 01 84 27 c7 bf
       0.1971388671802527 -0.18089342209675402
000450 c4 07 7f d0 d1 a5 b9 bf 75 59 0f 1f b2 04 d3 3f
       -0.10018645611037785 0.29716160805892083
000460 a6 05 0e 30 92 09 c9 bf eb 31 27 f1 7e 8e d4 bf
       -0.1956045851366472 -0.32119725751979783
000470 3e 86 e7 69 6d 57 cf 3f 6f 21 c1 e6 a0 f8 bb 3f
       0.2448555724250116 0.10926252015736336
000480 8c 34 c1 00 49 86 bf bf 91 7c 53 72 d5 c8 cd bf
       -0.12314277904916276 -0.2326914604409223
000490 a5 68 f0 00 51 fd 8a 3f 69 7b 01 be 19 9b d1 bf
       0.013178475228461226 -0.27509158663990846
0004a0 d5 b6 62 7e c3 ef b7 3f 61 e5 3b df a3 0f d3 3f
       0.09350225291810983 0.2978295974749781
0004b0 b7 f4 9b 2a e4 23 bb bf cc 3a f3 c3 10 73 cf 3f
       -0.1060164073969244 0.24569902007939104
0004c0 79 c4 2e ef 69 87 b7 bf 7e 89 14 4c 1e 24 7a 3f
       -0.09191000070019752 0.006382101391212534
0004d0 3d e1 62 40 e6 f9 d1 3f 17 5f 41 1a ba fa b0 3f
       0.2808776501438109 0.06632578984260494
0004e0 0e c8 bf f2 2b 93 cf 3f 68 2a f4 a1 ba ab c6 bf
       0.24667882302270566 -0.17711575420283343
0004f0 37 8e bd 4b 67 4f 85 bf 7c e4 e1 14 84 bc d2 bf
       -0.010405356406130923 -0.2927561000756851
000500 73 63 91 59 e1 bb b2 3f 9a 98 e2 59 48 bd cf 3f
       0.0731793254539193 0.24796394719050313
000510 dc 4e 05 01 73 04 8e bf 7e 50 75 81 20 df c7 bf
       -0.014656923741007181 -0.18649679490284038
000520 97 9c a4 ba c1 45 d3 bf af be 38 5b a0 c0 a1 3f
       -0.3011326143918693 0.03467274774118089
000530 4e 3f b8 08 19 b1 c4 3f 65 a4 53 06 00 0c bb 3f
       0.16165459562079793 0.10565185694180597
000540 94 9d ca d8 dd 26 d2 3f 5a 69 8b 2c 07 d5 c3 bf
       0.2836222283462686 -0.1549385993483366
000550 d9 d9 6a 07 61 a6 ba 3f 0a 07 e0 0b 14 5f 8d bf
       0.10410124236191311 -0.014341503727340239
000560 99 b8 18 b4 b2 b3 ca bf 32 0f 6e 18 fd 77 d3 bf
       -0.20860894960191415 -0.3041985262463981
000570 21 44 89 02 f2 70 cc bf da 3d 22 c1 d8 0c b7 3f
       -0.2221968185790795 0.09003977503947827
000580 9b 61 ef a0 ea ea b4 bf f8 4c ff d8 d1 48 c7 3f
       -0.08170954159812142 0.18190978141374337
000590 2d eb ca cd a1 da c2 3f 45 97 92 90 d7 f2 cd 3f
       0.14729712055653846 0.23397345122537608
0005a0 de 5d d7 01 56 91 b0 bf 15 49 71 95 a2 b5 d2 bf
       -0.06471765084221867 -0.29233612627025823
0005b0 ac 47 a3 2d 2e 62 c9 bf 1b ce 4e 64 07 ca bf bf
       -0.1983087275353318 -0.12417646597787561
0005c0 6d 0a 78 46 5c ba b0 3f b3 ea 97 f8 22 28 c4 3f
       0.0653436348002658 0.15747487200117902
0005d0 58 7e 12 d8 a0 dd b6 3f b9 50 c4 c2 b2 ae c7 bf
       0.08931927943421536 -0.18501886854267527
0005e0 7f b7 9f f6 e6 ce b6 bf 72 ea d4 45 3e 79 ca bf
       -0.08909457703677325 -0.20682505044699756
0005f0 bb 99 73 29 7c 7d b5 bf 05 32 0d 42 23 70 b2 bf
       -0.08394599925995909 -0.07202358591639076
000600 c4 d8 f7 b6 ba 27 be 3f 2e 7e 63 94 3a 04 cc 3f
       0.11779372183795817 0.21887905355014098
000610 27 8b ab 2d 2a 9a d1 3f a9 28 75 e7 93 39 cd 3f
       0.27503447017641 0.228319633499557
000620 e2 ad 17 40 6a 89 c5 bf 8a 70 0f b4 18 09 b7 3f
       -0.16825607423321204 0.0899825515365952
000630 db 77 43 91 02 08 c4 bf 3b b6 c9 85 91 1a d3 bf
       -0.15649444668718968 -0.29849660935619554
000640 f4 93 db 99 a2 bb ba bf ed d4 8d ad 33 ad cb bf
       -0.10442558532993457 -0.21622320150678523
000650 ac 32 c0 b4 b8 cc 9f bf bf 90 d3 f5 ea 1d d0 bf
       -0.031054388076926884 -0.25182603842246104
000660 31 0b 2b 7c b1 19 a3 3f c9 69 8e fb ac e3 d0 3f
       0.037305399329417795 0.263896222744418
000670 ad cd 97 43 4e 31 bc bf f8 b8 d2 19 02 69 a9 bf
       -0.11012734556407251 -0.049629274036634585
000680 6f 55 55 89 b1 f9 60 3f 73 a9 82 d3 9b 8e c9 bf
       0.0020721881398155155 -0.19966457202583462
000690 61 8b 28 6c 6a 2b d3 3f 3c ab 04 22 ac 60 d0 3f
       0.29952488481847267 0.2559004146775583
0006a0 8b f8 7c ba 32 63 c1 bf 36 15 b1 03 49 d0 d2 3f
       -0.13583978753917267 0.2939627204944658
0006b0 9b 62 f2 9c c2 15 c4 3f 62 15 23 7f 5c da ce bf
       0.15691406882685474 -0.24103885848868872
0006c0 cc 09 a8 c0 28 75 bc 3f e9 e2 0e fa 5b c1 b0 bf
       0.11116270736241701 -0.06545042853293705
0006d0 fb ca 04 80 92 61 c3 bf 0c 71 a4 f4 fc 89 c8 bf
       -0.1514151692477624 -0.1917110628645634
0006e0 68 71 6a 9d ee 2c ba 3f f1 f2 e0 3e 0c cb c1 bf
       0.10224810927542693 -0.13900902815102925
0006f0 c2 a4 54 57 20 a5 a3 bf 6e 14 1f a9 70 0c a5 3f
       -0.0383691889385971 0.04111053528280527
000700 34 bd 6d 7e b4 f8 78 3f b5 4a 02 e0 67 0d cd 3f
       0.006096558622501736 0.2269716113847459
000710 d2 42 08 89 05 61 d2 3f 38 30 f1 f5 19 73 b9 bf
       0.28717172987039163 -0.09941255812117411
000720 8b 03 cc e7 da d2 ca bf ac 9f 79 10 28 05 bc 3f
       -0.20955978697022845 0.10945368196700994
000730 c2 20 4f de 7f 83 d2 bf 6a 9f b0 3c 2c 69 c6 bf
       -0.2892760916697733 -0.1750846191728173
000740 70 18 52 c8 25 2b c1 3f 29 04 55 bc 46 40 a9 bf
       0.1341292598846766 -0.04931851433730856
000750 f9 db 7e a9 ce 39 d1 bf c7 9c fb 40 9d ad c2 bf
       -0.26915327598857136 -0.14592328713408717
000760 00 89 78 26 bc 9d d2 bf 19 16 a3 47 e1 70 c6 bf
       -0.2908773780528833 -0.1753198241987526
000770 0d 67 85 b7 40 ac c7 3f 01 2f d6 db fa eb c7 3f
       0.18494423829070464 0.18688903555118233
000780 2b 14 f6 fc 18 ac ba bf b5 4e f0 4d e4 ec c5 3f
       -0.10418850112735416 0.1712918644485534
000790 0e 89 02 b2 b8 65 ba 3f a9 50 cb c3 42 46 ad 3f
       0.10311464639611165 0.05717667236390984
0007a0 39 11 f9 15 c6 35 d0 3f 8c e8 6b 71 70 4d a8 bf
       0.25328209062378765 -0.04746581444301609
0007b0 9e c5 2c 27 d8 70 a8 3f 29 98 c4 a3 e8 31 a5 bf
       0.047735934049693216 -0.041396398535923425
0007c0 6c 23 54 44 95 d4 c5 bf c6 95 97 72 42 7b c2 3f
       -0.1705500205646574 0.1443865832836037
0007d0 34 cb f1 f5 9a 72 c9 3f 90 ff 60 a2 2d 4b c4 3f
       0.1988099766636765 0.1585442583909722
0007e0 1d d1 f8 54 f1 b1 bc bf c5 0c 85 6c 72 a6 d1 bf
       -0.11209019016752504 -0.2757841167223883
0007f0 fc 21 18 f5 87 92 ce 3f 69 e8 54 f8 15 82 d0 bf
       0.23884677379125197 -0.2579398083795526

bias f8 [30]
000000 53 16 16 20 94 50 95 3f 53 94 ae 30 78 5e 83 3f
       0.020815195520773887 0.009457530007987247
000010 59 93 92 d8 bc 39 a9 bf cd 5b d9 2b a6 2f a3 bf
       -0.04926862853725451 -0.03747290883318719
000020 d2 42 d5 b0 4b 6a 90 3f 9c 85 17 02 37 dd 8e bf
       0.01603048579028405 -0.015070371390666186
000030 f8 5c c8 7d b4 51 87 3f c0 e9 89 53 01 25 87 3f
       0.01138630875452272 0.01130105053129149
000040 55 93 96 58 34 56 98 bf f2 76 a2 80 52 e2 70 3f
       -0.0237663439817369 0.004122087741192481
000050 fc 15 2c 50 4b 7c 7d bf f0 56 af 66 eb 52 9f bf
       -0.00719861430366597 -0.030589750425710827
000060 d5 2f 20 03 a7 1d 9d 3f 85 ac b1 99 a4 62 89 3f
       0.02843342739656392 0.012395177784318765
000070 ee e9 d4 7c 0c 01 91 3f 14 54 94 3d 2d 32 b1 3f
       0.016605563277360895 0.06717188599971308
000080 71 3a 50 c8 f6 a5 96 bf a9 e1 f7 05 d3 3b 96 bf
       -0.022117477394255795 -0.021712586631083806
000090 6e 37 1f f2 43 bc 86 3f 55 3f cf 07 12 6c 80 3f
       0.011101275278544622 0.008018627990082608
0000a0 b8 a7 f1 c5 8d 99 9a bf 82 d7 7d 88 35 82 a1 bf
       -0.025976386267224177 -0.034196541701859054
0000b0 0b 4a 4f 15 76 58 92 3f 46 2b a0 e1 4e bc 8d 3f
       0.017915577936785037 0.014519325504826274
0000c0 87 50 cd 6e 9e 4a 90 3f 16 0f ad 8e 4a 4e 9b 3f
       0.015909648430650705 0.02666584487748399
0000d0 73 5f 33 68 cd eb a3 3f 54 03 8b 35 3f 37 65 3f
       0.038908404321488364 0.002589820342422314
0000e0 cb 17 f9 df 13 d1 aa 3f d7 62 e5 85 6b 15 90 bf
       0.05237638577504774 -0.015706710860601127

weight f8 [2, 30]
000000 3a 39 66 92 7f 13 d4 3f 69 5f d4 e7 92 81 c2 3f
       0.31369008347327887 0.14457928008846047
000010 9a 6c 18 63 a5 72 d9 3f 66 7a f5 99 e7 24 d6 bf
       0.39762243916784146 -0.34600248370217057
000020 7f 28 3f 3b e6 97 d2 3f 70 a1 f3 53 f1 97 cf bf
       0.2905212000447434 -0.2468244228287051
000030 d0 18 08 c8 d1 f7 d8 3f 6f a2 94 b1 01 50 b4 3f
       0.3901256993707536 0.079345804075851
000040 39 b1 2e ad 35 cd b4 3f 8e 6f d2 5d c9 ac b2 bf
       0.08125625112615333 -0.07294901409698992
000050 65 6e ca 57 95 c3 d1 bf c9 7b e5 e7 25 d7 d0 bf
       -0.27756246159854064 -0.26313159605154773
000060 13 8f 44 3b 73 a7 bd 3f ff cb ca 4d de a6 c0 3f
       0.11583633610694859 0.13009241865583474
000070 17 a8 3c 7e 6c b5 ba 3f 59 61 a6 35 68 92 ce bf
       0.1043308075137762 -0.23884298915505545
000080 76 25 25 59 a0 ec c3 bf e2 42 71 78 1f 95 ca 3f
       -0.15565876343525148 0.20767587071397658
000090 75 27 ce 43 c6 ef c8 3f 48 57 d2 70 e1 ab b2 bf
       0.19481733618550448 -0.07293519024309802
0000a0 1a 24 b0 58 a7 45 b3 3f 95 03 73 2e 61 15 d9 bf
       0.07528158107028596 -0.39192990814267975
0000b0 af a7 2d 22 5b 33 c1 3f 01 b3 61 11 30 33 c3 3f
       0.13437976044525388 0.1499996266242292
0000c0 1a 85 d3 8f 3f 4e d1 bf 2a 56 e6 f6 1f b7 c5 3f
       -0.2704008965066166 0.16965102725650755
0000d0 3e f3 1f d5 33 e8 d9 3f 74 4b b1 e2 f3 13 d3 bf
       0.4047975140854766 -0.29809281480736805
0000e0 9e a0 9a 8e 1e 62 d1 3f 25 2a 25 a0 20 70 b3 3f
       0.2716137306802099 0.07592967901033683
0000f0 ba 13 fe f3 96 4f b2 3f f7 30 b2 a7 20 35 da bf
       0.07152694184158195 -0.40949264885490727
000100 ff eb 14 3f 1a 4d ce 3f 84 50 f6 8a 40 5d 73 bf
       0.23672798233187106 -0.004727604027170543
000110 80 79 f5 f2 2d fd d4 3f 39 5c 76 6b 78 a9 c5 bf
       0.32795284964040405 -0.16923432585892487
000120 de 1f 4d 12 cf 34 cf bf 28 52 ad c5 9a 53 c2 bf
       -0.2437990989076288 -0.14317640926550834
000130 d6 a2 75 95 c4 16 c7 3f 11 57 3d e0 d7 3a c1 bf
       0.18038232133701254 -0.13460825394820877
000140 26 91 9b fe ff 8c d3 3f 9e 17 62 04 78 33 d0 3f
       0.30548095573455425 0.25314140728039003
000150 01 76 87 de 3e be c8 3f 32 5e 87 6e 39 54 93 bf
       0.19330583444290997 -0.018875977870122358
000160 04 ea 92 96 fb ab a8 bf 10 c4 0f 36 a1 05 db bf
       -0.048187124376870144 -0.4222186115212603
000170 87 77 6b 43 80 ef d7 3f 19 f3 8d 05 25 99 d5 bf
       0.3739929827114498 -0.33747220556669927
000180 3a 19 bb a8 68 3d d0 3f aa 57 34 8c 93 e2 d3 bf
       0.2537480972063296 -0.31070412341920906
000190 4b 5b 83 37 c0 c0 c3 3f e7 1e 27 4d 6e 3d d3 bf
       0.15431978903390084 -0.30062444242910974
0001a0 ac c5 39 ba 92 0c c6 3f 6a 55 3a 63 c0 3d da bf
       0.1722587022118608 -0.41001901331158896
0001b0 17 16 ba dc 44 7f c6 bf 5b b5 39 ce ae 10 d3 3f
       -0.17575894143753665 0.29789323939515605
0001c0 d2 ec a1 77 a8 0a d4 3f 36 cc 9d cc d8 28 ca bf
       0.31315051730025545 -0.20437154761347792
0001d0 36 00 21 b8 46 5e d4 bf a1 43 01 54 52 aa d9 3f
       -0.31825416547144714 0.40102060512168164

bias f8 [2]
000000 16 68 9e 2c d2 8c c0 3f a3 d5 37 03 d4 58 b0 bf
       0.1292975156655422 -0.06385541037146551
