DAL_BFGS/BFGSNN/steady_NS/forward_test/forward2/u.pt (torch, 19603 bytes, 8 tensors)

weight f8 [30, 2]
000000 23 a5 7d ce 1e c2 e4 3f b7 2f 5e 99 10 9d b5 bf
       0.648696330358835 -0.0844278692658794
000010 7d 51 ef 18 b1 53 ab bf 8c 8b 83 8a 2f 87 cb 3f
       -0.053372892659953465 0.2150630403840207
000020 47 75 4a f0 81 35 ca bf 6e 42 e5 a5 67 69 e1 bf
       -0.20475792153312453 -0.5441168060443269
000030 b0 a3 c0 2b 59 8c df bf fa db 17 87 bc ea e1 3f
       -0.4929411818762288 0.5599043501414365
000040 f2 0d 72 20 f9 3a c1 bf f6 0a 9a 67 81 c9 e4 3f
       -0.13461221775297322 0.6495978377791676
000050 6a 12 99 23 99 1c e3 bf e3 7f fd 58 03 b7 a5 bf
       -0.5972409911415302 -0.042411903966012486
000060 e5 0d 4b d2 ac 15 b1 bf 38 11 58 de a8 d7 9b 3f
       -0.0667369855319105 0.02718986374931484
000070 0f 9a 65 ec 83 2e ea bf d4 cf f4 75 b8 07 e2 bf
       -0.8181781403662302 -0.5634424499353323
000080 e3 9d a0 ee c7 27 db 3f 4b 2b 0a 48 fc 29 d7 bf
       0.4243030386300843 -0.361937589980404
000090 c0 82 67 37 74 ea b1 3f 0e 8e 7b 30 09 57 d4 3f
       0.06998373367924682 0.3178122495139356
0000a0 2d d6 81 db f3 3a de 3f eb 22 47 70 f6 c5 d9 bf
       0.4723481792092084 -0.40270768131863005
0000b0 78 84 00 52 94 d6 f1 bf 75 bb 17 16 ab e6 e0 bf
       -1.1148875430301626 -0.5281577521799209
0000c0 7f 0a 71 ab ed 39 c8 3f 1b e9 a5 50 f5 b9 dd bf
       0.18926783438844905 -0.464474991567515
0000d0 ae 5d ab 96 b0 a4 e0 bf 93 0f 15 23 1d 42 e3 3f
       -0.5201037352334674 0.6018205342484059
0000e0 95 d1 62 fd 81 c2 e6 3f 0a da 01 0e a1 41 aa bf
       0.7112436245866315 -0.05128196044909224
0000f0 af 1b 7b 42 25 60 e4 3f c7 a8 6a 19 9e 9d d7 bf
       0.636736516805163 -0.36899521333783664
000100 aa 47 ac 63 f0 5c be 3f 29 63 51 a8 8e 68 e9 3f
       0.1186056369154175 0.7940133368930208
000110 df dd a3 8d d9 64 b4 bf d6 c5 28 90 8d 16 e0 bf
       -0.0796638460923229 -0.5027530494318693
000120 19 97 2b f0 0a e4 c3 3f a7 4e 0f 85 59 36 b3 3f
       0.15539681174339462 0.07504806040315747
000130 f6 c9 a9 f2 9d 92 d8 bf 3c b2 f9 80 ad ad c5 3f
       -0.38394879052717046 0.16936272428155685
000140 35 a6 ae 6f 6c 19 b0 3f 64 34 1f b1 7b 4d c7 3f
       0.06288793303124225 0.18205209873704853
000150 11 fa 78 cc 2b b5 d1 3f a1 a1 e4 e1 e8 62 b5 3f
       0.2766828057100677 0.08354049220054673
000160 7e 4a df 1c d3 86 e0 3f dc 23 6a 0e 85 d9 e9 bf
       0.5164580882941008 -0.8078027040038438
000170 4f e8 99 4c 6e 59 d3 bf b9 cb 41 12 5b f5 d1 bf
       -0.3023334262903789 -0.2806003263751183
000180 61 15 3c 1b fb 4e d9 3f d9 0e 18 23 92 68 e0 3f
       0.39544561061514655 0.5127649960927229
000190 1d 01 c9 0f 4b 1a c6 bf 4e 52 b8 f2 ac 0f a4 3f
       -0.1726774050785104 0.03918209517374703
0001a0 61 1d 0b ac 55 25 b6 bf 4f 69 fb 5c e9 ef de bf
       -0.08650718164709793 -0.48339304046898673
0001b0 32 d9 c5 a3 1b da e4 3f 1c bd e5 42 25 97 e0 3f
       0.6516245077789675 0.5184503847685025
0001c0 00 8a 78 c7 6e d6 e0 3f 58 9f 49 f8 d3 21 c9 3f
       0.5261758705058242 0.1963448488561379
0001d0 76 be c5 20 b6 15 cc 3f b0 97 aa f7 53 2b e3 bf
       0.21941258049217865 -0.5990390622362067

bias f8 [30]
000000 8e f8 7a 46 b7 8b e6 bf 6d 6a 76 63 4c 87 7d 3f
       -0.7045551659173428 0.007209108727148289
000010 53 00 6d d2 02 ad c4 3f 60 50 53 b9 85 aa a5 bf
       0.16152987742134658 -0.042316607353911406
000020 f4 7d dc 1c 50 42 93 3f d6 02 a7 d7 a1 5a ba 3f
       0.01880765129237534 0.10294543757391791
000030 e9 7a e1 dd f7 0a b4 bf c3 78 a7 31 55 f9 f0 3f
       -0.07829236189852974 1.0608722629181535
000040 80 57 8b b5 29 d3 be bf cb fe 1c 7d 52 d6 e0 3f
       -0.12040959055170042 0.5261623805635848
000050 60 68 c4 bb ee d7 c3 bf 61 a2 52 5b 4e dd d3 3f
       -0.15502723854371236 0.310382451231396
000060 cc cb 69 2e 12 81 c1 bf de 59 15 92 31 15 d8 bf
       -0.13675143495819808 -0.3762935568423965
000070 d3 75 09 59 65 b8 e5 bf f4 13 d9 54 43 fb ca 3f
       -0.6787592638972292 0.2107929386421855
000080 56 6b bf 8c 19 4e e0 bf da a7 ea a3 0b 30 77 3f
       -0.5095336674670345 0.005661054105681596
000090 5e 91 32 ad 76 57 6d 3f 23 04 48 6e 7e 72 b4 bf
       0.003581744947569173 -0.07987203781523582
0000a0 f7 be 72 cc 67 2a ab 3f a1 f2 dd 71 2a c5 c0 bf
       0.053057903010424505 -0.13101702270423224
0000b0 a6 f2 5b bb 34 3e d5 3f 1c 18 c5 79 a6 54 da 3f
       0.33192175194543905 0.4114166440161868
0000c0 76 51 b1 da 01 92 d7 bf e7 75 c7 c6 2d 08 e0 3f
       -0.36828657490448025 0.5009983904271252
0000d0 0d a5 56 be 5a f2 cc 3f fc a0 be 7a 0f e2 c8 3f
       0.22614607137556 0.19439881795302216
0000e0 6b 22 bc f2 aa 8a e1 bf 6f dd 1a 01 f6 65 d1 3f
       -0.5481772175708789 0.27184820278076577

weight f8 [30, 30]
000000 93 45 dc af 03 60 c8 3f e1 57 60 d1 53 69 cb bf
       0.19043012701926595 -0.21415183757261416
000010 c6 69 21 ea 2f d1 ad bf 4b b5 dc af 1f 7c b6 3f
       -0.05823659642256333 0.08783147853383359
000020 44 80 f2 61 33 85 d3 bf fc e3 0f 01 c8 9a c5 3f
       -0.30500492634928755 0.1687860493837262
000030 71 c0 58 0f df 27 d2 3f 44 97 dd c9 1f 7e d1 3f
       0.28368355272960516 0.2733230086654326
000040 36 c9 2b 56 35 73 cb 3f 87 4a 2b bd 9f ec c5 bf
       0.21445337970323813 -0.17128369080326797
000050 5c 9f 5f c6 86 a5 c0 bf 1b 09 78 8e 76 e9 c4 bf
       -0.130051466810296 -0.16337472874153822
000060 e9 b8 48 5d f6 30 84 3f 69 6f bf c5 24 3e bd 3f
       0.009859013292125645 0.11422948673083301
000070 ea 7e 39 bd 96 25 c1 3f 9c 9d 24 8a 52 06 b4 3f
       0.1339596198986251 0.07822147247917716
000080 89 fe f3 be cd c3 c0 bf da 1c c7 30 ce 8d d3 3f
       -0.1309754545582005 0.3055301166863963
000090 69 78 f6 bb 38 40 d0 3f 4e 49 10 2f e5 59 d2 bf
       0.25391977649440506 -0.28673677059227465
0000a0 41 8d 9a e5 64 a3 b9 bf 40 bb 60 80 bf 9d c0 bf
       -0.10014944654044645 -0.12981408852052745
0000b0 e9 a0 1a fa f4 43 ae bf 36 a6 53 6c 10 4b bf bf
       -0.05911222031619607 -0.12223913807579198
0000c0 49 23 cf c8 83 58 c8 3f 49 cb fc 5b 66 a0 c7 3f
       0.19020125680097014 0.18458251468254108
0000d0 58 51 51 e6 8b a7 c3 3f 9f 50 ca ff 3c 5f c0 3f
       0.15355061288813476 0.12790644159088502
0000e0 97 70 a4 35 c7 bf c7 bf ab ce 12 44 24 94 d2 3f
       -0.1855401050496581 0.2902918495922033
0000f0 c0 49 74 8f 6d 93 bc bf fd c1 c1 d7 66 12 6e bf
       -0.11162457229901346 -0.003670884003490692
000100 8e af 28 05 d6 03 d3 3f e7 e0 f5 bd 6d af ae bf
       0.29710913184930454 -0.05993216461041744
000110 74 69 12 91 f5 24 b0 3f 43 3a 36 20 90 4e c7 3f
       0.06306395332140885 0.1820850522312459
000120 49 a6 f4 66 9e 99 bf bf ed 4e c4 16 76 22 ce 3f
       -0.12343778623167014 0.23542667495404804
000130 e6 9c 60 9a a6 23 bb 3f 16 77 10 74 a6 aa cb bf
       0.10601273793200824 -0.21614533106997474
000140 4f 4d fc a4 d8 4c ce 3f ec 53 4d 5a f9 4b b5 bf
       0.23672016197142873 -0.08319052176132374
000150 9b a3 c8 69 98 06 c7 bf 89 b1 8b de 07 69 d2 3f
       -0.17988877454015725 0.28766056759811726
000160 f9 40 39 6c 8a c0 d1 bf 57 67 c1 5a 3c 20 c7 3f
       -0.2773767525550422 0.18067125731868813
000170 74 cd bd aa b3 c2 b2 3f 46 5a 1e 3a e4 5d 89 3f
       0.07328341406337363 0.012386115096700522
000180 88 bb c1 af 12 12 c8 bf 86 81 df 5c ff 39 d4 bf
       -0.18805154401658464 -0.3160398871387077
000190 ce 32 c9 91 2a 66 b4 bf 4a c9 5f d2 73 bf d1 3f
       -0.07968393382288783 0.2773103289065558
0001a0 35 62 64 5c 75 ed b4 3f 8c 1e df 3e ac a8 94 bf
       0.08174832826296881 -0.02017468579995678
0001b0 01 48 d5 b6 12 0e b3 bf e9 fc b0 8b 09 fe bd 3f
       -0.07443348849963628 0.11715755138810703
0001c0 b5 ed ca 6a e7 cf d5 bf e8 7d a3 0d 84 0e d0 bf
       -0.3408144514939651 -0.25088597614191466
0001d0 cc 52 ba 20 08 64 cd bf ee 19 75 68 ac 30 b1 bf
       -0.22961522672689794 -0.06714894819479131
0001e0 92 35 43 5e 5c 7e c0 3f 2e 7f 9c 9a 20 c9 aa 3f
       0.1288562259928026 0.05231572997422372
0001f0 bf bd 6b 4a 7d 43 bc bf 83 93 33 8d 64 a5 c6 3f
       -0.1104048067752421 0.17692238707163818
000200 ff 6a 55 60 51 94 c3 3f 2e 0e 72 f0 95 cf b6 bf
       0.15296380237381155 -0.08910500641109628
000210 b5 ec 86 59 ae 70 ce 3f 51 89 f2 b5 c8 50 c9 bf
       0.2378137528556629 -0.1977778328337743
000220 50 39 47 e5 80 08 c0 bf ad b5 5f 98 e1 23 cf 3f
       -0.12525950618005277 0.24328250827913447
000230 5d 3f 9b 1f 4d 2a ab bf a1 55 b3 73 1d b7 c7 3f
       -0.053057108028609724 0.18527572774352755
000240 a8 d3 c3 04 75 94 c1 bf 73 ee 4e 26 51 9a c5 3f
       -0.13734305126822943 0.168771880822408
000250 da 2f 3e 31 1d 08 d0 bf 48 7c 3c df a8 f6 8c 3f
       -0.2504952412498348 0.014142340958242752
000260 23 52 c9 e9 2d 79 93 3f cf f2 5b 95 8d 8b 92 bf
       0.019016950029554402 -0.018110477677498345
000270 39 45 0c d7 47 17 c6 3f fb 7c f7 9a bc 3c c4 3f
       0.1725854682959296 0.15810353819595221
000280 d7 c5 7d 62 ae 7b d0 bf ff bc 2c 9d 67 ea b3 3f
       -0.2575489007786848 0.07779548251413713
000290 85 05 2d bb c1 cc d1 3f e9 88 d9 42 d0 80 c8 bf
       0.27812236098187554 -0.19143107666156503
0002a0 80 94 9c bb ef 42 c5 bf 64 c5 1c 85 34 87 ca bf
       -0.16610523853993087 -0.2072511339152171
0002b0 1d c4 55 3f 39 3d ca 3f 25 f4 0e 71 c1 ed be bf
       0.20499339668779806 -0.12081536302771718
0002c0 83 18 d8 7b 2b 2b ab 3f 19 41 4c d3 c3 05 c8 bf
       0.053063734882059975 -0.18767593209532477
0002d0 25 95 e6 71 3d 13 b7 bf ed 24 8e c1 22 1b c5 bf
       -0.09013732939509518 -0.16489061785640705
0002e0 41 6e c2 ff 5a 83 91 3f 8e 2e 4a df 80 2c c1 bf
       0.017102643833466272 -0.13417063620396558
0002f0 03 ac 1d af 4a c3 d0 bf 92 49 51 d0 07 94 c5 bf
       -0.2619196615329999 -0.1685800330329355
000300 51 b3 8b fb 15 74 8d bf 5a 4a a6 07 4d 83 cb 3f
       -0.014381572474542333 0.21494448541177996
000310 1b 5b b0 41 e5 c6 d6 3f cd 05 88 a8 fe 37 bf 3f
       0.35588961996966056 0.12194816221747047
000320 95 29 b4 5f 6c 35 89 3f c9 a3 3c 53 85 1a c5 3f
       0.01230892817558952 0.16487185062695023
000330 53 25 4f 0b c2 6e cd 3f 9b 6e cb 0b 47 0a c4 3f
       0.22994256546216238 0.15656364513312301
000340 00 30 dd 53 33 f2 cf bf 50 f4 08 e5 85 48 b0 bf
       -0.24957887263224166 -0.06360661355661645
000350 15 5f ca 5b 50 38 d6 bf 13 2c d8 34 01 24 a6 3f
       -0.34718712772290533 0.04324344415734784
000360 c0 4f 72 da a9 40 ce bf 81 f8 f1 82 1c 9c d0 bf
       -0.23634837309202616 -0.2595282820474339
000370 b6 36 1f e3 0b 15 a6 3f 60 3c 76 4b c7 e6 cd 3f
       0.04312932155117492 0.2336053007570369
000380 8d c7 c8 5d fe c3 d2 bf 22 c5 d2 d5 db eb cd 3f
       -0.2932125011312728 0.2337603372630293
000390 32 d6 44 be 3a a1 a1 3f ff db e1 17 9c 93 d3 3f
       0.03443320820444419 0.3058843835091806
0003a0 3f 45 f8 0e cd 2f c9 3f ef 31 c2 00 40 52 b6 3f
       0.19677127104709233 0.08719253557701
0003b0 3c 57 87 7f 8e d7 94 3f 00 85 8f e2 59 6f ce 3f
       0.020353533300144763 0.23777316629915646
0003c0 a6 8b 49 9f 9c a8 bd 3f bf b7 fe 57 bd 53 bb bf
       0.11585406197404655 -0.1067465152579805
0003d0 cf 4b 03 cf f0 f2 bd bf 1b a5 4f 65 88 49 be 3f
       -0.11698823026681214 0.11830952142158362
0003e0 c5 c3 ff 29 b3 71 d7 3f a3 45 01 56 ba e9 d2 bf
       0.3663146886966014 -0.2955156173603319
0003f0 e0 50 6a 2b 43 b8 a3 bf 52 dd 6c 72 8a 66 b7 3f
       -0.038515185403555696 0.0914083985670591
000400 bf 25 52 44 fa 6e b9 bf e9 2a cb fc d2 af bc bf
       -0.09934963386526528 -0.1120578639194424
000410 ff a0 14 b3 c7 d2 b7 bf a7 10 2e c3 3b 64 a1 bf
       -0.09305999872288238 -0.03396784551208159
000420 d1 17 bc 2c 53 bf b4 3f bf 88 88 83 bf 4b b1 3f
       0.0810443863120718 0.06756207429183102
000430 12 81 8e f0 4f 57 a8 3f ee b3 34 7c a8 7a bd bf
       0.047541139712168015 -0.11515286476488004
000440 f6 86 d4 00 90 2b d1 3f f4 5e 6d fc 50 e4 c4 bf
       0.26828384476731004 -0.163217662101253
000450 11 32 45 e4 57 e2 d4 3f 53 12 9f 79 e8 d7 c1 bf
       0.3263149003221609 -0.13940149248641606
000460 0a 93 59 f1 3a a9 d8 3f 1d fb c4 88 83 f6 c6 3f
       0.38532899445844804 0.17939800432392242
000470 6d 55 f1 32 83 6c 9e bf 61 cc d8 70 00 48 d6 bf
       -0.02971081732205987 -0.3481446363468362
000480 73 f2 b8 b3 15 00 c0 3f 1b c2 28 04 7f 4a b0 bf
       0.12500258708486775 -0.06363672114890344
000490 af 1d fa f5 f0 0c d1 bf 59 03 23 8d 39 34 d1 bf
       -0.2664148714179317 -0.26881254942786864
0004a0 9a 65 f0 62 f7 1c c4 bf 8c 41 a6 8b 89 3c d6 bf
       -0.15713398295410458 -0.34744490277901074
0004b0 dc f7 98 89 8e d9 ce 3f 2e 7b 6f 66 8e b1 af bf
       0.2410143062460851 -0.061901521686868896
0004c0 76 a4 00 53 ff 53 ce bf 32 fa 9a 03 70 92 68 3f
       -0.23693839600426586 0.0029995143675869635
0004d0 3e 80 18 0c c8 9f 65 bf 15 8b 49 f0 51 b0 d1 bf
       -0.002639666287691993 -0.27638672318987406
0004e0 48 f7 54 b6 bb f2 b3 3f 15 3e f3 21 65 fe 71 bf
       0.07792256547415122 -0.0043930006497272705
0004f0 7b 1c 18 ed a7 0e d4 3f 87 ad e0 31 6a 28 a2 3f
       0.31339452890137637 0.03546459063394552
000500 2d 44 b5 9b b0 1a ca bf b7 a2 ac 55 b1 8c cd bf
       -0.20393951037343197 -0.23085610087698225
000510 d5 cc e6 24 d1 67 ab 3f e7 09 06 ea 05 45 b2 3f
       0.05352643561800511 0.07136570895639914
000520 53 ff f6 17 59 ad c4 bf 5a d0 83 02 82 0f b2 bf
       -0.1615401618018902 -0.07054913102530361
000530 b3 c4 1a 3b 39 bf c2 bf 08 83 e6 20 fb a6 b9 3f
       -0.1464606798740867 0.10020417741044352
000540 88 34 6a 72 aa d3 a9 bf c2 37 d3 35 a7 c0 d4 bf
       -0.05044300696054288 -0.3242586160312123
000550 5c 9e 11 3f 13 f0 7d 3f 44 dc 66 42 39 a1 cd 3f
       0.007309031659225331 0.23148265592837636
000560 e7 27 e5 1d e6 1f d2 3f 7a 37 08 76 0c 80 bd bf
       0.2831969539589622 -0.1152351177372263
000570 42 a4 6c ee 97 0b b8 3f ae bc 69 ed d0 89 b2 3f
       0.09392690249355076 0.0724154071447056
000580 03 22 d0 7f b2 8d c2 bf 7c 2b 98 25 da 4e 5b bf
       -0.14494925728674 -0.0016667490330088677
000590 24 a0 7d 17 4b 6c c7 bf 0f 2e bb 73 74 09 b1 bf
       -0.18299235007293746 -0.06655052018611961
0005a0 c9 2a 27 9d 45 a0 e0 3f 3d 01 59 fc de ed c5 bf
       0.5195644444841828 -0.17132174798644853
0005b0 36 9a 11 5b 36 94 bd bf 6c 99 bb 89 04 81 b4 bf
       -0.11554279063566572 -0.08009365427606036
0005c0 93 fa 21 5d d1 a6 cb bf bf 84 65 8e d3 12 b2 bf
       -0.21602837607857292 -0.07059976793745458
0005d0 2c ae ca 6f 55 6b d7 bf 9e 43 02 e4 68 1c ce bf
       -0.36592613141212627 -0.23524199612850522
0005e0 0c 9a 18 55 b5 5b dc 3f 1f f7 54 86 08 c2 c4 3f
       0.44309743223348685 0.16217142638372992
0005f0 ad 7d 54 97 ff 0c d0 3f cc 4f 53 f7 47 3f c8 3f
       0.25079335954975585 0.18943118645131418
000600 2f 59 6f 57 6a c2 c1 3f 9f 0e 0a 38 f7 43 d1 bf
       0.1387455870560159 -0.26977329704843983
000610 ca 1d f2 57 1e a6 da 3f 65 bc 10 59 87 21 91 bf
       0.41638907040075124 -0.016729464350813922
000620 2c 26 66 ef c1 21 c8 bf 21 07 b4 0e 5c 2c d2 3f
       -0.18853019894986411 0.2839574950777309
000630 c4 95 ce 14 ff b2 67 3f 71 de d1 63 fb 3e c4 bf
       0.002892969327563862 -0.15817205785764402
000640 28 d3 7c da 33 de a4 bf d1 2e fd 3d ab a7 d6 3f
       -0.04075777093968319 0.35398369840252736
000650 19 76 68 d7 e8 b1 ca 3f 12 be 9a 17 b5 2c cd bf
       0.20855436819049158 -0.2279268613105932
000660 9c 97 1c 07 84 20 ac 3f d5 9e ca 03 a7 28 d4 bf
       0.05493557535946467 -0.31498122568380654
000670 35 ec 38 6f dc 6e c9 3f 73 80 7d 23 d8 2f c4 bf
       0.19869571142939582 -0.1577100919048494
000680 1e 4f 55 9a 20 46 a2 3f c7 dc c9 3b 81 a2 d3 3f
       0.03569127925825753 0.3067935069916072
000690 e7 5d 60 c3 73 97 d3 3f 1c 89 fc 1e 59 9e d1 bf
       0.3061189086888291 -0.2752898027994364
0006a0 26 4d 81 0a 70 56 da 3f 08 cf 2b 13 2d 5b c9 bf
       0.41152573610198073 -0.19809497295465683
0006b0 9c ea 24 b4 1e 28 d3 bf 59 54 21 fc 3a ec b6 3f
       -0.2993237265797377 0.08954208999178216
0006c0 5e 4b e5 13 fc c1 c5 3f 23 47 3f 8a 9c dd ab bf
       0.16998244258374035 -0.05442513644778859
0006d0 ce 2e 10 90 86 23 db 3f bc 6c 41 3a 40 cd bd bf
       0.42404331272767315 -0.11641313001875891
0006e0 3c b9 e5 04 7d 24 d4 3f 92 25 42 05 cb 89 d5 3f
       0.3147270725084075 0.336535220275061
0006f0 4c 4b a1 5e 39 be d0 3f 4a 25 c6 ac a7 7f d5 bf
       0.2616103576776154 -0.3359164416547925
000700 58 57 ff 08 16 fa d3 3f dc fd 4b dd 05 7b bd 3f
       0.31213904265074666 0.11515843060259762
000710 68 a6 05 34 a3 2c d5 bf 3a b9 d5 ab c1 52 ad 3f
       -0.3308494575527221 0.05727200720399357
000720 4e 3a ab 95 b5 54 b9 3f ad 7b 54 fd aa 42 d2 bf
       0.09894881156945098 -0.2853190874029064
000730 78 1b c7 1e be dd d7 bf e8 4b 19 76 80 b9 a1 3f
       -0.3729090977253047 0.03461839143405837
000740 83 27 38 c3 b6 0f da 3f 0a f1 49 2d 87 93 bd bf
       0.40720910133733684 -0.1155323491638606
000750 9c 69 94 5e d9 41 95 bf ae 2b 3b 09 fb c4 ca bf
       -0.02075900687950992 -0.20913637114275957
000760 91 6d 9e 49 fe b1 d0 3f 42 82 ab fa 20 9f d5 bf
       0.2608638495382474 -0.33783745269287035
000770 dc 14 6e 61 67 10 92 3f c4 7f c1 79 90 10 d0 3f
       0.017640700647025706 0.2510110081693677
000780 ee d8 7d d9 8b 16 de bf ab 88 7d 94 b8 85 c5 3f
       -0.4701261161748239 0.16814334154611763
000790 bf 9a 04 b4 ac a8 d5 3f 58 e4 d4 b0 7c 56 af 3f
       0.3384200819004199 0.061206719003572274
0007a0 3a db aa 8b 0b 19 b2 3f 92 a1 c7 8e e4 32 b9 bf
       0.07069465789650745 -0.09843281255564865
0007b0 48 29 14 06 1c 5b ac bf e8 3f 8d 6b a5 8a eb 3f
       -0.055382610075030814 0.8606745815868608
0007c0 8a 7f 6a c0 9f d3 bc 3f 67 ce f4 55 4a cc d2 3f
       0.11260412643104992 0.29371889490287234
0007d0 af 6e 7d ee b5 f1 cc bf c1 bd 65 d6 74 01 dd 3f
       -0.2261264242650802 0.4532138913845892
0007e0 5a 2a a9 c7 dd 65 a7 bf fb bf 3f 8a 50 44 a3 bf
       -0.04569905340448051 -0.03763057410822054
0007f0 9c e1 f8 25 ee de d8 bf 90 b0 ff 53 a4 da c4 bf
       -0.3886065836736863 -0.16292242146972002

bias f8 [30]
000000 d1 2b 41 1b cd 37 c2 3f d5 e2 d8 1a e9 35 bf bf
       0.1423279173926333 -0.12191635995339863
000010 5d 2f 71 ee 39 47 c1 bf 30 f9 ff 39 0f 95 86 3f
       -0.1349861540096481 0.011026495893017157
000020 35 6e eb ea 9e a7 93 bf 02 41 3c 72 25 4b a8 bf
       -0.019194110000951354 -0.0474483205745191
000030 30 ca fe ab d4 61 c6 bf bc 4e e4 48 f6 e5 d3 bf
       -0.17486055753904983 -0.3109107696375124
000040 85 3a f6 93 c5 5e c8 3f d5 e7 8f db b4 7c a3 3f
       0.19039220547388794 0.03806080990030095
000050 44 1b 73 b0 e9 d6 e0 bf ba 4e 0c 52 79 c7 cd 3f
       -0.5262344785959177 0.23264996057752346
000060 83 3d d2 d6 bd 17 b8 bf 12 50 55 0b 4e de ae 3f
       -0.09411226744327021 0.06028980148644804
000070 06 85 22 e5 df 4c b4 bf ee 14 75 54 95 d3 ba bf
       -0.07929801315414772 -0.10479100524851834
000080 c6 32 6d db 69 5a 65 3f 5b 0d c9 70 a8 58 aa bf
       0.0026065890810172713 -0.05145765663885512
000090 20 25 1a bf da 36 bd 3f 9f 8f 98 97 e7 4a c9 bf
       0.11411826291636773 -0.1975984087194975
0000a0 4d 98 9b ba 05 38 bb bf ea f1 dd 11 8b 05 ca 3f
       -0.10632358365873636 0.20329416630183
0000b0 4e 39 ad bc 1d 25 c9 3f 54 56 cc 26 04 59 c9 bf
       0.19644519531943633 -0.19802905935709936
0000c0 53 f0 f6 91 a4 6d b9 bf 4b 54 f0 dd 26 40 d1 3f
       -0.0993292671545885 0.26954051660260764
0000d0 1a db 4d 10 8a ae ac 3f b8 ed 11 3f d1 26 ce bf
       0.0560191292669769 -0.23555961207953913
0000e0 df f2 4b c0 8e 07 c4 3f 68 bc 48 44 82 ea cb 3f
       0.15648064031110828 0.21809414228616508

weight f8 [30, 30]
000000 d9 2e 29 c1 83 7a c9 bf b4 50 fa a8 6d e4 9f bf
       -0.19905135089572104 -0.03114482253893476
000010 10 19 19 45 80 6b b2 3f 04 4b a1 50 58 8b b8 bf
       0.07195283591235957 -0.09587623566157438
000020 46 a7 21 54 d7 d5 b5 bf 6e 75 6b 4e ee 18 c4 3f
       -0.08529420665732088 0.15701083020295975
000030 f0 12 71 89 17 2f ca 3f 66 10 27 1f f5 50 df 3f
       0.2045621319868114 0.4893162540649939
000040 c1 22 d6 ae a5 ed cc bf 4d cb 5d 81 06 27 65 bf
       -0.22600241696297554 -0.0025820853288051394
000050 ae 50 76 97 e1 2a d4 3f 58 7a 75 f0 38 15 c9 bf
       0.31511726180293465 -0.19596015683323986
000060 90 b0 b0 80 25 df e2 3f 04 82 28 83 cd 44 ba 3f
       0.5897395623665194 0.10261234714608497
000070 64 34 70 c8 f2 3c d9 3f 25 b9 e2 6d 67 e5 d1 3f
       0.39434499334385564 0.27962671023387237
000080 49 0f 82 5c a2 5c d7 3f 30 9a a7 35 5a 16 a9 3f
       0.3650289443396458 0.04899866013493115
000090 74 24 f6 ec e0 ee d1 3f 7e 99 ce f1 52 57 d1 3f
       0.2802049936368072 0.2709548341175817
0000a0 bc a4 47 45 4b 96 cd 3f 90 69 b6 8c 96 3b bb bf
       0.2311491096764139 -0.10637799201359699
0000b0 6f 3a 5b 00 d3 61 b1 bf 04 e2 16 e3 5e 55 d7 3f
       -0.06789892920208172 0.3645856111211574
0000c0 f9 6d e6 4e 16 9b cb 3f 5a bb 37 c7 24 aa 58 bf
       0.2156703839544745 -0.0015054091608097315
0000d0 b8 66 05 b7 09 f4 e0 3f 17 47 62 c8 bb ba d3 3f
       0.5297897886877854 0.3082723099588391
0000e0 91 59 c3 ed 51 ff 7a bf b6 21 e6 30 e5 04 b2 bf
       -0.006591148409106033 -0.070387196005078
0000f0 6d a2 d3 27 5d 8a bc bf ee 98 0a 34 e1 84 cf 3f
       -0.11148626539546465 0.2462426666363124
000100 49 aa 15 83 03 01 b7 bf 4a cf b4 99 91 38 c9 bf
       -0.08985921812351551 -0.1970388412970528
000110 0e 00 e7 0d 93 d7 bb 3f a1 0e b1 d3 a4 e1 b0 bf
       0.10875815476811132 -0.06594305198910401
000120 24 ff c2 97 2d 4e d4 bf 3e 1c 88 85 cb 0a e1 bf
       -0.317271612362662 -0.532567749790253
000130 96 3d 7a 34 b1 77 e6 3f 38 3e 40 72 44 49 c4 bf
       0.7021108651114669 -0.15848594263705862
000140 da 1d b1 f6 82 5b c6 3f 33 00 28 8f cf d5 ca bf
       0.1746677116918665 -0.2096499871258871
000150 81 44 04 3d a7 63 7b 3f 2f 0e f1 12 b8 a6 9a 3f
       0.006686833643713475 0.026026607662300968
000160 2b 08 47 51 b4 19 bf 3f b2 e4 dc 90 69 bd ce 3f
       0.12148596748650735 0.24015540669805585
000170 c6 62 c5 31 97 1c d7 bf 37 af b1 98 5a ef cf bf
       -0.36112003193333597 -0.24949200111165634
000180 65 99 4a 59 b9 65 e4 3f 1d e3 7b 37 2f 34 a0 3f
       0.6374174827549665 0.03164813568395728
000190 7c 3f 0c 4f ab 8f b7 bf fc 7e 82 75 39 5e ce bf
       -0.09203596763495442 -0.2372505019929959
0001a0 5b 0d 8f a5 12 a2 c9 3f af b1 f8 8f f1 7a db bf
       0.2002585705177847 -0.4293788820239354
0001b0 96 ed 52 88 07 96 bf bf 5d 5b b7 61 f9 40 b4 bf
       -0.1233830173322786 -0.07911642680788362
0001c0 62 33 c9 fc 81 7b d3 bf 9b c0 7d 82 4e 0d c0 3f
       -0.30441331564070684 0.12540608760491953
0001d0 5e e7 9a bd bb c7 db bf 1b 26 2b b2 59 ab df 3f
       -0.43406575695154526 0.4948333969046829
0001e0 8f 7f 80 76 78 4a ba 3f 3d 3e 9c 03 63 c2 d6 bf
       0.1026988305388825 -0.35561442711420793
0001f0 92 86 b3 0d 3c 8b cb bf ec 01 55 59 c1 a9 a8 bf
       -0.21518660229690006 -0.04817012992362266
000200 d8 dc 35 97 1a 5e d0 3f 69 85 5e da 22 3c 96 bf
       0.25574364439621666 -0.021713776186179787
000210 a8 c2 ad ed 2a 81 b1 bf 2f 8b c9 92 df 15 cc bf
       -0.06837719252303975 -0.2194175211653486
000220 db dd dd 05 f4 53 c7 3f cf 34 70 3e c9 10 d1 3f
       0.18224954878290486 0.2666495427846031
000230 eb 62 3f 7f 90 40 c5 3f 5a d7 7c 83 fe 25 cd 3f
       0.166032850391978 0.2277219907788844
000240 a3 2f bc aa 1d 73 b3 bf 97 b0 b6 1c 4b a8 b9 bf
       -0.07597527902924965 -0.10022420359627159
000250 e5 9e 7b 14 e0 ed a5 bf 47 05 b3 a9 d0 2f 82 3f
       -0.04283046960864371 0.008880262545405982
000260 a3 6c bb bd 66 37 c7 bf e3 b1 21 e4 2d e9 cd 3f
       -0.1813782144953154 0.2336785663532189
000270 36 99 69 74 7d 36 91 bf fc 39 1b 72 6b ff b4 3f
       -0.01680942557359196 0.0820223954753842
000280 66 92 16 8c 4c 24 d1 bf 39 d2 6e 33 02 a3 c2 3f
       -0.26784051590428815 0.1455996276032623
000290 5a dc d3 73 4a 90 d0 bf 18 f1 98 d7 12 c2 d2 3f
       -0.2588068133476945 0.2930953126376763
0002a0 8f 0e 81 9f d0 26 c5 3f 48 27 4c 1f 74 53 70 3f
       0.16524703777587432 0.0039858375573745344
0002b0 46 ca 4b e6 f7 f1 d3 3f f1 76 c3 9a d7 60 d5 bf
       0.31164357652520314 -0.33403577912927945
0002c0 12 00 09 11 35 24 b3 3f b8 cf 9d 36 3b 6e d3 bf
       0.07477122941872974 -0.30360298474920056
0002d0 ec 6b b9 97 d1 10 d1 bf ed a8 5c 13 cb 76 d2 bf
       -0.26665153328730073 -0.28850056544128116
0002e0 25 64 42 70 f0 26 ce 3f 3e 17 38 15 8e 2a cd bf
       0.23556333047307124 -0.2278611758812818
0002f0 28 ed c4 1d 08 6b d2 3f f0 e5 1e a2 7f 09 bc 3f
       0.2877826967921515 0.10951993663811499
000300 9f 94 5c 06 f3 a2 ba 3f d4 c8 1e 34 cd 48 ac bf
       0.1040489092379908 -0.055242931949935375
000310 e7 2b 50 df 33 01 d6 3f dc 9c 05 e5 cd 8f b7 3f
       0.3438234024803805 0.0920380291114386
000320 07 87 47 15 59 ea a3 3f 94 34 cb 65 b0 dc bf bf
       0.03889730820425368 -0.1244611977119397
000330 a7 8b 7c b7 5c bf aa bf 04 cb 37 89 1f 30 c9 bf
       -0.052241227529769056 -0.19678110313505937
000340 35 32 20 68 91 79 ce 3f 4a 89 21 a8 7a fd b9 bf
       0.23808496078744815 -0.1015240345455243
000350 67 54 e1 65 fd 4d d1 bf 6a 56 56 1c cd 16 c1 3f
       -0.2703851218150874 0.13350833781867105
000360 02 21 1a 61 bb 6d c0 3f e5 2a 77 40 a4 e0 d1 3f
       0.12834875336944412 0.2793360356851465
000370 39 fa 8f 58 c4 52 d1 3f 94 27 6b e3 00 e3 b2 3f
       0.2706766953341773 0.07377629806720015
000380 94 e6 97 60 7a 43 c4 3f 7b e0 d1 c6 3c 80 a7 bf
       0.15830926624748953 -0.04590024878501794
000390 e0 29 24 fd 21 24 bd 3f 59 18 e1 6e e4 12 e3 bf
       0.11383259229857101 -0.5960561910258192
0003a0 53 a7 09 6d 4e 7d bc 3f be 2e 90 6b 13 49 d5 bf
       0.11128702318242505 -0.3325851965353016
0003b0 bd 5e 43 58 c5 48 b9 3f 97 a5 b3 0b 2d e3 bd 3f
       0.09876664547789012 0.11674768005072732
0003c0 95 e6 c0 50 8c 0f b4 3f 27 98 85 41 ac 1d d8 bf
       0.07836224528809972 -0.3768110885488362
0003d0 fe ec be 32 47 8b b1 3f d3 76 fa 21 60 c1 b2 3f
       0.0685314654246447 0.073263176246168
0003e0 ee 82 99 f9 6e 85 d0 3f 72 0e 2e 93 04 bd c3 3f
       0.25814413428274363 0.1542058676387686
0003f0 6b c3 22 17 47 64 d2 bf 8e e3 61 a4 34 d5 b1 3f
       -0.28737046489100376 0.0696595097850958
000400 b3 cb 55 cd 24 93 c1 3f 8c f2 53 f8 08 ff dc 3f
       0.1373029711354242 0.45306610346578036
000410 a6 77 27 17 a7 86 e0 3f d9 ac 20 c4 29 3c d5 bf
       0.5164370968084213 -0.3317970671948394
000420 3a 66 c3 7c 8c 79 b1 3f d5 d7 be aa ca ce a0 3f
       0.06826093717554552 0.032827695219949916
000430 2c 7e 21 d0 0d 52 c4 3f d6 04 12 26 31 3f c4 bf
       0.15875408804548508 -0.15817846640496808
000440 44 d0 66 0a 8e 8c d1 bf eb 68 a6 31 36 ca af 3f
       -0.27420378700049164 0.06208962780074664
000450 19 b1 93 38 3e df d6 3f 03 cb cc 28 1f 6f ab bf
       0.35737567448701807 -0.05358216641470472
000460 f6 ca af da 96 1a c6 3f 1b a7 7c 5f c9 c3 a6 bf
       0.17268644025860852 -0.04446248331653476
000470 bb 0a a9 c3 c8 3f c2 bf 55 ec 38 cc fe 52 92 3f
       -0.14257154039122164 0.017894726958030144
000480 f7 6d af fe de 85 d6 3f ba 82 e6 02 a8 d3 7b bf
       0.3519208418999535 -0.006793648046738704
000490 c3 f2 ce 43 bd 5b c2 3f 9e 48 de 47 05 52 d0 bf
       0.1434246617408431 -0.25500614183796155
0004a0 50 45 7e 4d 8c 5b c6 bf 4f 07 ea 4c 7a 7b d5 3f
       -0.1746688249955164 0.33566148291730696
0004b0 57 76 05 ec 51 51 aa 3f d5 23 91 33 d4 0f b1 3f
       0.051401672421644555 0.06664778002699674
0004c0 65 86 4b 3e 5c 2a cb bf f7 8d 3d c1 59 62 d0 3f
       -0.21223023454426762 0.2560028445352311
0004d0 e9 0e 05 dd c4 0b da bf 64 12 4c 51 39 eb c4 3f
       -0.4069683226009447 0.16342846364581753
0004e0 0a d4 41 8d 8f 34 d5 3f eb 31 58 af 1b e7 e3 3f
       0.3313330535377764 0.6219614433953756
0004f0 8b 5e c8 29 ac 8d dd bf 0c 58 ef be ea c0 b5 bf
       -0.4617720039400203 -0.08497492944238177
000500 13 59 62 27 58 34 e5 bf 77 2e f0 88 27 45 a5 3f
       -0.6626396912786582 0.04154323145493504
000510 90 6f fd 7f 5d 4d d2 3f 89 ee 56 27 00 d9 87 bf
       0.28597199915906746 -0.0116443645482527
000520 d6 d4 11 49 f8 6c c8 3f ea eb 05 9f 7a 2d d5 bf
       0.19082549636701768 -0.3309008171997322
000530 66 e5 8c 87 b4 f4 db 3f 56 6e 85 01 c8 18 c0 3f
       0.43681061971036284 0.12575626444128102
000540 ec 19 0c 35 4f e3 cf bf ef d6 ff a5 d5 d1 d5 bf
       -0.2491244324703098 -0.34093228541256243
000550 4b f7 90 9b 9f 80 dc bf b9 2d 0b f6 5f 70 c1 bf
       -0.4453505534364594 -0.13624190820551776
000560 14 a7 7b 75 ba ad d3 bf 42 9a 0b 68 a8 96 c4 3f
       -0.30747853730154984 0.16084771232927336
000570 f9 76 c1 e1 7e cb 7e bf 28 08 00 10 db 85 e2 3f
       -0.007518287307986198 0.5788398087027007
000580 db 3d d1 c2 bd bd d0 3f 65 5a 6f dd 7f 6a c7 bf
       0.26158088708049626 -0.18293760597471756
000590 17 a0 2a 2d 1f fe f2 3f 59 e6 ad b6 05 1d cc bf
       1.1870414509121525 -0.21963569087874893
0005a0 09 ed a4 21 3d e8 d3 3f 63 ec 01 bc 21 00 c1 bf
       0.31104973111696715 -0.1328165214543758
0005b0 64 5c 7a d1 34 b8 be bf 3b 54 ec d9 44 d4 a9 bf
       -0.11999826540191944 -0.0504476085681422
0005c0 c4 ee db 8b fb d0 a3 bf cc 5b 43 9d 65 55 cf bf
       -0.03870378572716285 -0.24479360751021628
0005d0 e2 52 4a b3 89 53 da bf f6 2d 3e 6a 95 80 be 3f
       -0.41134874829121604 0.11914953082867172
0005e0 9e e2 3b 31 b0 af b1 3f b8 40 b5 d1 29 e4 c9 3f
       0.0690870399665848 0.20227549304627757
0005f0 25 65 ab 46 5a 41 c2 3f 96 84 ca 38 c8 65 ba 3f
       0.14261940432224054 0.10311557184697259
000600 cf 61 1f be 7a a3 94 3f b4 63 d0 01 44 df c4 bf
       0.020154874662553553 -0.16306352699828397
000610 16 8d 42 7a d0 ab c8 3f a3 9b d5 27 1a 61 60 bf
       0.1927433583233344 -0.0019994269229530333
000620 6d 96 18 6d 5c b6 c7 bf 50 23 5b a1 a3 89 ce 3f
       -0.18525271727519357 0.23857541445456798
000630 97 97 60 53 c8 a3 a9 bf ef 4f 66 f0 c5 e7 c0 bf
       -0.050077686479468024 -0.13207315672173034
000640 78 09 2b f4 55 d9 ce bf 18 a2 a3 49 b7 81 d0 3f
       -0.24100756094237474 0.25791723433806757
000650 9d 6e 42 90 49 4a d3 3f 7f 56 57 0e 27 f0 d7 bf
       0.30140914047090367 -0.37403274918083435
000660 af f7 ca 86 f4 cc cb bf 7b 6e a8 34 cf 5f 9f bf
       -0.21719223577195865 -0.030638921345696773
000670 78 60 c9 96 61 99 ce 3f 8e 08 0f 49 fe a7 a9 3f
       0.23905582296970684 0.050109812181760124
000680 7e 20 d4 58 02 49 ca 3f 3e bd 8a 4c 89 b4 c0 3f
       0.205353062985754 0.13050953137779148
000690 f6 f3 2a 25 00 f8 c3 3f 54 64 14 c3 b3 27 d1 bf
       0.15600587668259863 -0.26804822970149655
0006a0 c6 54 10 e7 4c 31 c3 bf 71 45 de 71 71 23 ad 3f
       -0.1499420288315944 0.05691103472703219
0006b0 fd a1 b9 61 48 4d b3 3f d3 50 09 96 11 6d b7 bf
       0.07539799104564078 -0.09150800621984283
0006c0 6a 62 ce eb 21 47 ce 3f 04 b5 69 a7 6c 6b b3 3f
       0.23654579175924378 0.07585791671018077
0006d0 7b 33 14 b2 1b b4 ac 3f 89 24 70 5a ef 24 d1 bf
       0.05606161640944315 -0.2678793318924098
0006e0 b2 26 3c 4b 95 83 bd bf ee 9a 3c 60 ac 35 c2 bf
       -0.11528904997626446 -0.14226298045215152
0006f0 c5 78 d5 fe 38 69 cf bf 23 4e f1 f8 65 df a7 bf
       -0.24539864008960968 -0.04662626899576263
000700 35 82 59 fc 82 74 d3 bf 5d ed 91 2a 1f d9 d1 3f
       -0.3039863075592025 0.27887705952863034
000710 4a 8d a8 da 4b af b1 bf 62 78 eb 80 41 f6 d0 3f
       -0.06908105934467304 0.2650302657110669
000720 f4 78 7b 6a 74 5b bc 3f d9 5f 5c 0b e9 26 a1 3f
       0.11077048873582723 0.03349998725587939
000730 50 fb 06 66 70 f1 83 bf cd 06 d1 1b 07 2a b3 bf
       -0.0097378522049191 -0.07486004284967436
000740 27 07 c1 4f 42 4a bb bf fc 31 ef f6 3d 3b a8 3f
       -0.10660185286635891 0.047326980965951976
000750 e5 06 7b 4a 5b 66 d4 3f 0b 5f c7 a2 b4 b4 ca 3f
       0.31874735139363813 0.2086396975344019
000760 e7 22 1a c0 0c 34 ce 3f 23 96 49 4e d3 ea d2 bf
       0.2359634340284835 -0.2955826057935573
000770 b8 81 e6 06 98 65 a0 3f e5 74 ea ea 9f a6 cb bf
       0.03202509960397343 -0.2160224816370039
000780 b5 c5 bb 1b 72 f4 d0 3f 6e 5a 1e 86 78 c6 b9 3f
       0.2649197836718387 0.10068467401866041
000790 47 09 67 30 bf dd d5 3f db 01 1e a0 95 62 d2 bf
       0.34165935255818564 -0.2872671188015638
0007a0 81 a7 18 9b 74 04 ca bf f4 52 5b 41 09 ea c7 3f
       -0.20326097081243336 0.18682971659895709
0007b0 41 b0 46 01 cf 2d c7 3f 00 14 13 d0 25 f4 d0 3f
       0.18108546793280492 0.2649015933969281
0007c0 42 bf 31 f5 30 3b cd 3f 61 b2 90 e0 2b 4c d5 bf
       0.22836887333277828 -0.33277413301656195
0007d0 2c ec 0e ab f4 0d a6 bf 33 24 d8 82 3a 19 a4 bf
       -0.04307522380937487 -0.039254978630261304
0007e0 ba 30 9c 5d d0 3e b4 bf da 1b 9d b5 15 53 ae 3f
       -0.07908346448329243 0.05922763673748195
0007f0 cb 08 a2 04 ff 23 c4 bf 17 57 3d 36 9e f7 d6 3f
       -0.15734851576059436 0.3588634042438214

bias f8 [30]
000000 3e 8d e7 ab 45 aa cd bf 68 47 70 9c 06 60 9a 3f
       -0.23175879377149927 0.02575693445039154
000010 3b 97 d8 7d 8c 8a a1 3f b1 84 7f 9c 3d 79 b0 bf
       0.03426016842085607 -0.06434998579745145
000020 db 47 df f8 24 51 8c 3f ca 13 17 41 1c 6a ba 3f
       0.01382664570329333 0.10318161572565923
000030 51 9c f5 3a 03 c3 ba bf 2e 39 24 03 9d f2 a5 bf
       -0.10453815640868071 -0.04286661780689581
000040 f6 d5 a7 f5 7c eb b5 bf 7f e6 ad 96 19 81 b4 bf
       -0.0856245136017931 -0.0800949089879399
000050 d9 b6 b2 1e b2 e5 b1 bf 95 c0 6e e1 e9 33 c9 bf
       -0.06991112946954149 -0.1968967772240872
000060 8b 07 bf 38 28 01 cd 3f 33 ed bf 8f fc 82 97 3f
       0.2265978123742197 0.022960611604486657
000070 c3 20 db b3 17 9f b0 bf 24 6a ba e1 a9 45 ab bf
       -0.06492756024374828 -0.05326586609335873
000080 36 45 d5 be c7 c7 c6 bf 6d 38 45 07 97 0f 94 bf
       -0.1779718095590767 -0.019590720957517172
000090 ec 70 97 dd 44 13 7c 3f 34 1b f2 5d 3c 18 a2 bf
       0.00685431385633371 -0.03534115454481537
0000a0 82 5a 7c 52 4a 02 c2 3f 22 c9 ee be 12 eb c2 3f
       0.1406948950541001 0.14779886553658012
0000b0 55 a2 9c f2 d5 51 b7 3f b4 15 1a b8 d0 15 88 bf
       0.09109246419087332 -0.011760359400123523
0000c0 19 58 29 c2 49 d5 cb 3f c5 1c b1 0f 69 27 d0 bf
       0.21744653683225648 -0.25240541965872537
0000d0 fb c4 02 36 61 85 b3 bf 8a 29 6a 3e 01 0f a1 bf
       -0.07625396317122927 -0.0333176029863181
0000e0 21 c5 c1 99 b2 47 a5 bf 30 09 94 e1 a5 ba 9a 3f
       -0.04156263472476441 0.026102630513386404

weight f8 [2, 30]
000000 01 86 ce 6e 08 33 e7 bf 3f 77 4c f1 3a 7c d7 3f
       -0.7249796070283879 0.36695741237950935
000010 81 3d 4b 6f 05 a4 b3 bf 5a 6a 91 f7 49 7c fc bf
       -0.07672151534210593 -1.7803439779878745
000020 26 a5 d6 5d dc 2b e2 3f bd 47 74 19 49 46 ec bf
       0.5678541024000523 -0.8835797783997276
000030 c2 b0 00 08 6c bd d3 bf c9 2e 2c 7c ec da b9 3f
       -0.30843640119088545 0.10099676162297579
000040 9b 31 6e 0e bf 22 da 3f b9 d8 c1 8d 2a 9e d9 3f
       0.40837074670050705 0.400278700289515
000050 f1 f1 ae 29 3b f3 c0 bf 07 fa c7 c7 ba 28 da bf
       -0.13242282424279453 -0.4087359381664161
000060 26 1d b6 cf 90 29 c6 3f 4b 9a 8e b0 9d 09 e0 3f
       0.17314348356396997 0.5011738251094554
000070 5b 2f 85 62 90 9e c1 bf 4e 59 88 b3 a5 73 e0 bf
       -0.13765148935851354 -0.5141170984741537
000080 4a 0a 1b 71 ee 16 e0 bf 54 f4 95 9b b2 cb bb bf
       -0.5027992447942975 -0.10857693003159002
000090 2e b0 17 b4 94 cb ac bf 60 ee 4c 21 2f 37 ad 3f
       -0.056240698799087205 0.05706164628506083
0000a0 f4 ea 37 67 46 bd d1 bf 77 8e 34 b4 ff 23 d8 3f
       -0.27717742996144 0.3771971950356838
0000b0 8d a4 fc c4 96 e3 b4 3f a7 0b 6c 6e f7 40 b4 bf
       0.08159773167848723 -0.07911631055689715
0000c0 4e c5 30 f3 9d 66 b4 bf 50 ae 1b e8 99 bf e5 bf
       -0.07969081103580786 -0.6796388181077848
0000d0 8c d9 5f 74 93 a1 d3 3f 39 3d 32 8a 79 f9 bb bf
       0.3067368160694961 -0.10927543281490139
0000e0 d0 71 79 d5 6e 61 d9 3f de f4 81 63 e8 a1 e9 3f
       0.3965718350134724 0.801014131880631
0000f0 e8 8e 3f 08 2d 15 e3 3f 51 3a 7f e2 f7 c8 d4 3f
       0.5963349495982273 0.324766131580792
000100 d8 f9 16 7d 55 39 de 3f 04 3f 2e 25 63 47 ca 3f
       0.4722493859843815 0.20530356708012942
000110 42 b6 84 3c b2 1b b7 bf 84 c6 ac 76 d3 6c ea bf
       -0.09026636102199695 -0.8257844274396153
000120 2e 92 31 87 2c cb a0 3f b4 88 3a 6d 5c e9 d3 3f
       0.03280009413063954 0.3111182276426334
000130 bb 37 27 15 8d fe c8 bf d2 ae 5c 80 d5 47 af bf
       -0.19526828320380027 -0.06109492484969582
000140 5f a2 28 a8 62 37 d0 3f 69 8e 82 fb 7e 92 a3 bf
       0.2533804552245211 -0.038227050973799255
000150 2f 3b b5 f8 e2 97 dd bf 37 ad 75 fe 45 d7 e0 bf
       -0.46239542281994067 -0.526278492919494
000160 58 b1 4a 25 6a 7f d7 3f 05 1f d7 15 7b c0 dd bf
       0.36715177194380066 -0.4648730958256098
000170 c1 9b 9c ea b3 39 e5 3f ea a5 c4 c7 f2 25 dc 3f
       0.6632937986622595 0.43981618412598655
000180 1e fa 9f 50 c8 16 c7 3f 92 ff d5 af c9 29 cb bf
       0.18038276612055965 -0.21221276365031067
000190 d3 97 e2 18 52 18 c2 bf d2 f6 41 ed c6 6a e9 3f
       -0.14136720862478444 0.7942843088091769
0001a0 ed a1 b5 d5 b8 1b c4 3f b0 e8 37 fa 6d b9 b1 3f
       0.15709600863489417 0.06923568114135281
0001b0 54 41 cf cb 87 9c d9 3f a3 d0 30 87 47 6c e0 bf
       0.40017886069565134 -0.5132177010005033
0001c0 6c a7 45 08 32 c4 cc bf c9 c6 aa ba 94 c7 b1 3f
       -0.2247374096289677 0.0694516139726843
0001d0 a1 36 82 99 2f 0d ce 3f 74 46 d6 f5 fe 7b e9 bf
       0.23477740283526763 -0.7963862229828025

bias f8 [2]
000000 1e 1e 1b bf be 70 c2 bf f8 9d d8 e7 b8 c7 d2 bf
       -0.14406570750564723 -0.2934400810358677
