AONN_BFGS/BFGSNN/steady_NS/results/AONN/AONN_02mu_t1/p.pt (torch, 19347 bytes, 8 tensors)

weight f8 [30, 2]
00000000: e8f6 c95b 944a e4bf dc9e 4ed2 7c28 d7bf
00000010: e121 2559 a813 cfbf 659a 28b7 b089 cdbf
00000020: cabc 1838 a269 e4bf 62d2 89ab e4bd d4bf
00000030: 9397 212e c9ea bb3f 3a36 652f 417d e3bf
00000040: c005 dbce cb81 b63f 5fee 1d66 f532 c43f
00000050: c275 21e6 8993 b03f 14ec 55cf 6bf8 e0bf
00000060: ef05 f060 0515 b73f 7cd5 87fb d4ef b3bf
00000070: 5685 fd19 001e e13f e649 6509 afdd 6e3f
00000080: 952b 5657 2bdf e63f a2b5 59d6 0d74 b93f
00000090: 8e78 755c a01a d33f 9887 ffdb 9b5b cbbf
000000a0: 5aca a993 28af ce3f 8fc1 2f97 2c99 dd3f
000000b0: c3bf 975e d5c8 903f 71ab e4ac aeb6 b93f
000000c0: 54af 7907 dca9 e4bf 78b9 7527 a882 af3f
000000d0: f540 5b23 274b c93f deec 4c96 e877 c6bf
000000e0: f70f 4052 a925 b33f 89c6 6139 b4fd d4bf
000000f0: 5e56 e467 3d50 b03f acee b951 036d da3f
00000100: 25e3 d6db 711f dfbf 8934 874b 5451 d8bf
00000110: 5046 6037 f8ed cf3f 949b def8 57b5 c73f
00000120: 6ba2 4cad 8c5d eebf b2fc 31e2 0a63 cdbf
00000130: 3827 1b8c a1c2 d5bf 1aef 7b7a 65a4 d8bf
00000140: d017 ad11 0634 d83f 2451 b462 45e7 d7bf
00000150: 6457 8ec0 640d e6bf c2bb 2bd2 9788 bcbf
00000160: a7a2 f96c 0288 dabf 00ce 5de5 374d f03f
00000170: a193 b808 9eb0 e0bf 1a4b bc93 c67d db3f
00000180: 70ab 5864 6f64 e9bf 3913 9a44 4b0d ca3f
00000190: 8e09 853c 8249 aa3f 2072 72cd 5030 e43f
000001a0: e753 77ad 0557 da3f 0a3e 9b9a 972c ddbf
000001b0: 8986 e0da 6ff1 e53f ead5 3082 25a1 dbbf
000001c0: 701f a61e 7d69 c53f 6258 006e 0847 db3f
000001d0: d463 0838 0d2d e3bf c529 200f 70ae c8bf
-0.6341039459946076 -0.36184616601756914 -0.24278740265641743 -0.23076447432795813 -0.637894734920246 -0.32409016372483823 0.10905129791498629 -0.6090398717585181
0.08791803169426426 0.15780513273408567 0.06475126141000145 -0.5303248452686398 0.09016450516357798 -0.07787829533466167 0.5349121577857356 0.0037678164182264216
0.7147423463624017 0.09942709429898014 0.2985001471441898 -0.21373317949388304 0.23972041330451327 0.4624740101271749 0.01639111890648316 0.1004437610724105
-0.6457348009111947 0.06154370767295608 0.19760598398580212 -0.17553431834117011 0.0747934175306567 -0.32798486331658033 0.06372436319755923 0.41290362340053366
-0.4862942358845877 -0.37996394515796134 0.24944975570592698 0.18522166873773627 -0.9489196190598482 -0.22958503765764743 -0.34000433618767856 -0.3850339599737126
0.3781752750986671 -0.3734906639013096 -0.6891349564418587 -0.11145924454807157 -0.4145513595781644 1.0188521346689186 -0.5215597315151294 0.42955173899933785
-0.7935101470842323 0.2035307011575698 0.05134207714810933 0.6308979046476146 0.4115614122395627 -0.45584669206888917 0.6857222819273413 -0.43171060289327434
0.16728176113633308 0.426210505889122 -0.5992494673147299 -0.19282341707760345

bias f8 [30]
00000000: bbbe 633d c663 df3f 857a 2c52 00ab c93f
00000010: 89bd f90a 6ae6 d53f b45d 1f8a 7b8b d23f
00000020: b9e7 dec0 98d7 c4bf 9cdf e4d9 fe9b cb3f
00000030: 6730 28e0 27af a2bf 029c 6e98 b1be d7bf
00000040: 4d57 bfb5 3642 dcbf a7e8 946d e4af cdbf
00000050: ead2 4e77 a493 b9bf df03 e58b 7e60 b13f
00000060: e0bf bbd7 3fc8 913f 8083 0593 bf2f b3bf
00000070: 63e2 dd10 694e c03f 257c efdf 4a11 dabf
00000080: af16 dfe9 6dd6 d83f 2a95 1b97 886c 7d3f
00000090: 40aa 1bb6 d90d e43f 3c61 bb0e e8de bf3f
000000a0: b234 e4ed 0a56 9d3f 07ed 1200 5430 d03f
000000b0: 28c2 d9fe 9886 91bf b7d5 f5c6 eba5 d4bf
000000c0: 63f3 cd6a 1b88 cf3f aa79 f294 0a1f c4bf
000000d0: 0b85 5800 2e02 443f 64e3 a479 b95e b13f
000000e0: cb36 d15e 933a adbf 0bd4 5842 762b d63f
0.4904647445209595 0.20053104412450665 0.3421883685286607 0.28976334084060373 -0.16282948892131602 0.21569810523373867 -0.03649258242884983 -0.371014021739427
-0.44154136418125206 -0.23193030691783642 -0.09990909493246716 0.0678786365069892 0.017365453283616605 -0.07494733180420887 0.12739289592333866 -0.4073054491872788
0.3880877288723736 0.007183583789559559 0.6266907269285369 0.12449503287951286 0.028648539323559326 0.2529497147294965 -0.01711501174435362 -0.3226270144435505
0.24634115901053652 -0.15719730637370094 0.000610611402127288 0.06785163135363131 -0.05708752186238327 0.34640270690152936

weight f8 [30, 30]
00000000: 2977 6a55 76b8 bf3f e60a fa26 30ab babf
00000010: 347e c8a3 59ff c83f 8b37 6f76 bcf3 cf3f
00000020: a6b5 e8f7 618f d33f 20b7 42e5 5ba0 aebf
00000030: 8de9 0352 1030 a8bf 4f57 eb84 ee4e cc3f
00000040: d854 103c 27d4 d4bf e2df 4a36 136e c63f
00000050: 9748 734f d457 bcbf cf92 5251 4573 cd3f
00000060: ebe5 8d98 6c9c c83f f3ca ffaf a128 aabf
00000070: 125f 2139 95f0 843f 222f 0361 5513 b1bf
00000080: 4411 9d0e 5634 c1bf 1ffd ae85 1a13 c8bf
00000090: a088 5d9e 1d96 cf3f 2728 8937 a278 73bf
000000a0: 8d0c 6fd7 af47 b9bf dcfe 23c3 2741 cd3f
000000b0: 7b81 7266 384d c53f cb89 00cb 946c d43f
000000c0: 4585 3fec c8e7 c9bf d71c 30ea 41b5 993f
000000d0: 991b e770 4517 aabf 7131 e54f 7d6b c5bf
000000e0: 0ab0 5f30 f2a8 ca3f 589e 30c9 e29d c5bf
000000f0: 98da 0268 bf8f cb3f 1cef 5949 c4c3 be3f
00000100: b82d 538d 83fe c6bf 933d ce6c b81f b4bf
00000110: 051c ce00 0f95 d3bf b02e a6ed 60e7 a33f
00000120: 4aaa c537 fe37 c2bf 0ce1 b3fd 5a1f d1bf
00000130: 3f30 b802 09cf cdbf 2581 4a36 abb7 d0bf
00000140: 0f9f 0943 afb4 ccbf 02b1 cab2 24fb b9bf
00000150: 70e0 429f ec72 c0bf 7438 4eaa bfb3 cabf
00000160: 7271 1b56 4297 c2bf dabf 6f9f 81b0 c6bf
00000170: 0960 cae7 4499 c8bf 6cd1 cc58 1242 afbf
00000180: 01e0 c6e8 6134 c63f 3e9b 851d 8956 bfbf
00000190: 978c cf1d 39bb bdbf 4270 70da 8afa aa3f
000001a0: cb9d 8649 c178 c93f 9c9e 0f06 9e35 cdbf
000001b0: 29d6 4e46 a503 babf 5f79 7199 64db c63f
000001c0: a99e 5b45 1a49 d1bf b855 bab4 4a4b cebf
000001d0: 7426 87fc 298c c93f 0493 f13c eb35 bc3f
000001e0: 678d 62c8 9f5f c1bf ee6c 7ac4 02ff d03f
000001f0: 0277 4929 defb d13f 9d3b 961a ec22 653f
00000200: 1d9d b09f a013 b6bf 2b39 8539 4b01 d2bf
00000210: 9ed5 9f70 d793 bfbf cb72 ced5 d3db d2bf
00000220: 0841 d72a 6e5b d0bf ba51 d6b4 2dba bebf
00000230: 345d 9d7b b311 b03f 1608 2de6 5ba6 b4bf
00000240: c2a7 e4e7 5221 b73f 6ad5 1cdd 19b8 c13f
00000250: dd71 0808 bd93 a33f 2e33 1ad4 7131 cd3f
00000260: 6ae9 431c 6f02 cebf 5c5f aab5 f3cc 84bf
00000270: d125 8ea0 a337 b0bf 5fbe 73ef a229 bc3f
00000280: 63e7 70c4 4dad c13f f0e8 3044 7178 b43f
00000290: 6bd7 ce12 7022 c53f 29b5 e3f1 91b4 b33f
000002a0: 7217 05c2 3fca b03f ef40 5375 d5ac b2bf
000002b0: 8bda bfb7 0945 b63f 216c 6981 26cb d1bf
000002c0: c077 bf8b bc00 c43f 7932 3c5a 6591 a4bf
000002d0: aa27 8d48 f34a dbbf c698 be00 98a8 bcbf
000002e0: 51f8 b0ac dfd3 d8bf 7266 0b0a 6113 a6bf
000002f0: 43eb f464 4dd8 c13f e8a5 8fba afd4 c73f
00000300: 45c5 9ae6 c781 be3f 1e14 bbf3 678c d53f
00000310: ae46 bf63 f549 d43f b38e 8d35 9a63 d53f
00000320: b2c1 81db 6da2 a53f de13 72e2 36b0 b3bf
00000330: 99c1 cc2a fd3a c33f 59c0 2ad6 cf5b c53f
00000340: f80a 076c 82b7 bcbf 6051 f1a0 b866 d13f
00000350: 84b4 46b0 2b21 d9bf ad2a 23a4 75ac b6bf
00000360: 7018 633f 379c c2bf f397 cc1d dc6d c7bf
00000370: 5f98 e18a 1606 ca3f 32ae c05c 6565 d9bf
00000380: b9a1 a07d d033 bf3f dc8f 28b7 9345 b1bf
00000390: 2934 2088 4f1b b33f b68d e845 2aac 933f
000003a0: 5b21 e4c8 91aa 973f 0edd e291 7560 d13f
000003b0: 557e 87a4 2a1f ae3f 55e7 a6f4 c9a1 d7bf
000003c0: 1a34 48aa 2f20 debf 2f27 23a6 ad13 80bf
000003d0: a0cb d1cd 2c7c 89bf 0003 37e8 474d d6bf
000003e0: 9c5e 14f4 4cfc c13f 1ebc 3d9c e13d bcbf
000003f0: 1b6a 45dc 6d41 b9bf 4799 a77e e615 b5bf
00000400: 2293 f753 0af3 d43f 1b71 0685 fe10 78bf
00000410: e2b1 bb45 c069 bc3f 307c 5000 a7f4 aabf
00000420: a47e bd5f 4044 c9bf c1c3 c903 5e2d ccbf
00000430: e04e 0cb4 ee2f c3bf c7a4 bb3b 6471 c8bf
00000440: cf48 3620 089d d3bf 78ad 3d63 bc95 b13f
00000450: 8c14 5846 40bc ddbf ae5c 58b2 e296 723f
00000460: 3a13 b95d 8443 b23f 7f20 b43a 54f6 d8bf
00000470: f34e 68d0 5a4d bbbf 11b9 6494 3574 a13f
00000480: b02a f81b aecc 55bf 6904 5d69 bbcd d63f
00000490: d527 d59d fdc1 b5bf e3f6 f447 7122 ba3f
000004a0: 5488 e93c a072 d53f 5d80 0774 4248 b63f
000004b0: 5a8a 41f9 7c50 ddbf 4bca d79c b35d c6bf
000004c0: af1e ea8f 8536 e1bf 1830 45c5 474c c3bf
000004d0: f4a7 9fa5 24f0 5a3f f829 38d4 9c9d c4bf
000004e0: 4ca3 b968 7477 bdbf ac88 1fe8 6a8b d63f
000004f0: 2636 ac35 7b08 dd3f 417f 8d38 ea5a ac3f
00000500: 9551 1be4 fcec d53f 37a0 2c91 c22e b93f
00000510: 821f a2e6 e17e dfbf f938 90de ca6b 87bf
00000520: e680 927d b1c8 cbbf 98a6 624a 9a03 d23f
00000530: a35c e69b 4464 d7bf c85e a558 2e63 ca3f
00000540: 790f e639 3172 e1bf 0d15 e6b2 1578 ccbf
00000550: e351 c0bc c365 c8bf ba27 5851 059b d5bf
00000560: 6334 a375 7ccf d13f e9b8 f255 f493 d2bf
00000570: d035 b0cd 2d78 e0bf 9427 af85 69a5 d23f
00000580: a790 b02b 8bad ba3f c581 445d 5a4d b33f
00000590: f924 77a5 99ec d63f f245 f175 f3da dcbf
000005a0: d6e5 c2f7 02f9 c83f b8c6 f945 4b47 d2bf
000005b0: 4f6e 9ee1 30a1 d63f d0f0 53a4 52bf d1bf
000005c0: 44b9 a559 48fa cbbf 26d2 6a76 0719 cbbf
000005d0: a39c cdd7 3a19 cc3f 86d6 fc17 a8fd c8bf
000005e0: 387e 7f7a 929b c6bf 3383 8c43 04d7 56bf
000005f0: 2b63 4c1b ee5c c83f 414b d1bc e92b cabf
00000600: fa24 5c99 c0c6 cdbf 516d 3e2b 556e a0bf
00000610: a7c2 b632 3086 a7bf 31a1 d7da 1cdb c73f
00000620: 5ca3 8096 a0b6 c13f f4eb a7cd bddd c0bf
00000630: 48f9 bf4e dd95 cd3f 6e5f e844 947d c4bf
00000640: 08d2 7d9b 5ab7 b8bf 39d2 9c92 d18a d23f
00000650: 761f eadf 85f8 b0bf 7f3e 009b 3bf1 afbf
00000660: ecd6 fbba d1c3 c93f 7cda 3409 7c45 bb3f
00000670: 4287 706e 0dc3 be3f 1c06 fc0c 01e5 c3bf
00000680: 96b8 b8a3 bce2 b0bf 6358 84b3 f6c9 d43f
00000690: 317a e2fc ee09 cb3f d37c ea82 ec82 d0bf
000006a0: b6c0 2e70 058e c23f 2425 ce3b 3446 bd3f
000006b0: 9be3 9dd7 5112 c13f 7db6 392e a458 c93f
000006c0: 4d4d d49f 09ea ce3f 42d4 fc36 9eed b53f
000006d0: 0a04 b8a6 a213 bbbf 31ff c38d b5dd d2bf
000006e0: 04b6 119d f667 c4bf 58cb 760d 97fe c83f
000006f0: 27e8 5bd6 d122 c03f 41f9 b595 aa63 ce3f
00000700: fd1a 20c3 1593 d03f 62b3 8f89 d673 88bf
00000710: f511 ef05 61ac 523f 22c0 54b2 5825 c53f
00000720: 7460 1497 4d84 ca3f 9db5 f179 f255 c3bf
00000730: f5e3 2ad4 ccac d4bf 082e 7b42 70de 8fbf
00000740: 1bdf 85cc f104 ab3f e33f 6f72 0fb4 d13f
00000750: 0218 5c51 e951 cb3f 4761 186f 7558 cb3f
00000760: e5a9 63ab a1b7 c13f 3e37 50ee 2f97 ae3f
00000770: d3f6 3e2b b82e c03f 78f0 6df8 7af1 cd3f
00000780: 6059 0573 8e43 b7bf e450 3e5e b137 b8bf
00000790: 63ba 7ec8 fe2e b33f f85d eadd d7fc d2bf
000007a0: f7d2 d778 a049 b9bf 9a86 9a17 29d7 903f
000007b0: c3d3 4fb5 af53 bc3f 1a8f 1464 3bc5 a6bf
000007c0: cf1d 288c 49df cdbf dac7 2b1a a0f9 c7bf
000007d0: a240 6131 b4b8 cd3f f9a9 cb4a efd6 bfbf
000007e0: 88ab 38a4 1358 c43f d760 5fe3 9c5b cbbf
000007f0: 8dd0 15ab 0708 c73f 1f78 5976 b87c cebf
0.12390842042301799 -0.10417462302761357 0.19529266831612946 0.24962573798114493 0.30562638482919124 -0.0598171918257846 -0.047241697322493705 0.22115880480003589
-0.3254488073883528 0.17523422385215698 -0.11071516933160051 0.23008028479411854 0.19227368782939833 -0.05109124444415682 0.010224500471096163 -0.06670125597446178
-0.1344096728663634 -0.18808299567715722 0.24676866753276716 -0.004753717098148902 -0.09875010499586008 0.22855088260984402 0.16641907694157596 0.31912727188514783
-0.20238601241639223 0.02510550491208793 -0.05095879557807521 -0.16734281922471042 0.2082808242988679 -0.16888079475141882 0.21532433108014426 0.12017466345599498
-0.17964214707022363 -0.07860901504886035 -0.30597281530975834 0.038874653825670236 -0.1423337719273426 -0.26753878379487683 -0.2328807128218404 -0.2612102537332411
-0.22426405690497872 -0.10148839345010077 -0.1285072114603767 -0.20861049476338034 -0.14524106220677485 -0.17726154599176774 -0.19217740362069005 -0.06105096181855427
0.17347358575875663 -0.12241417856931222 -0.11613804796029324 0.05269273678297327 0.19899765100602304 -0.22819876953075358 -0.10161812750342193 0.17857034199091523
-0.27008682988387506 -0.23667272400477457 0.19958996611085278 0.11019773710138386 -0.13573071751043672 0.2655646246655142 0.28099779159479976 0.0025801288035788975
-0.08623699091605315 -0.28132897011973296 -0.12334963321321488 -0.29466720466170376 -0.2555804651610889 -0.12002835907907797 0.06277009742676826 -0.08066343659905359
0.09035223161177355 0.13843081757083137 0.03823652957018784 0.22807143074569453 -0.23444928054943698 -0.010156539899341226 -0.06334898633772147 0.11001032205580817
0.13810131160590364 0.0799628058893267 0.1651134578548253 0.07697403102402646 0.06558607565702149 -0.07294973482499122 0.08699093566961318 -0.27802431714889236
0.15627247642163233 -0.04017178274634587 -0.4264496048459657 -0.11194753664185261 -0.38793174614318554 -0.043116600490702775 0.1394135230019292 0.18617817506246515
0.11916779880518387 0.336694705980621 0.31701407185492314 0.334204246805011 0.04225486092116472 -0.07690756824929632 0.15023769941172985 0.16686437566159176
-0.11217513215437325 0.2718946048455759 -0.3926495763251483 -0.08856902367839821 -0.14539232821533998 -0.183040155935657 0.20331079274473304 -0.3968137174403835
0.12188437525822494 -0.06746791097299315 0.07463547776588143 0.019211445347662802 0.023111608396932364 0.2715124058408528 0.058831532081737116 -0.36924981014054953
-0.47071448926073034 -0.007850033409699001 -0.012443876296151235 -0.348466851017335 0.140512103251912 -0.11031923355561488 -0.09865461948121672 -0.0823654231277021
0.32733400535498636 -0.00587558194856921 0.11098863317938126 -0.052647799290064135 -0.19739536928954238 -0.22013449845283442 -0.14990028182420811 -0.19096043507241786
-0.30645945687969073 0.06869103834985946 -0.46461493367707685 0.0045384269083321 0.07134272850187254 -0.39003473027015184 -0.1066490896994841 0.03408973156398266
-0.0013305378232667912 0.35630688943280703 -0.08499131301246561 0.10208805090675414 0.33512121151409713 0.08704009373423234 -0.4580376085415644 -0.1747345462641355
-0.5379054842787435 -0.1507653916581837 0.0016441686516324135 -0.16105995523714944 -0.11510398442045505 0.35225937526969164 0.4536426567218278 0.05538112583485467
0.3425895907978654 0.09836975139899172 -0.49211928866179033 -0.011436066548438083 -0.21706217414339973 0.2814698912066915 -0.36549487328142954 0.20615176514069433
-0.5451894884904355 -0.22241469607630684 -0.19060560909623722 -0.33758671706948074 0.27828895080603483 -0.2902804221474882 -0.5146702782964727 0.2913459592351668
0.10421056572573893 0.07539906289139882 0.35819092901927224 -0.4508637096197098 0.1950992307445591 -0.28560144265712095 0.3535883143719944 -0.27730241820951296
-0.21857551934540187 -0.21170132906048983 0.21951995408310152 -0.19524098559638875 -0.17662268620823496 -0.0013940374030385172 0.19033600171021567 -0.20446511954886584
-0.23262794006613047 -0.03209177163008781 -0.04594565028253799 0.1863742893758711 0.1383858427882626 -0.13176701108736177 0.23113600106439436 -0.16008237232812966
-0.09654775901965007 0.28972281758914026 -0.0662921592394222 -0.06238733546353802 0.201288429546984 0.10652899956481038 0.12016376444128432 -0.15542615064627874
-0.0659597301207405 0.3248268845649191 0.21124064777264231 -0.25799095902216357 0.14495914437930474 0.11435247860039915 0.13337157276307895 0.1980176187238846
0.24151726059117565 0.08565701334448853 -0.10576836176188933 -0.29478205532358276 -0.15942270917314272 0.1952694717161545 0.12606261221645917 0.23741657552813858
0.25897735648361203 -0.011939693520582832 0.0011397311679824916 0.1652022238499749 0.20716256977971492 -0.15106039957337894 -0.3230468818615571 -0.015560986546367964
0.0527720987474238 0.27661501097918356 0.21343723747867221 0.21363704609462728 0.13841648930185993 0.059747217026695484 0.12642576324099383 0.23393189554542793
-0.09087457950713462 -0.0945998053633193 0.07493584055803519 -0.29668232604441824 -0.09877970648069466 0.01644577223362962 0.1106519525199721 -0.04447351071055845
-0.2333766874655638 -0.18730546262628317 0.23219921504142343 -0.12437339378417524 0.1589378883230348 -0.21373330213714922 0.1799325547577876 -0.23818116930755281

bias f8 [30]
00000000: da7e 40bc 2798 acbf d87d 91cd cd1e 903f
00000010: 7174 605c 4d35 9c3f 3d2d 0bec de26 c6bf
00000020: 3685 40a7 38fa c5bf 7834 e592 2ab3 ccbf
00000030: 6068 7c5b 4c4e b3bf 16ac 5129 e21b c43f
00000040: d319 ca4f 168f b1bf 9ac1 fe1f 41bb b03f
00000050: e2fd f06e 5a7e bc3f 43bc c52b 25b3 943f
00000060: b607 776d e9aa b33f 400a be75 6d11 b33f
00000070: 8c3d dfec c29b ae3f ac76 0986 2926 d4bf
00000080: 8201 2b68 b60d b43f a3e6 f797 4f3d c4bf
00000090: 8b52 b5fc 3a8e cfbf 43da 9939 4768 ba3f
000000a0: effa f0be df10 d0bf 84f5 0698 471d ce3f
000000b0: e244 7afa 32a4 bc3f 228c 7990 c788 903f
000000c0: 571d 5ac4 3da8 983f f3c3 6ef5 a37c 9cbf
000000d0: c038 b768 0387 b5bf ff14 b359 7d3c a6bf
000000e0: 1a7d 3989 4670 adbf 5754 4c2c 6cf1 923f
-0.05584835217473279 0.01574250762166493 0.02754708172152615 -0.1730612423474244 -0.17169864813426167 -0.22421772167800547 -0.07541348680061466 0.15710093514948714
-0.06858958671555308 0.06535727530604732 0.11130299767045629 0.02021463470140029 0.07682665750965509 0.07448467373436873 0.0597821153784209 -0.3148292359308964
0.07833423655666219 -0.15812106056528305 -0.24652802790901193 0.10315365940355385 -0.2510299076711097 0.2352685444183572 0.11188047995735276 0.016146772568742425
0.024079289540649054 -0.027819215636274163 -0.08409138971839791 -0.04343024940457418 -0.05749721932510905 0.01849907894491695

weight f8 [30, 30]
00000000: 8b1b d4c4 4736 b1bf 1d9d 74fd cc4c dabf
00000010: 605b 6311 fbc7 b9bf 41b7 cccf f4dc ae3f
00000020: 4794 1bb6 b634 c9bf 1c2f e005 1175 d7bf
00000030: 2b6d 9277 7a93 c5bf 861c 7a74 68a8 be3f
00000040: 9f6f 438f 13d0 cbbf 3fd3 e800 fbb9 c9bf
00000050: 43c9 7891 0b83 b13f eedb 614d c76f a2bf
00000060: 6c3a d012 4b64 d33f dd5a 2138 33bc d4bf
00000070: be1b 9956 5155 b53f 054c b746 ebd2 c43f
00000080: 80c0 6b29 e689 b4bf 6719 6071 4569 dabf
00000090: ebfa b29f d868 c7bf f5d0 82ae 8232 d23f
000000a0: 2162 64ea 4005 ca3f db62 3571 0000 d83f
000000b0: 37b1 bb9b a937 d3bf 3129 7714 0541 a23f
000000c0: 278d 3add c2e9 c13f cce7 98bf 4e03 d0bf
000000d0: 308e 2ee1 1d4b acbf f2a9 6ebf f11b bcbf
000000e0: 96ac a186 842b b9bf f760 d0db 2fc5 cf3f
000000f0: b531 726c fa86 c9bf 6b8b ff4e 93b7 bbbf
00000100: 6463 485c d34d 9c3f 258a 70f2 dfa0 ca3f
00000110: 9841 1a9b 344f c33f 5bdf ec51 7975 c33f
00000120: b2d3 bdc7 d147 963f f4a2 499b 0a8f c63f
00000130: 0f1b 0ae0 4988 ccbf 0dbe 2c58 588b c83f
00000140: c427 b8d9 f091 cd3f c2ba fb4f 2154 d33f
00000150: 2d52 1c8f bd85 b8bf b3f7 d77c 4157 d13f
00000160: 5946 316b 4cd2 2bbf b61b 8d7e 4500 9f3f
00000170: f410 a3e0 60d3 89bf fd15 8e87 2cc4 ca3f
00000180: e14f 0143 e154 a23f f270 5de2 c44c b0bf
00000190: fa64 0d36 f37b c03f 1cc5 20d5 461c c13f
000001a0: a7ad 7a3f 1abc c1bf 05c2 564c 2297 c0bf
000001b0: cbe5 851e 6da9 d2bf 5120 8997 7fe1 d03f
000001c0: 262f 7f51 b6b7 c1bf dffc 7a6c 2422 6e3f
000001d0: 7002 ba58 d1d7 cdbf 1df4 b3ed fc83 d03f
000001e0: b220 e577 e34a ccbf ddbc 5081 7225 9a3f
000001f0: 027e c5d2 b72a b4bf f946 f467 add5 cd3f
00000200: 09e2 8710 43bc b2bf e2ab 5c1c 3f67 c5bf
00000210: e344 004a c419 ab3f 5d87 b374 ec2d aebf
00000220: 1e93 bce4 80b6 d2bf d2f3 5e90 803b a4bf
00000230: c349 ba26 5ab8 d1bf d77b 0ee6 fef0 c9bf
00000240: dc89 ebbc 56f2 c3bf c300 f1f4 2b6e c63f
00000250: 4e82 3664 b3ec d2bf 0763 dc0e 61b9 d1bf
00000260: 498d d226 6626 bcbf 4e99 bb21 1551 c13f
00000270: b475 686c c3b6 d2bf ccfa 969d 1a50 a03f
00000280: 80ac 5ef8 0215 adbf d98c 961e c80b ae3f
00000290: 9032 376a 0cc7 ba3f 329a 8b62 3fae c1bf
000002a0: f349 f3d0 b780 c7bf b81b 52b5 fa80 c4bf
000002b0: 2847 196b ee6e ae3f 3cf3 6a8c 415c cd3f
000002c0: f12b b05f be84 c63f 0495 6f12 b6ab 85bf
000002d0: 4cef 37bd a215 ce3f c90b e074 0ea7 d4bf
000002e0: 2982 c065 d719 d4bf d3ab 33e6 be3c d8bf
000002f0: 0ea9 bebe df49 ad3f ab44 3415 88af b5bf
00000300: e42d 5e78 f743 cebf a5f1 619e 6cf5 cabf
00000310: fb59 2280 4395 cbbf 7210 a645 6174 cf3f
00000320: 27ef 96f5 4c94 ce3f 9818 41ee 6b92 923f
00000330: 5afb 3cb6 bed7 cd3f 1bcf 33cd 76d6 c2bf
00000340: eb3d 7773 7e88 c73f 1dcd 2346 bc8c 95bf
00000350: e9d1 1d6f ce8e 653f ab0e 2862 ed6e d2bf
00000360: 422f 3ca2 f809 bf3f 2e05 9302 2593 a43f
00000370: bb5b 828d 3449 d3bf f648 d680 113d 97bf
00000380: 04df 3b5c aaa1 c53f c19a e4c7 156c 993f
00000390: 99f0 6fcc 8029 be3f 244f e949 42fb b0bf
000003a0: d159 7795 aa27 cabf 21d0 81b1 32b0 d33f
000003b0: 9a4b 18d1 2fa6 bbbf 73e6 9f2f d91f c53f
000003c0: 9f53 5af2 41e8 b5bf 6ecd ea59 849f d0bf
000003d0: 8968 ee6d d86e a5bf c7fd 8f8c 8ebd c03f
000003e0: 87b6 9aff 02d7 c8bf cab7 7f1f e77b ce3f
000003f0: 416c 51c6 8cf5 d13f 9b02 bf2a 45e2 be3f
00000400: 2498 5234 9845 d1bf b4b7 ec68 e64c b4bf
00000410: ff58 3c9a aaf2 c13f 6e88 3e82 532b 853f
00000420: cba1 e264 f1d9 cebf 20b8 c490 e67d b9bf
00000430: ceaa e3a8 f72d 86bf e95d 8bc7 ea85 ac3f
00000440: 4993 5f45 ff58 c2bf f20a 8277 956f c23f
00000450: 57f3 5027 01d4 b43f ca34 1803 5d56 c83f
00000460: 10fc a651 9e63 afbf c634 366a 8df5 bfbf
00000470: f813 8eca cc87 c5bf eb06 d147 0c4e d23f
00000480: a24b 21ee cd37 98bf b0f0 8c67 d470 a9bf
00000490: ff79 b2bd 5705 bcbf 01fb 2b91 30e7 ba3f
000004a0: 7c65 027f 9d13 d03f fee8 3515 70ae cf3f
000004b0: d1e9 a0a7 5f30 d3bf 95d6 82d4 7dc1 ba3f
000004c0: 66ff 5ebc 8eb0 91bf 1920 ddf3 0542 d2bf
000004d0: 31a7 5f0e bea9 cbbf 579c d8e2 f0cc b83f
000004e0: bdef 1b98 9e5a 9abf dcba 3608 5533 b63f
000004f0: ba91 f301 8e9e c4bf 2953 6bf9 eaea b83f
00000500: 44ce 5e7d 2415 88bf d71d e3e4 b52b b93f
00000510: c7a8 5040 7f9b cf3f d172 c84f 8c95 cebf
00000520: afb5 c54f e859 d3bf fc3c 5232 6294 d2bf
00000530: 57e1 2cd2 43ea b2bf 4fe9 2894 7942 d7bf
00000540: ca53 83af 1fb1 b4bf 5fe1 e812 dc67 c9bf
00000550: 3231 06c0 26ad d83f 056d 6f1c 5cdb d33f
00000560: 3658 42a6 cd44 d1bf abf3 0181 1fba d4bf
00000570: fe79 224e 7a84 b8bf ddc5 0603 cd82 a8bf
00000580: 35fb 7392 b28e c13f 13fc 114c b4e6 b5bf
00000590: cb76 4392 3191 b9bf d08f 8a0a c7c4 d03f
000005a0: de4b 0369 2beb 783f 20b5 2f6c 15d9 b13f
000005b0: 24d7 ab2a ea70 d53f a189 0450 7d6b d2bf
000005c0: cf7a cd99 1f2c d0bf 0079 901e 92f3 d0bf
000005d0: 75dd d88d 0dd2 bbbf 4edb 1e69 7a77 be3f
000005e0: 233d 0e04 54b9 663f 6577 7216 5c37 d1bf
000005f0: b595 baaf ed8b 81bf a776 6382 2ece b1bf
00000600: 9508 4d2f 4a6c 87bf aa62 6686 d9eb 8e3f
00000610: f375 9e1d 9cf0 c13f 0900 deda 92c2 c6bf
00000620: 3bbc 921f da05 aa3f c8ac 5a0a 79ea c3bf
00000630: 5bdc fd4a c71a a93f c57e 9568 c90a 5d3f
00000640: ba8c 004a afdd cfbf 3605 4927 61e6 bfbf
00000650: c09b 72da 2d66 d23f eb5e dfee 63a1 b63f
00000660: 5aee ec65 6c91 d23f f444 b299 87dd d43f
00000670: a3bf 9b9c c56a c0bf 137d f9f3 fa57 d73f
00000680: 93c0 25ba 39ac ce3f 4642 177c 046b c83f
00000690: 9da3 b8f3 3e40 cbbf 1662 8a32 b2ac a03f
000006a0: b6df 4dfd 5a86 c03f b316 db1b f244 c43f
000006b0: 03d4 1676 1f39 d53f 4d7d 560d dbe2 9cbf
000006c0: 3f7f eb83 b4ca b23f 922b e452 806d d3bf
000006d0: 205e 13e5 882b 98bf 4c0f 34fd 8bf2 c5bf
000006e0: d3d6 f703 f125 ae3f b50e d63e bed6 b83f
000006f0: bdbb 978a f995 d23f 959e 7cd1 5664 babf
00000700: 4ab8 9fac 4ad3 c9bf 3648 e0d6 161b d23f
00000710: bbe3 f2d4 348e c03f 69a7 acc2 0751 c53f
00000720: edbf d2a7 3872 cfbf 8d5c ce29 a4f6 9bbf
00000730: 697d 02a4 4b03 dd3f e2ff f228 baf9 c7bf
00000740: feb1 0e45 6bf2 b03f d569 ddf6 bf3d c5bf
00000750: b79d add2 9ae0 c4bf 3bba 4527 67c2 c1bf
00000760: e211 0a1d d04b d6bf 8999 898e 072c b0bf
00000770: a5ba 84ac 109e d2bf 5067 8c97 194a c43f
00000780: 1cc8 8a62 7947 c73f d400 1d29 2c35 c43f
00000790: a435 a583 af03 b63f 035b 7bf8 9449 9dbf
000007a0: 29c4 a19b 71ae c7bf 5307 889a 61c7 b3bf
000007b0: f131 95d4 605d b73f 1281 f2a3 d040 c83f
000007c0: a43f 0f52 c03f c5bf cd2d 2b9e e5f0 9c3f
000007d0: 1a72 c5db d288 a2bf 2e16 d322 a0d2 ca3f
000007e0: 275c dad9 d47c d13f 1f5f f350 50e2 69bf
000007f0: f19f 9807 825c d3bf c38d 03be b8f2 ccbf
-0.06723450236687094 -0.41093754531398635 -0.10070771383776167 0.0602795127546032 -0.19692119495371882 -0.3665201718692843 -0.16856318319774152 0.119757202564971
-0.21728748793873096 -0.20098817390830878 0.06840584088857775 -0.03600905246360485 0.3029964145397688 -0.3239868209979429 0.08333309520922591 0.16268673851899976
-0.08022917281391706 -0.4126752478772659 -0.18288715169725064 0.2843329147538179 0.20328532643249367 0.37500010543366863 -0.30027237137143764 0.03565231203863773
0.13994632532294668 -0.2502018805567985 -0.05526059507181136 -0.10980139659537949 -0.0983202770891459 0.24820516808609458 -0.1994317082902747 -0.10826988867442615
0.027640631206029012 0.20803450906630974 0.15085465978019097 0.15202251911409345 0.02175834447503506 0.17624027807621412 -0.22290919722964772 0.19175247483643468
0.23101626044109314 0.3020098954283804 -0.09579071754371489 0.2709506720710763 -0.00021226103635512103 0.03027447304637195 -0.012610203605057248 0.20911175364396675
0.035803832463585435 -0.06367140318383571 0.1287826551368097 0.13367543608323096 -0.13855293368884 -0.12961224296078924 -0.29159095745816604 0.263763330444367
-0.13841895083748418 0.0036783896829032238 -0.23314873535493374 0.25805590832880104 -0.2210354171204521 0.02553347505835012 -0.07877682586467219 0.23308341575516758
-0.07318514970382507 -0.16721333393920107 0.05293095973332542 -0.05894411968780731 -0.2923891290432027 -0.03951646578159508 -0.27687696249008925 -0.20266710503798777
-0.15583309387791544 0.17523717365293665 -0.29569706713121924 -0.2769396443487015 -0.10996092269720238 0.13528694293126836 -0.2924049910232853 0.031861144768745214
-0.05680093080385351 0.05868363736524324 0.10459973900942487 -0.138130114667733 -0.18361566260007542 -0.16018613675643478 0.05944008881910029 0.22937793117844218
0.1759260146357913 -0.010581419408433941 0.23503526915726025 -0.3226963178023508 -0.3140772336646785 -0.37870762329720015 0.05720423892428715 -0.08470964925460815
-0.2364491784795596 -0.21061475499653884 -0.21549266583015467 0.24573913479628434 0.23890077583006894 0.01813667909325342 0.23314651392316926 -0.14716992396972092
0.18385296476343113 -0.021044675618168463 0.002631571952344415 -0.288020463806087 0.12124589882676864 0.0401851239817098 -0.3013430959630871 -0.022693894852246786
0.16899613860709206 0.02482637436437574 0.11782078734535374 -0.06633390717007309 -0.20433552072672836 0.30762927374530774 -0.10800455908638043 0.16503443551464478
-0.08557521979157777 -0.2597361448381069 -0.04186130849775888 0.13078481543924012 -0.19406163674050367 0.2381562141230787 0.28061217658040866 0.12064010900122428
-0.26987271413452363 -0.07929840146672867 0.1402180913070836 0.010336544430007612 -0.24102609087027668 -0.09957734140763863 -0.010829863397210284 0.055709206446120714
-0.1433409775483148 0.14403026900625765 0.08135993203991397 0.19013559962369292 -0.06130690333110789 -0.12484058230457426 -0.16820678606396178 0.2860136700947879
-0.023650376948647918 -0.049688947334716516 -0.10945652371672308 0.10509017509683007 0.25119721797235406 0.24751091991112867 -0.29982749338128395 0.10451494634875254
-0.017275076148279743 -0.2852797395212306 -0.21611762716138963 0.09687715090022785 -0.025736310991291356 0.08672076654941513 -0.16108870597157737 0.09733456219994409
-0.011759076190947522 0.09832321966233991 0.24693289413818872 -0.2389388455930175 -0.30236251631034866 -0.2903066150110616 -0.07388709908707845 -0.363432306945147
-0.08082769427285466 -0.19848204539608624 0.38556832077371717 0.31026366021042434 -0.26982442127462336 -0.323860050186165 -0.09577145011505903 -0.0478729311174779
0.1371672835448067 -0.08555151803192045 -0.09987172909628865 0.26201034573955173 0.006083650179976778 0.06971868411320203 0.3350167671882096 -0.2878106385634514
-0.25269308109083694 -0.26486638054656453 -0.10867390358986546 0.11901059214038165 0.0027739182409686355 -0.26900388900855027 -0.008567673611944973 -0.06955233271897986
-0.011437015121945652 0.015098285116253624 0.14015532919158566 -0.17781291663050094 0.05082589755453922 -0.15559304242683525 0.049032428650143976 0.0017725912933527637
-0.24895278085123157 -0.12460906228172494 0.28748651821882376 0.08840012151574299 0.2901259417883232 0.32602109918032274 -0.12825842043775734 0.36474489045754516
0.23963090504867476 0.1907659154808405 -0.21289812946750156 0.03256756655645547 0.129100202258767 0.158354056931946 0.33161150486131435 -0.02820913571269772
0.07340553494168221 -0.30355842680790446 -0.023603571874302287 -0.1714644419044994 0.05888322041930185 0.09702672037206635 0.2904037335819643 -0.10309355368064595
-0.20176061085607194 0.28290339454645463 0.1293397941388131 0.1665353489454973 -0.2456732577752513 -0.027308049251214817 0.453326139608143 -0.18730856894944653
0.06619902072879566 -0.16594695619535452 -0.16310439383526695 -0.13874520700069745 -0.3483772548281917 -0.06317183713836107 -0.29089753005511404 0.15851135158373575
0.1818687182581592 0.1578726959942346 0.08599373783109471 -0.028601005235795018 -0.18501110171521987 -0.07726106665361714 0.09126858892449953 0.18947799687612893
-0.16600803381743134 0.028262698916291563 -0.03620013172869481 0.20955278110902625 0.27324410700515717 -0.00315967261085949 -0.3025212358647869 -0.22615727689763618

bias f8 [30]
00000000: 27ac 1ab5 8697 8bbf 9afd 5eda 553a a63f
00000010: fa15 1874 cf00 673f 8bba 8f87 7351 9b3f
00000020: 282d 0de9 6ac7 61bf 921e 227d c175 b2bf
00000030: 7b3d 54b7 c1ec a33f b3f4 ca33 aa2b 94bf
00000040: 90d5 7ec4 be82 8abf b545 6fe7 5af1 b03f
00000050: f733 e71f a11e 5e3f 19a2 f962 64aa 8abf
00000060: 1393 2ca4 c6ba b9bf bb4c 737f 312c 6fbf
00000070: 39a7 cb5f 3297 b23f ae4c b521 17e8 03bf
00000080: 136c b766 7ecb b0bf 0a1d e0ba f7c2 52bf
00000090: 92bc 51f2 6f59 a0bf 3f07 656d de67 863f
000000a0: 5946 6097 c100 8fbf 0d42 0b5c aa43 8cbf
000000b0: 92e1 e8a9 f35b 64bf 0d43 a535 f51b 74bf
000000c0: d012 6c11 c60a cb3f 8240 872b f851 b13f
000000d0: 80ca b3f2 87bc 743f cbd6 ce0d bc84 b23f
000000e0: b7eb 5195 903e b53f ed78 f168 cb2d b43f
-0.013472607042180297 0.04341381350195235 0.002808003599741535 0.02667789950276726 -0.00217028504304086 -0.07210931115161603 0.03891568529990771 -0.019697818194562355
-0.012944689151349192 0.06618278646717253 0.001838357303870495 -0.01302030970619321 -0.10050622471005637 -0.003805252719396882 0.07261957968480894 -3.796883194220314e-05
-0.06560506828047634 -0.0011451167333705347 -0.03193235238074367 0.010940301621875313 -0.015138161117678782 -0.013800936635932204 -0.0024852522904234642 -0.004909475183311651
0.21126628733340747 0.06765700400069544 0.005062609717458089 0.07233786904438515 0.08298591275699506 0.07882376968470668

weight f8 [1, 30]
00000000: 6b50 47d2 145b dfbf c749 ced3 accb 923f
00000010: 80e4 a914 09b3 5e3f 79cf 06f0 4505 dabf
00000020: 7e87 e3cd 6256 7abf bcbe 58dd 31d7 d03f
00000030: 8c13 ebfe dd0f b0bf 6b5c 05dc 8e59 d0bf
00000040: ef3f d31b 3015 a83f d602 c868 5011 d73f
00000050: 2f10 668f c2c9 a6bf 1d2a 2160 6415 c2bf
00000060: b537 fdd8 9951 c6bf f953 2771 46f0 a5bf
00000070: 19ed 6297 5b58 d33f aa40 1113 49db b7bf
00000080: 0be9 f7f0 1d4f ccbf a47b cff0 52bf d53f
00000090: 62a1 8ce1 5158 dd3f 5557 9626 20cc c33f
000000a0: 7b1a ed91 8b64 a8bf 97a2 0f10 fa91 ac3f
000000b0: d84f fdc9 6c30 bfbf 4fed bcca 2526 cc3f
000000c0: 4d8b 9b09 1f4e dfbf 42ad b944 d3f2 cebf
000000d0: 0c8c f0e6 8269 823f e875 acd3 9a37 cf3f
000000e0: e5f2 d841 fb8d de3f 5c25 cb4c 400a d8bf
-0.489934163427512 0.018355083873368174 0.0018737400702362461 -0.40657185020540215 -0.00643004031573635 0.2631344472492676 -0.06274211381521705 -0.25546618925495207
0.04703665103590981 0.36043176872776195 -0.04450805664512846 -0.14127783483338954 -0.17436526389286447 -0.04284877902288282 0.3022679308302983 -0.09318978038322948
-0.22116445795092718 0.3398024894394729 0.45851561571409694 0.15466691860336348 -0.047642098963980715 0.05580121465738335 -0.12183265620598094 0.2199141731196996
-0.4891431421112216 -0.24178543906905686 0.008990309403150952 0.2438844235957014 0.477415861419827 -0.3756256818711188

bias f8 [1]
00000000: 0000 0000 0000 0000
0.0
