AONN_BFGS/BFGSNN/steady_NS/results/AONN/AONN_02mu_t1/y.pt (torch, 19603 bytes, 8 tensors)

weight f8 [30, 2]
0	0xbfe100bd30e86443	-0.5313402133207393
1	0x3fd84188692c9d9c	0.378999808034189
2	0x3fdc111eb33f40a5	0.4385449171504752
3	0x3fc4a591dc2b1c68	0.16130278826151145
4	0xbfeb631f434f389a	-0.8558498682630387
5	0xbfe7c1ff03aa7107	-0.7424311706159025
6	0xbfd9c833686df457	-0.4028442878550939
7	0x3fdf1480fa24d45e	0.4856264536677538
8	0xbfd01c5f2464bdd9	-0.2517316680341231
9	0xbfe3fba1d7097b64	-0.6244668197576684
10	0xbfd03be8bcb89b59	-0.2536565630893413
11	0xbfb4219d5b81582a	-0.07863791927351885
12	0x3fbebef697e28801	0.12010136802794592
13	0xbfb209e15d4b2e95	-0.07046326186826442
14	0xbfdffa50886110fa	-0.49965298956182347
15	0x3f9fa59f88e7550f	0.030905239802298697
16	0x3fd29846cca34e0a	0.2905442236344419
17	0x3fdd34dff5e735fd	0.45635222448331075
18	0x3fb6c6528b4136d1	0.08896366023801795
19	0xbfddac0aa3c3795a	-0.46362558357750105
20	0xbfe2f1ff83c2725c	-0.5920407842091424
21	0x3fe55efb05a394ac	0.6678443060051413
22	0x3fd6b91c177c121b	0.3550482014982507
23	0xbfc8d7dfa83b24f6	-0.1940879413071241
24	0x3fa0dcfea6f59b46	0.03293605602339382
25	0xbfe857634b52c9e9	-0.7606674643669155
26	0x3fd91d414f4ba355	0.3924105905885445
27	0xbfe45ee1782a3d3a	-0.636582121560344
28	0xbfd2425aad7425f0	-0.2852999395259692
29	0xbfc073c99a60e829	-0.12853355443968553
30	0xbfdda4797441bc25	-0.46316372254563226
31	0xbfd8775519d69a33	-0.38228347323675677
32	0x3fbcf5035ff9a016	0.1131136044801909
33	0xbfe1d4be424aa92f	-0.5572196287878678
34	0x3fe74ef9a0358a85	0.7283905152401792
35	0xbfa69390bf9ba2df	-0.044094584836619204
36	0x3fe8dc4c1fc58137	0.7768917675530592
37	0xbfcd3fe1bce62e57	-0.22851201747504277
38	0xbfe8ad7b00b12249	-0.7711768163217779
39	0xbfc9b3736ae34028	-0.20078890532613625
40	0xbfcc394f15fb7c7b	-0.22049892972333737
41	0x3fdf93f3ccec9cd7	0.49340529453406873
42	0xbfdbab5583d7e59d	-0.43233240008665935
43	0x3f9524f2664d43fe	0.020648753637320987
44	0x3fc01f5b0daeb95f	0.12595689933864215
45	0x3fbe34ea4e5d8491	0.11799492276397162
46	0x3fbe1824cfd63a90	0.11755590509549507
47	0x3fb7edf6a56c9403	0.09347478426623472
48	0xbfd488d6ff643d07	-0.3208520406778494
49	0xbfe6687e76430809	-0.7002556142617787
50	0x3fe232d20ef95073	0.5687036793192547
51	0xbfba4f5e279f4094	-0.10277355639778057
52	0xbfd2edef3786f11e	-0.2957723657853125
53	0x3fd2879de294c4c8	0.2895273888307881
54	0xbfb10e2d1ea17b25	-0.06662256238767535
55	0x3fd5ab9ef2716b2b	0.33859990764692566
56	0x3fe698a44d7494a7	0.7061330330658578
57	0x3fc2cb6e8b639acf	0.14683324628932445
58	0xbf9ab0b8081257d2	-0.02606475400224168
59	0x3fe3add3fe6ae4bc	0.6149692505925013

bias f8 [30]
0	0x3fa544053536d0a8	0.041534579034676
1	0x3fa758af47ef27bd	0.0455984854994109
2	0x3f9faeb513ce7568	0.03093989308728365
3	0xbfc6e5b82145fc26	-0.17888547539402672
4	0x3fb7722ede59d485	0.09158604553688761
5	0x3fb8fcf51492a2ed	0.0976098227716979
6	0xbfc6ca6cf292980c	-0.17805253834120582
7	0x3fc33a5af118b809	0.1502183606366432
8	0xbfcd554a52aab627	-0.22916535412279979
9	0xbfb93b3f1a2cabac	-0.09856027974153275
10	0x3fe283f164222ad9	0.5786063152057422
11	0x3f77c3dc2f1ee834	0.005802021116261758
12	0x3fe5b437ed2a3a8e	0.678249324047856
13	0x3fd061c33d45f86f	0.25596695884440285
14	0x3fd58c03f4b1f4cc	0.33667086502084653
15	0xbfc88a113a634cae	-0.19171347952815182
16	0x3fca2dea2bced2d9	0.20452620638902522
17	0x3fcc4574358c5ede	0.2208695661035937
18	0xbfe6e12861da234b	-0.7149850760625694
19	0x3ff0580be90972a4	1.0214957335476038
20	0xbfcc7d35abd3e2fa	-0.22257109537147085
21	0x3fcbf897e6d4998e	0.21852396746653507
22	0x3fb6e11e961347ba	0.08937255062053753
23	0x3f9b05c70d9b5412	0.02638922710942288
24	0x3fd95bd9c0bbe22d	0.39623111554786555
25	0x3f8ad96753449d62	0.01310997698654032
26	0x3f94e72d949f6c25	0.02041312427159538
27	0xbfcaa740d15ee312	-0.20822916243721373
28	0xbfd6bf0fbdb09f87	-0.3554114677849544
29	0xbfe06656ab1b0b28	-0.5124924985796939

weight f8 [30, 30]
0	0x3fc01cb1f2ddd170	0.12587570532526682
1	0xbfcf71a795947bd9	-0.2456559639331022
2	0xbf95cfe5c21b6fa7	-0.02130087849842224
3	0x3fcaa0d82eebad9d	0.2080335835556583
4	0x3fca14a187164fd9	0.20375460716297658
5	0xbfba631855ab59b8	-0.10307457057510916
6	0x3f9aae7a82990de6	0.026056207867680835
7	0xbfbb530099381007	-0.10673526516626462
8	0x3fbb21061f605aa1	0.10597265497231458
9	0x3fc87ef823543d92	0.19137479519893624
10	0x3fcaca1905d1f70f	0.20929253372371945
11	0xbfc14981056e71d5	-0.13505566373068115
12	0x3fabbbeb5806fb3d	0.05416808557082795
13	0xbfc80aaa462d7332	-0.18782547403943678
14	0x3fbcee92f3956376	0.11301535078872668
15	0x3fa80e965912c16c	0.046986292241288335
16	0x3f9a3a38dcab9403	0.025612724751130866
17	0x3fc4b8fc06dcaaa5	0.1618952783113247
18	0x3fc7489de68dd8b2	0.18190358884357277
19	0xbfd5ad90714d1f85	-0.33871851982666384
20	0xbfc017edc0fd4065	-0.12573024676612757
21	0x3f79efe9cce542a2	0.00633231476088328
22	0x3fc07ec900077908	0.1288691759245426
23	0x3f9bae9ee1ab4f0d	0.027033312343362193
24	0xbfc6db82b1662698	-0.1785739294248756
25	0x3fc4d72c8afe63d6	0.16281658922960557
26	0x3fb27a4ce634633a	0.07217865581732222
27	0x3fa521a59f3e8abb	0.04127233094120216
28	0x3fb1d3d187633ec6	0.06963834338534544
29	0x3fd41e53a33b820a	0.3143509954516338
30	0x3fad8fe586f43cc8	0.05773846886051498
31	0xbfcec71ad5f90edc	-0.24045119712729146
32	0xbfd468b2cebfd1c0	-0.31889028730736513
33	0xbfce061b6ef3eac8	-0.23456137578599212
34	0x3fc38f94f16e2af1	0.1528192690714927
35	0xbf65c5521c55dca5	-0.0026575664257354075
36	0xbfcfd3172acf1595	-0.2486294707324929
37	0x3fab19c02b9c0b30	0.052930836985998986
38	0xbfbad45633b95af2	-0.10480250132364313
39	0x3fba955dff8782ac	0.10384166229733677
40	0xbfc2459b2daf8042	-0.14274921160449777
41	0xbfbeec2904a40a76	-0.12079101908970266
42	0xbfc320f552da0a66	-0.14944330735677908
43	0x3fc0b14b0f342499	0.1304105591046081
44	0x3fc9ef118283422c	0.2026082885045225
45	0xbfc83e8822a96f7f	-0.1894083184478141
46	0x3fc8c9ca2e7b38fb	0.19365813512417404
47	0x3fcc91a84de1f083	0.2231951122556702
48	0x3fd14189acdcacbe	0.2696251094918799
49	0xbfc1fa8872dbbf31	-0.14045816047973284
50	0x3fa4c8dd4f363ef1	0.04059497444097627
51	0x3f92d13888647fe4	0.018376239132635322
52	0x3fd1a71df8444385	0.2758250164488845
53	0xbfc2dde6a8deef86	-0.1473968815388355
54	0xbf945402030f9592	-0.01985171455080132
55	0x3f9ef586ac3e9a31	0.030233482611629895
56	0xbf65ef1f84635d93	-0.002677499348560716
57	0x3fbd46ff2ad36f79	0.11436457438997917
58	0x3fcb66a0146a014e	0.21406937596112602
59	0x3fd064e21b2692df	0.2561574235099168
60	0xbfc66b8ca750c386	-0.17515714807225552
61	0x3fca8722f1db9147	0.2072490387864809
62	0xbfd0968e30dfa4b6	-0.25918917439282596
63	0xbfd9e49799d756b7	-0.404577160106196
64	0x3fc4c540be52a587	0.1622696809111341
65	0x3fa3db706214453e	0.03878356168037066
66	0xbfd4d2a8e0cc3e80	-0.32535764649308163
67	0xbfcc4aaf0d37a22f	-0.22102916856171492
68	0x3fce3fc198190f78	0.23632068564085862
69	0x3fb8ad73d57e978b	0.09639667475002349
70	0x3fc8a2a698cf6018	0.1924637075560447
71	0x3fa8daccdd4b5fa5	0.048544313443641664
72	0x3fcf14077c5fb0ae	0.24279874394358586
73	0x3fcc63be3bf0bf1e	0.22179391791132103
74	0xbfc2bb151f88d50c	-0.14633430518885182
75	0x3fc54b86b8f2be84	0.1663673785274008
76	0x3fcc5e7df56d7755	0.221633667791077
77	0xbfcb17129c6554a5	-0.2116416228915671
78	0x3fb40d6889d9697b	0.07832959523640241
79	0x3fd0331f672fb5e6	0.25312028004449727
80	0xbfbb22ae10bab4dc	-0.10599792393141477
81	0xbfb76d685203349e	-0.09151317598589734
82	0x3fc0c2a2b54fbe3a	0.13093980649090203
83	0xbfc3fcafe0f1e860	-0.1561488960613273
84	0x3fce8b5880f14bc7	0.23862749382041512
85	0xbf97416605249ac0	-0.0227104130400686
86	0xbfca6bbff8078d54	-0.20641326533141557
87	0xbfd8a97360322b3e	-0.3853424491323273
88	0xbfd33d6208b3b9b9	-0.30062151765642003
89	0xbf97d8bcb7ae9115	-0.02328772421937327
90	0xbfabd63ee62128f8	-0.054368939964278995
91	0x3fb58d4ad0e7a8cf	0.08418719864099276
92	0x3fbc9ed45a409b73	0.11179854587008524
93	0x3f70467e339d433a	0.003973477339813064
94	0xbfd411ed8e8a0970	-0.31359423560947786
95	0x3fd119341d4a9146	0.26716330395199284
96	0xbfb4b6162bb9495d	-0.0809034210917949
97	0x3fc50f901594810d	0.16453743985858474
98	0xbfc66cc14fb2e37b	-0.17519394294302146
99	0x3fa161d96e18c65a	0.03394965619044106
100	0x3fc98fad26ad510e	0.1996971548893573
101	0xbf908272f6f5db4c	-0.01612262375189326
102	0xbfd70b2113bd2d6b	-0.3600542729152127
103	0x3fc256edae581f5b	0.1432778455057314
104	0xbfae3ed186b56f30	-0.05907301682847643
105	0xbfacf18a158dfbee	-0.056530299311809404
106	0xbfbfbfd7860d5653	-0.12402102492100057
107	0x3fc47629acb7857e	0.15985604222718658
108	0xbfd5df6f49222f79	-0.3417623724169441
109	0x3fd36e80149e5fda	0.3036194039682393
110	0xbfbdcc4c9cfe6476	-0.1163986094747019
111	0x3f6fedb241928e3f	0.0038975221219333107
112	0xbf98d9101c6abf16	-0.02426552937930556
113	0x3f7b81299640dad2	0.006714975785192494
114	0xbfca3d41adf80476	-0.20499440187998957
115	0x3f96c8db2db9a9e3	0.022250580468986213
116	0x3f9c58048780d308	0.027679510851345263
117	0x3f5752acd132d0c0	0.0014235198657788634
118	0xbfc29027855d9ead	-0.14502424251553717
119	0x3fcc5cf4f51e39b1	0.22158681839614539
120	0xbfb218b968e89e21	-0.07068976222273494
121	0xbfcb4f72cb6a746e	-0.21336207325376527
122	0x3fa82d286676aec1	0.0472195267751352
123	0x3fc32f3bc4369135	0.149878950888828
124	0x3fd42b612df1cf3e	0.3151476811101367
125	0x3fce333385b8832a	0.23593753842671933
126	0x3fbb975f7ee878b0	0.1077785191377838
127	0x3fd18bd6ba899abd	0.2741600820212787
128	0xbfaf19997119f55c	-0.06074218278534246
129	0xbfc6c0d5ba722e9b	-0.1777598533993697
130	0x3f9caf9a1f914989	0.02801361863778021
131	0xbfcac3e55f53fd0f	-0.20910327105227863
132	0xbfd9543c859884ca	-0.39576638266050834
133	0xbfd413a20630f8fe	-0.3136982975446613
134	0xbfc460fbbf8eafa3	-0.1592096982325276
135	0x3fd0b03dfa685bc2	0.2607569642436226
136	0x3fa21076576eb69f	0.035281847165021356
137	0xbfdcd4f4c8949380	-0.45049781406333267
138	0x3fc438e58792d54a	0.15798634643366888
139	0x3fb45866851fca35	0.07947388410665542
140	0x3fd4f178be3135bf	0.3272382600160561
141	0x3f95e91fd3525c36	0.021397111199430628
142	0x3fc77ed539066e1e	0.18355813297681406
143	0x3faec6f6c771b004	0.060111724706843034
144	0x3fc0190289fb2eeb	0.12576324212420018
145	0xbfcd2e2266d7e6dd	-0.22797040959976914
146	0x3fd239a21bba4964	0.28476765353948097
147	0x3fc92baa429a2af7	0.19664505245267325
148	0xbfd3ec1d5f3b9967	-0.31128629970625926
149	0xbfc98a7568f8a6af	-0.19953792214919505
150	0x3fd452c350d42819	0.3175514497130521
151	0x3fbf3ae19abd88dc	0.1219922068389993
152	0xbfa6d7dbb69bb711	-0.04461561779122126
153	0xbfd2b6eb3808de4d	-0.29241447898991596
154	0x3fd17dea1af6f985	0.2733102095916354
155	0x3fd61fcda3fd5aff	0.34569111837974725
156	0x3fb8a16ca3f6925c	0.09621314051634883
157	0xbfa5bef490ea0fd2	-0.04247249859784542
158	0xbfd6fe78001dc00d	-0.3592815400252228
159	0xbf6fbfab59c065a7	-0.003875574750065797
160	0xbf9d72b4fc278d2a	-0.028757884874619645
161	0xbfca597afb64c1b7	-0.20585572505070868
162	0x3fddab753de5cbad	0.4635899643391735
163	0xbfc295f244a5f627	-0.1452009997555461
164	0x3fba1e25e26ac482	0.10202252176056173
165	0x3fb524db090f0905	0.08259362193260607
166	0x3fd2d5a57363d497	0.2942899348120788
167	0xbfa3a61c0cc58021	-0.03837669044401105
168	0xbfcff0b7b61a1175	-0.24953361884775985
169	0x3fdb9fb1a3e42c97	0.43162194256792347
170	0xbfb13f3b534dd330	-0.06737108978070405
171	0x3fd7432902281bf0	0.3634741326390545
172	0x3fbc061f20ef87b7	0.10946840814679502
173	0xbfc65d5561f43201	-0.1747233131685704
174	0x3fcef97c09cb17b8	0.24198866346540426
175	0xbfced898bf1c4619	-0.24098500567974737
176	0x3fa6cc98b5659463	0.04452969755474425
177	0xbfb1fa8d52a1785d	-0.07022937075950737
178	0xbfdacd4387bbea80	-0.41877830748823186
179	0xbfc291107679599f	-0.14505201134552423
180	0xbf9e387cd2bc32a4	-0.029512358057263058
181	0x3fd692b2c1ac051c	0.35270375169064194
182	0x3fc4e82e57c8c12a	0.16333560263002173
183	0x3f9ac7e95245eea1	0.026153226515346465
184	0xbfc1c413e059baea	-0.13879631476034798
185	0xbfa6238a303f233a	-0.04323989714573036
186	0x3fc1cd62f4abe121	0.1390803999600019
187	0xbfdacd98bf82fd17	-0.41879862501441906
188	0x3fd2aa3335a5a1a0	0.29163818587269397
189	0xbf4b09bb2d9888e2	-0.000825134654580031
190	0x3fc1f06bd04a64ed	0.14014957113685203
191	0x3fa70acc1bd6ffc0	0.045004251860063516
192	0xbfe314d45ea05c94	-0.5962926719829675
193	0xbfb80b6938df1099	-0.09392411840878125
194	0x3fabaddb043b2cb6	0.05406078745507996
195	0xbfdbfc37bc528068	-0.43726914778563364
196	0xbfd1596832e69e59	-0.2710819718435907
197	0x3fbc3c6c4d46a00c	0.11029698263757853
198	0x3fd8090ffd9b23aa	0.37555312887394143
199	0xbfd532f0bd08046c	-0.33123415432061765
200	0x3f88a67e25321193	0.01203630972873596
201	0xbfcc3d57cf45dd7e	-0.22062203999278646
202	0x3fce5fc04f02a117	0.23729709489749304
203	0x3f930f3b9818d38b	0.018612795980704127
204	0xbfc577981be51a3d	-0.16771222459847648
205	0x3fd871bf86c0ac30	0.38194263610302226
206	0xbfc59e06b908d659	-0.1688850787629004
207	0x3f79728be30cb5de	0.006212755616429059
208	0x3fd330523b5c23bd	0.29982429310672015
209	0x3fd3d659ef5c229f	0.3099579656123214
210	0xbfba4af17f92363d	-0.10270604481248653
211	0x3fd522af41e7319a	0.3302419799408881
212	0xbfd4a50454d5d3ff	-0.3225718334645648
213	0xbfbf3a6dd4cdbad2	-0.1219853062191121
214	0xbfc2f3803f24f5c6	-0.14805605967732854
215	0xbfb7f543415ec571	-0.09358616205169824
216	0x3fbe308b2c426063	0.11792821722554118
217	0xbfc30a295f28e5b2	-0.14874760767433554
218	0x3fc9845b6fa436c8	0.19935172034495552
219	0xbfd7d7a4a32e400c	-0.3725368112145595
220	0xbfd8eb693784ddf3	-0.38936834737566456
221	0xbf93a9607a512e57	-0.01920080896915829
222	0xbfe6f1dee964bcf6	-0.7170252378909072
223	0xbfd0cc775eaea23c	-0.2624796318655489
224	0xbfdf6cccc0439437	-0.4910156133249219
225	0x3fb658387097099d	0.08728363751200736
226	0xbfcea80cd1f1a8d8	-0.2395034813992598
227	0x3fb69628dc401f9b	0.08822875382622757
228	0x3fe0482287c1b9a1	0.5088055278300098
229	0xbfe9ddb747b98793	-0.8083149338601622
230	0x3fce365f1f8e59ab	0.23603428879569086
231	0xbfa31d9f47e31d25	-0.03733537437943316
232	0x3faa9b081c17139e	0.0519640478410459
233	0x3fbf16d750a1da0d	0.12144227713165652
234	0xbfd883c997922232	-0.38304366876448903
235	0xbfb01feef60e1362	-0.06298726565553417
236	0x3fcd424efd8f15bf	0.22858607655341065
237	0x3fd1b4fe475abde7	0.27667195289811136
238	0x3fd42365844288ac	0.31466043392186793
239	0x3fd5d1d569c53a1d	0.34093222931997663
240	0x3fc0ee779350c176	0.13227743809830955
241	0xbfd15918af046f15	-0.2710630139497295
242	0x3fc473b640cca2f5	0.15978124774962735
243	0x3fd4f36b1e255441	0.32735708183219364
244	0xbfc30aae541aeb8a	-0.1487634573621473
245	0xbf9c632d309d0395	-0.02772207841121917
246	0xbfae4d66c39e3996	-0.059184275988729926
247	0x3fd1332a3bbb05fa	0.26874786217749114
248	0x3fc77b579b14823a	0.18345160553237055
249	0xbfb1615e61d66391	-0.06789197815522942
250	0x3f934ceaf2c037eb	0.018848105493866212
251	0x3fc3ddb1d16082a2	0.15520308230863572
252	0xbfd74eaa3c60c7a9	-0.36417632957738505
253	0xbfd695fc8dc808dd	-0.35290445180738833
254	0xbfc12c63d3ad9f90	-0.13416717372751608
255	0x3f8816e6ba860b73	0.011762430732010753

bias f8 [30]
0	0xbfca5f4de8110ca1	-0.20603345710160162
1	0xbfa4b97c2c3a6eef	-0.04047763862510389
2	0x3fc2b1e06cd12615	0.14605336488084278
3	0x3fcbba6b71edb7be	0.21662657797736345
4	0xbfc0da84cc128463	-0.1316686626860558
5	0x3fc718f2ecac57b5	0.18044888073262447
6	0x3fafe680badb59e8	0.06230547219245236
7	0xbfdc35895055e3bb	-0.4407676014448573
8	0xbfd15d6d824cd52c	-0.2713273785078225
9	0xbfade73bccd3a283	-0.05840479731870565
10	0x3fa5391f197970fa	0.04145142732588343
11	0xbf970ca320fddb5d	-0.02250914467682762
12	0x3fd7608384c1b237	0.36526573147310465
13	0x3fc9ed91ca7995a6	0.20256254564735093
14	0xbfbb8532881b44f9	-0.1075011808673202
15	0x3f9af9c7899fef6c	0.02634345796103281
16	0xbfa9678c238e9811	-0.04961812910123354
17	0x3fb9525773fbd25f	0.09891268331177504
18	0x3fd1f107fb1d398f	0.2803363754545893
19	0xbfbfff9c833fc51a	-0.12499407009433519
20	0x3fb5aec8bd3c328d	0.084698244285571
21	0x3fc47263d57828cf	0.15974090503033841
22	0x3fd94f538cf7ff1a	0.39546669737318185
23	0x3fbb165a6019033e	0.10580983015189546
24	0xbfc955b2e834eb51	-0.19792782152384317
25	0x3fda15288bbeeb88	0.407541405172815
26	0xbfc5bc7d2dca47a7	-0.16981472717139676
27	0x3f818b267122b544	0.008566189124702313
28	0x3fca53c6a7882957	0.20568164043681733
29	0xbfa7c561d5798d9c	-0.046427781399667384

weight f8 [30, 30]
0	0xbfca3fcb2fbfb42f	-0.20507182914244157
1	0x3fd2b0f4d08079b5	0.29205055581578715
2	0xbfb0d7f316dc3f1d	-0.06579512889970514
3	0x3fb6601f74fe633f	0.08740421873370695
4	0xbfa7ac478da9ae5c	-0.04623626331598693
5	0x3fa0a8a9c067e75a	0.03253679727272525
6	0x3fd40057cc1429f3	0.31252093247954277
7	0xbfbcd64be3c9d960	-0.11264490424386997
8	0x3fb7700cba2fc2ae	0.09155349298067492
9	0x3fc19d488fe39227	0.1376124098379858
10	0xbf594453b1ef9dcd	-0.0015421693167300022
11	0xbfa599e48125f10b	-0.04218973232761599
12	0xbfd6c4bd646a9573	-0.3557580452564572
13	0x3fd3c52cbe982edb	0.3089095937036583
14	0x3fbaa3b64aeb7fbc	0.10406054810618931
15	0x3fa92d22c57faa2d	0.04917248402474104
16	0xbf9f3bbbe5cd0b48	-0.030501304531991097
17	0xbfb3aec280380a2d	-0.07688537245125167
18	0xbf82ffd2410a517d	-0.009277002916214578
19	0xbfbd82cd84ee70f1	-0.1152771424808099
20	0x3fc37ad2cf2d4f06	0.15218577495635816
21	0x3faa674c51a0c24c	0.051569352115966
22	0x3fc534146da2277f	0.16565184930032825
23	0xbfa0db9ee44deb4b	-0.03292557274740789
24	0x3fce2dc37b885a9e	0.23577159435145217
25	0xbfd63830b94db79c	-0.3471795854192068
26	0xbf920f144d48b700	-0.017635647980731584
27	0x3fd0f9dc9f261a5a	0.2652503542125594
28	0xbfc1ba2983d0fcdb	-0.13849371849389666
29	0x3fbe1d79179d6165	0.11763722254307181
30	0xbfb0f290e9552e79	-0.06620126434898478
31	0xbfc5907893d96f3a	-0.16847140521246634
32	0xbfbdfef6e9047493	-0.11717169941808185
33	0x3fd1c17bc817d23a	0.2774342969926554
34	0xbfc0b04433700ed5	-0.1303792239342473
35	0x3fc6201e013a4614	0.17285513935034713
36	0xbfc0832488087d92	-0.12900215761417805
37	0xbfb1f578c816f641	-0.07015185246469803
38	0xbf6642a157881fe6	-0.002717318650187639
39	0xbfca28fffa500ce7	-0.2043762180547681
40	0xbfa08c73d38da503	-0.03232156712949499
41	0x3fd308901132079a	0.29739762953988136
42	0xbfbc8e2ccf2d9dae	-0.1115444188886758
43	0x3fa25a508ee00bbe	0.03584529632646348
44	0xbfce3301d4ece5fd	-0.23593161484477312
45	0x3fafa2d8cf3fad11	0.06178929834262637
46	0xbfca8b9ba3aad71d	-0.20738549701280187
47	0xbfc6613bcc9f043b	-0.17484233371036048
48	0xbfa4163d558077a1	-0.03923217457507567
49	0x3fbcc13283c51b0e	0.11232295720138216
50	0xbfc662623ff90ec1	-0.17487743495632027
51	0xbfb16e29a2f68d2a	-0.06808719853011228
52	0xbfd0ca98576cc700	-0.2623654226073171
53	0xbf75cb2b356ca3cf	-0.005320709976140272
54	0x3fa08465e521f505	0.03226011678723676
55	0xbf955d5b8e6169bd	-0.020863943639008776
56	0xbfcbbf9fd38be786	-0.2167854102079298
57	0xbf97fb41dffe2f80	-0.02341940812725296
58	0xbfb206ff3e3da678	-0.07041926641036322
59	0x3f863b393a0f6dd4	0.010855147442206205
60	0xbfd081b458a28dec	-0.25791653304824425
61	0xbfd716c696a2f7eb	-0.360765120607424
62	0x3f962d40a457245b	0.02165699961713972
63	0xbfc9bd16ba3da299	-0.20108303159510824
64	0x3f9e075c3ed5ac72	0.02932495244514794
65	0xbf97e537ab7863a1	-0.023335332718577132
66	0x3fd1f9a4efa8682b	0.28086207775197874
67	0x3fc52dd185415a7a	0.1654607678089695
68	0xbfd861f57f7f2119	-0.3809789414485905
69	0x3fa65fa15bfa8512	0.04369835136209067
70	0xbfd15e02a15c2a4b	-0.2713629318028878
71	0xbfcd6253653ee43b	-0.22956316417347175
72	0xbfdedc1f2557e5b8	-0.48218516012965607
73	0xbf98c8afa3984fba	-0.024203056678814262
74	0xbfd20b4c60c476b9	-0.2819395966524599
75	0x3fbf065c0329c549	0.12119078709817645
76	0xbfd6de813c215eb6	-0.3573306166849578
77	0xbfd86165d273c309	-0.3809446864316191
78	0xbfd721c3dffc079e	-0.36143586038098785
79	0x3fc481e2d80dc0b3	0.1602138094854176
80	0x3fc96a0ed8873762	0.19854913304009886
81	0x3fbc2942bce338d1	0.11000458823693583
82	0x3fe1d7f3ef7509d0	0.5576114346407
83	0xbfd15dc24bf3861c	-0.27134759347072346
84	0xbf9dc9b954755da7	-0.029089828281340904
85	0x3f85189a9a55d104	0.01030083449834552
86	0x3fddb4ee3dd83e11	0.46416812934418866
87	0xbf93f9d21932bb43	-0.01950767782971786
88	0x3fe132319e596c6d	0.5373771755943274
89	0xbfd05ea9a2788489	-0.25577774874006615
90	0x3f9092780844b079	0.016183734421403948
91	0xbfc1e3097c75d0b8	-0.13974112107428538
92	0x3fc94ec42f38ba32	0.19771625810376886
93	0x3f91de1f6dd18da5	0.017448893621247703
94	0x3fa2855fa40efc59	0.03617380979221058
95	0x3fbb5757f78def1c	0.10680150789079018
96	0x3fbc78b3b5903ebf	0.11121676619245145
97	0x3fb3930563273059	0.07646211310128716
98	0xbfc0e4ef5ef57557	-0.1319865430513498
99	0x3fc0f60fe7418c49	0.13250922004508173
100	0x3fcefe1fb654c9f9	0.24213024523631058
101	0x3fca47fb14e8a395	0.20532167931494585
102	0xbf8b6a9c344e2c76	-0.013386936517937747
103	0x3fc090ce0728ae7c	0.12941909169727583
104	0x3fc4b08907d25934	0.16163742906491907
105	0xbfbcaa432f282796	-0.11197299863138563
106	0x3fd2ca7cf4cdf2cb	0.29360889345825275
107	0x3f8ef4f28ae55c19	0.015115637649314494
108	0x3fc3f33c12d9ade5	0.15586043281960751
109	0x3fcbd0bbc2f2da65	0.21730753916718296
110	0x3fd00c11c3878661	0.25073665709178355
111	0x3fc2c66c2c33baf3	0.14668037565521494
112	0xbfd8947b1bf1b5e7	-0.3840625546352769
113	0x3fcf3cbb7242cbb0	0.24404090003153334
114	0xbfdbba6ae1c836e7	-0.43325302170784
115	0xbfe140ed56c25039	-0.5391756720077928
116	0xbfbfb436649250b4	-0.12384357409820518
117	0xbfba2fed7094e1b5	-0.10229381559918845
118	0x3fc82faa5267adec	0.1889546301239159
119	0xbfbbf72ed9e3e5d4	-0.10924046344361865
120	0x3fbf7223437b0329	0.12283535382722434
121	0x3fcfc457da49460d	0.24817941816813552
122	0x3f93f8990b981899	0.019503012974404575
123	0x3fd9555bc060880b	0.3958348635370618
124	0x3fb83b021a29d30a	0.09465039385561283
125	0x3fe030df1e2380f3	0.5059657658239572
126	0xbfd0220c51a6c927	-0.2520781323793408
127	0xbfd7b1c43280d2bc	-0.37022499973253864
128	0x3fbe37904904e373	0.11803533346836818
129	0xbfd2dc9b0ad44f76	-0.2947146993403672
130	0x3fc921cb98d5bba4	0.1963438507331975
131	0x3fcb593261d463df	0.2136595704730828
132	0xbfd255a200686c6d	-0.28647661247095507
133	0xbfda7b2e66155d88	-0.413768386546018
134	0xbf9ff105156aa000	-0.03119285529342619
135	0x3fe1343187e5d8d9	0.5376212744002046
136	0x3fc561cceda31af5	0.16704713443160527
137	0x3fd8593d6b4c0388	0.38044677236762725
138	0xbfd174bb6a414821	-0.27274976135697854
139	0xbfddccb66c8f0463	-0.46561966515952785
140	0xbf8c8c4927b59dc3	-0.013939448856674091
141	0xbfc56b3578fb2e6c	-0.16733425528797186
142	0xbfd9496dd5f33b09	-0.39510675328794825
143	0xbfc7312144175d7b	-0.1811868269421487
144	0xbfd239a976974bfb	-0.2847694070925965
145	0x3fccc1b1b207aa78	0.2246610755240288
146	0xbfdd98bc88852c67	-0.4624472935872234
147	0x3fc788043e3e7d15	0.18383839644682412
148	0xbfdae3b194597cb6	-0.4201473187185444
149	0xbfd43d74507f40a8	-0.3162508760551739
150	0x3fd1208c167a9176	0.2676115245360714
151	0x3fc40ad89e8f7449	0.1565809988232181
152	0x3faa4e5c737a118b	0.05137909803036952
153	0xbfce0bafdbba773d	-0.23473165730404758
154	0x3fd137f11041b4b4	0.26903940761151124
155	0x3fc0fab3f92a9452	0.13265084902119156
156	0xbf92c98e940017e9	-0.018347003730035203
157	0x3fd1c83c7af58cd4	0.2778464508794063
158	0xbfc0f63b7edbce50	-0.13251441663998031
159	0xbfbbc007309c6f37	-0.10839886605066061
160	0x3fa807456029480f	0.04693047331660704
161	0x3fd39608423d5e55	0.30603224247668
162	0xbfc7dacf671ea34b	-0.18636505637302955
163	0xbfc7f703bb49ff3c	-0.18722578663800415
164	0xbfcaf04109e44f4f	-0.2104569719600655
165	0x3fc9f1b77aa1f14f	0.20268910873336174
166	0x3fc79a8e2ec2c320	0.18440415652505582
167	0x3f8910b707f635d4	0.012238912516091917
168	0x3fd01a838419862b	0.25161826992379827
169	0x3fca318f357c89aa	0.20463743316311184
170	0xbf71393d3ff330ee	-0.004204978234337837
171	0xbfd27958ca088f50	-0.28865642289951143
172	0xbfb14de802641761	-0.0675950055920942
173	0x3fb39ebf32a2698b	0.07664103494827239
174	0xbfc84371abcef6e9	-0.1895582283886406
175	0xbfafd129fba1c08b	-0.06214266964605127
176	0xbf9fd16cc9f255c9	-0.031072330308765026
177	0x3fde0cb18a94e577	0.46952475102769803
178	0xbfc8d1fe27c806d1	-0.19390847151230742
179	0xbf5014ba4465ef7c	-0.000981504346412059
180	0xbfd300050171606b	-0.29687619343667987
181	0xbfb25a787f958629	-0.07169297327848113
182	0x3fa1b8cda0ff0d97	0.034613061812275685
183	0xbfbcab8bb15052e0	-0.11199257925938921
184	0xbf826dfa59c05ca9	-0.008998828758235726
185	0xbfc491e50ff30960	-0.16070235518243248
186	0x3fb6777d65f569ca	0.08776077021813147
187	0xbfd255d17c1fce89	-0.28648793336399386
188	0xbfd0cef65d393fde	-0.2626319799792308
189	0xbfcb8ab49f79e202	-0.21517045771521742
190	0x3fc97f76717279e8	0.19920235194599845
191	0xbfdf9709a13aad3b	-0.49359360451736095
192	0x3fba73fdb389a26b	0.10333238251917869
193	0x3fcd4521f78689fa	0.2286722620602431
194	0x3fb58cce4696b7b9	0.0841797754607957
195	0xbfb88b4301057256	-0.09587496542867177
196	0x3fb672c6fabc4e73	0.08768886205171515
197	0xbfccfd9d1f8a9950	-0.22648967781169427
198	0xbfdb10007099c02a	-0.42285166736746993
199	0xbf83e5b3349fdfdf	-0.009715461772415722
200	0x3fdb8d137396b08c	0.4304855946345547
201	0x3fae9f85e0a57fb9	0.0598108135916386
202	0x3fc5a6b667c49505	0.1691501623801416
203	0x3fc0b1f29bb8f861	0.1304305324901547
204	0xbf9a7ebd790098f3	-0.025874100218197204
205	0x3fba90ba282b6a50	0.10377086144163994
206	0xbf9f01afaa35009c	-0.03027986980782825
207	0x3fa6f89ef2568e64	0.04486557682255635
208	0x3fdddf1e4875f989	0.46674305988553805
209	0x3fc8e7465c829a7e	0.19455794827554834
210	0xbfc414b3702af1ab	-0.15688174225750848
211	0xbfa97c7b8f126582	-0.049777852263285474
212	0xbfb80305e918022f	-0.09379612866178698
213	0x3fb87e57052a0454	0.09567779422833783
214	0x3fc10cc5082ca540	0.1332021989740415
215	0xbfda940d376a7992	-0.4152863541766233
216	0x3fc3e896e2d5225f	0.1555355651455725
217	0xbfc991838fa93261	-0.1997532321423874
218	0x3fd0de1d0ebdd326	0.2635567325553886
219	0x3fc5d80ffc3de6fa	0.1706562024735872
220	0xbfaad987f19ba1a2	-0.052440880053669106
221	0x3fddb5a5da31bbb7	0.4642119055560516
222	0x3fc06adf19731035	0.12826145880365095
223	0xbfa02517c0ced175	-0.03153299549686298
224	0x3fb7ca2849d91c8d	0.09292842677051479
225	0x3fb89cd7be3feb7c	0.09614323038833378
226	0xbfcc0579f9f3e294	-0.21891712860794554
227	0xbfc543806534b909	-0.16612248365112972
228	0x3fdc9f03ef84dff7	0.44720552816897857
229	0xbfd47034de619a6b	-0.3193485423748032
230	0x3fc125f57dbc0696	0.13397091521624266
231	0xbf4230c99c7a6239	-0.0005551323346991217
232	0xbfe01d3a788f199e	-0.5035679201762837
233	0xbfcc99220099cbfc	-0.2234232428487245
234	0x3fbaa6593ad655da	0.10410077749687421
235	0x3fc486550498e7b8	0.16034949039913982
236	0x3f64e8d111b2d534	0.0025524218923133283
237	0xbfe3c43c2b602bdc	-0.6177044722729721
238	0xbfd34389996b8ad6	-0.30099716169767754
239	0x3fa415b3356d565f	0.03922805812059659
240	0x3fc2916e167be312	0.14506317231987303
241	0x3fcd68a23c455b54	0.22975566809574366
242	0xbfbebeceab31a3ae	-0.12009898833788554
243	0xbfbd8f70144e0915	-0.11546993728373807
244	0xbfc4c0b9a7caefd6	-0.16213150685314187
245	0xbfc12f6a7cd74d55	-0.1342595204901992
246	0x3fd4f4f12cb8507e	0.3274500786512887
247	0xbfcb1f345985612b	-0.21188978549140222
248	0x3fc070a70b7a3491	0.12843788204591935
249	0xbfa12791f5f59745	-0.03350502135690062
250	0xbfbd369792cd4b21	-0.11411425909072338
251	0x3fc6493e7273856e	0.17411022747459576
252	0x3fc661100140ca52	0.174837113010272
253	0xbfbc062d3ef74792	-0.10946924960378926
254	0xbfc012a081114fa6	-0.12556844999437294
255	0x3fd6f2f5631d6490	0.35857901267224523

bias f8 [30]
0	0xbfbd7f500a19bc52	-0.11522388693423238
1	0x3fb3215c05dbd636	0.07472777503047542
2	0xbfc1c11e7ee25bb8	-0.13870602794187703
3	0xbfa9a34cba429bcf	-0.05007400296863517
4	0x3fbb3c26e547c486	0.10638659570374118
5	0xbf8c4e86bd05864a	-0.01382165207241139
6	0x3fadcc5406e499fe	0.05819952568190344
7	0xbfc03057b3c92d58	-0.1264752986775004
8	0xbfbb131a6eb4511f	-0.10576024248831971
9	0xbfbc64ec9132de93	-0.1109149794091258
10	0xbfa9c659bbf4df11	-0.050341419404899786
11	0x3fd61211dbc29af5	0.34485289059595853
12	0x3fb1fd0fa71c3b86	0.07026765661087894
13	0x3fc323d20de016e8	0.14953065564639378
14	0x3fcfddf5153e5849	0.24896110093385662
15	0x3f980e21b9a4439a	0.02349140830580474
16	0x3f5d9783bdbdec86	0.0018061434302285863
17	0xbfaaa205c7455ed3	-0.05201738412386949
18	0xbfa440b8156b8d9e	-0.039556267370950624
19	0xbf95ad08fe30390f	-0.021167889131953162
20	0xbfa053a5d0103479	-0.03188818135104383
21	0xbf99172f039f3f28	-0.024502501102516977
22	0xbf9e23a94ee3c669	-0.029432912292526234
23	0x3fcb47c448a8d1e2	0.21312764690232117
24	0xbfb06b05b31689a9	-0.06413303015009454
25	0x3fb252b409e6c7ba	0.07157445184455372
26	0x3fc37aac5e0e2973	0.1521811923269741
27	0x3fae894e601338c5	0.05964131281653943
28	0xbfb84bbf1a95e3d4	-0.09490579985676045
29	0xbf97fc3a40195096	-0.023423109209332958

weight f8 [2, 30]
0	0xbfbd5972605f377d	-0.11464609959440782
1	0x3fb0414ecb1e08a3	0.06349651774329117
2	0x3fedbd5c6ef16c0f	0.9293653647285981
3	0x3fc24a418e907a99	0.14289111577177918
4	0x3fef0a7baa42c1dd	0.9700296712308575
5	0x3fab679d3d7dd4d2	0.05352488875988971
6	0x3fe1c4be395d2011	0.5552664871584075
7	0xbfe21b70a5166fd3	-0.5658496116989177
8	0xbfd56dd960073913	-0.3348296582961591
9	0xbfcd2f4d10d1297f	-0.22800601311821464
10	0x3fd81bb848156d22	0.3766918853704785
11	0x3fea60258c64e26c	0.8242366544792055
12	0x3fce54aaf0ad80eb	0.23695885421603377
13	0xbfe00c86f159723a	-0.5015291894774869
14	0xbfe61a78908465af	-0.6907313177682023
15	0x3fd411260398aae7	0.31354666091162503
16	0x3fd3bf62a51d152a	0.3085562336385289
17	0xbfd440c6f707fc4b	-0.3164536869443892
18	0x3fd8824c22830186	0.38295272226607613
19	0x3fe427c5e50e431c	0.629855105757176
20	0x3fd56ebcd5aa33fc	0.3348838888712746
21	0x3fc567fbaec7cedd	0.16723581346706498
22	0xbf8c87a62f5f250e	-0.013930605240505513
23	0xbfee7142a4ec51fa	-0.9513257237582018
24	0x3fc0501f767c372b	0.12744515691195465
25	0xbff186474a2b3ffd	-1.0952828309273166
26	0xbfe488af66b17027	-0.6416852002835228
27	0x3fe9fa6df6bf920a	0.8118200129798094
28	0x3fd05f2e057584e8	0.2558093121825338
29	0x3fd5133b968b7fed	0.3292988748708002
30	0xbfcbc360fa0f9c8b	-0.21689998826989085
31	0x3fcf5d7a64b8a61e	0.2450402252009533
32	0xbfc5208413aa6351	-0.16505480728371905
33	0x3fe3007fd619c172	0.5938109571125507
34	0x3ff051ca62089fb0	1.0199683980408558
35	0x3fde7080ff7c73e2	0.4756166930181377
36	0xbfce22fef7d13866	-0.23544299221470338
37	0x3fe1497ae758d86a	0.5402197378632654
38	0xbfd8b4613b9dba16	-0.38600951024901187
39	0xbfe1278455ecd6b7	-0.5360738447404491
40	0x3fbe54148a25be68	0.1184704625391021
41	0xbfe5db8a29a65cb3	-0.6830492795442268
42	0xbfcdefb26da01a44	-0.2338774714737203
43	0xbfbbe50f8856f007	-0.10896393850902096
44	0x3fe5e1be39283347	0.6838065258358278
45	0xbfd942c041d5a047	-0.394699157992822
46	0xbfd8b21dfa3019a1	-0.3858714049569248
47	0x3fee8196fbf4ce95	0.953319065191368
48	0xbfa86ec38712de10	-0.04772006057595146
49	0xbfe79c9efead4301	-0.737868783393509
50	0x3fcddf143d99635c	0.2333703327920159
51	0x3fe0ee1637c69fe3	0.5290633286831475
52	0x3fca360ac742eff2	0.2047742340999999
53	0xbfeb9a368bc4bbf4	-0.8625748376706484
54	0x3fd71325e72ff7cf	0.36054370476619807
55	0xbff064a49f9287b8	-1.0245710595413424
56	0x3fd1ba4008fb9b53	0.27699280621748307
57	0xbfcb08dee59a5fe4	-0.21120821200452078
58	0x3fce0d01b7107941	0.23477193297089552
59	0xbfb58fd7b52047cc	-0.08422611400626961

bias f8 [2]
0	0xbfca7fcb336bb17b	-0.2070249558522724
1	0x3fd3d6ed6b50a23f	0.3099931285856065
