AONN_BFGS/BFGSNN/linear_ctd/results/AONN/At1/p.pt (torch, 27327 bytes, 10 tensors)

weight f8 [30, 2]
0	0x3fc91b76036216e2	0.1961505428809494
1	0x3fc007cf259555b9	0.12523831687091816
2	0x3fc99174cfc845d8	0.1997514738618935
3	0xbfb03181b3b4fa46	-0.06325541150452194
4	0x3fd1a0b40195bc22	0.2754335418202932
5	0xbfd5df87d3ec299e	-0.34176822372014637
6	0xbfbc27cc687f6410	-0.10998227645121994
7	0xbfd36b9115dbe72b	-0.30344035277049625
8	0x3fd6d055c3bb4770	0.3564657603684429
9	0xbfdb281f1ab7ebae	-0.4243238221094384
10	0x3fab1e116db377e4	0.052963776246300914
11	0x3fd12e48149a492a	0.26844980251293526
12	0x3fe58bd8c7fd3b1f	0.6733211427725542
13	0x3fd1997affe1d542	0.2749927042817327
14	0x3fd12e7fc8086ba9	0.2684630826421946
15	0xbfbd191df35ed915	-0.11366450492537113
16	0xbfbc36fa945a619c	-0.11021391031170541
17	0x3fd263a278522b65	0.28733121633620434
18	0xbfc801d0fef31f6f	-0.1875554318305563
19	0xbfd2b5651d9a5b3a	-0.29232147112763907
20	0xbf8058b1f239707c	-0.007981672482110229
21	0xbfd76b7e45bd09c0	-0.365935867408691
22	0x3f90d8974ce40ee1	0.016451229160351914
23	0xbfbbf3526f7e745a	-0.10918154928227022
24	0x3fc7d357ed957b59	0.18613719082619687
25	0x3fbb6a69ea8fedce	0.10709249474159963
26	0x3fa9fcaa11916bc3	0.05075580086187117
27	0x3fd78c4f72bd4335	0.3679388638020556
28	0x3fd9df1db23078c2	0.4042429199343013
29	0x3fd95cb68a13926c	0.39628375515011416
30	0xbfca8e77d268f5bd	-0.20747277997899785
31	0xbfaec5ee6994ddb3	-0.06010384596668974
32	0x3fdf194203dc68ec	0.4859166181282848
33	0x3fd38e3ef2cf44e3	0.3055570002735079
34	0x3fc6735aef355459	0.175395361710488
35	0xbfd4629f242d6234	-0.31851938755929443
36	0xbfc635b644a96947	-0.17351415970444803
37	0xbfa67dd6ae50f04d	-0.04392882230646986
38	0x3fadf29130bc6c0c	0.058491265486928595
39	0xbfd0fa6339385cb3	-0.26528244579226196
40	0xbfc77c9f39804f39	-0.1834906607406255
41	0x3fdc552d6721f25d	0.44269881316703225
42	0x3fa76d76b9d8b02c	0.04575701731332091
43	0xbf4d4f514f6e9e62	-0.0008944651625499395
44	0x3f819d4093f0480d	0.00860071612808968
45	0xbfca8909ccf8c375	-0.20730707653413175
46	0x3fc9f6d66a270801	0.20284538443780778
47	0x3fc45446b3662787	0.15882190475195676
48	0x3fb1c4cc12c9ce45	0.06940913637827702
49	0x3fcab9c379292933	0.20879405418447447
50	0x3fa3d42aab389e8c	0.0387280782709328
51	0x3fc4c902c7a85e5d	0.162384364594561
52	0x3f7b174bc2e1cf92	0.006614013616957142
53	0x3fa583808b5e2c61	0.04201890660541419
54	0xbfc92f99f31cd732	-0.19676517840132984
55	0x3fe2aff522e5197d	0.5839791947881136
56	0xbfd2b3cf19fd8c32	-0.2922246698200893
57	0xbfc322e60fa7af19	-0.14950252308278136
58	0x3f9831188a1f8325	0.023624785833706547
59	0x3fa5e5d7a32ea351	0.04276918284387555

bias f8 [30]
0	0xbfa2468100e3c44b	-0.03569415222035185
1	0xbf277c85970edb85	-0.0001791871141258694
2	0xbf98ea37a8b2a4ad	-0.02433096854352772
3	0x3f8a27b133c2f9c6	0.012771019355906865
4	0xbf9067591d4aa364	-0.016019241726698566
5	0xbfa5f7f3923e6176	-0.04290734443856341
6	0xbfa5921dfb434838	-0.04213041011975388
7	0xbf84cc9e94b8be05	-0.010155905641197735
8	0xbfab1f90d2b18bee	-0.05297520229284901
9	0xbf9d83199c9c5fd4	-0.02882041948677723
10	0xbf82081cfca101ea	-0.00880453725778892
11	0xbf4296c8892a14f6	-0.0005672911814406368
12	0x3fa81a633f2a86bd	0.04707632204123289
13	0x3f95983ce1b217ac	0.021088553691263875
14	0x3f6efecff957373f	0.0037836133949217528
15	0x3fa76c3435856a73	0.045747405560821706
16	0xbf1b3383df399cd3	-0.00010376446135184078
17	0xbf95b8ed5935cfa1	-0.02121325356479498
18	0x3fb4926b2559f8f1	0.08035916959667923
19	0xbf98fd304ac41db8	-0.024403338015898973
20	0xbf76930da5a10eac	-0.00551133471350666
21	0xbf80f3b59ae31599	-0.008277338780667874
22	0x3fa2b3fa22f8407c	0.036529366272703506
23	0xbf74f96cb0dea47c	-0.005120682309930232
24	0x3f7d1ae896c9763d	0.007105740118814871
25	0xbfae38b895aeb5c5	-0.059026497146401215
26	0x3fa064cc54b5b304	0.03201902898840639
27	0xbfaf480e6fc16d8f	-0.061096621648825004
28	0x3faad971246a4284	0.05244020051498402
29	0x3f9ddca8d0b3ac2c	0.029162061441564344

weight f8 [30, 30]
0	0x3f928b1d2e8b689a	0.018108802762846744
1	0xbfc394cc8b7dbda0	-0.15297848521320834
2	0x3f91f72f4e68168e	0.017544497643049932
3	0x3f918b2be9a3003c	0.01713245976930032
4	0x3fc1a82109f9767b	0.13794339167627698
5	0xbfcd4cfe53f7cef9	-0.22891215419769376
6	0xbfd541d9fdc1062a	-0.3321442583147439
7	0x3f938c0a7d49f30b	0.019088901421571196
8	0x3fb149f417b1c484	0.06753469065167123
9	0x3fcc155366f66d13	0.21940081145735543
10	0x3fb7065ff7ec6449	0.08994102289979468
11	0xbfd01d11ef88958d	-0.2517742957300804
12	0xbfd583b4fee4db18	-0.3361637582014949
13	0xbf89528a3847b931	-0.012364463655981513
14	0xbfb889481fe9bea1	-0.0958447530663258
15	0x3fbb4a70ea0ca06a	0.1066046306046943
16	0x3fa6cd1edb27e16d	0.044533695461668944
17	0xbfca0cfae433b80a	-0.20352111952473734
18	0x3faafa4dbe34fd61	0.05269091555464445
19	0x3fd4204037dfbd78	0.3144684358257659
20	0x3fc0337d8f192113	0.12657136428084267
21	0xbfc079570811938d	-0.12870300191857745
22	0xbfd379cce6658599	-0.3043091058699133
23	0xbfd4a44f46e3e3f3	-0.3225286667143898
24	0xbfc79fae2db95ef0	-0.18456055863020238
25	0x3fce4760ddcd8e46	0.2365532954237201
26	0xbfc73800155b7a44	-0.18139649432028382
27	0x3fcbba1c4cf8a7e8	0.21661714323391768
28	0x3f8516092ef250a8	0.010295936341471482
29	0x3fb27e76e5bda95e	0.0722421942606721
30	0x3fa595d6af3b006d	0.04215880288165939
31	0xbfc1141f87da0125	-0.13342661031129768
32	0xbfd31c509b719fd3	-0.29860320262969003
33	0x3fd05db300fdccea	0.2557189473802298
34	0x3fb36cb861e5f14a	0.07587768926709262
35	0xbfc6be00af89a0f9	-0.1776734215848206
36	0x3fd49f603d30731c	0.3222275350142796
37	0x3fbbe25d7aeac437	0.10892280817894649
38	0xbfccdb599470cfc8	-0.22544402835921873
39	0x3facee4291cb06d0	0.056505279824262566
40	0x3fc3857e4d43c8ee	0.1525113942403275
41	0xbfce281e3d1c5c5b	-0.23559930786061298
42	0xbf6b3d80dc0ec6f5	-0.00332522552386016
43	0x3fcfe439e39794e1	0.24915240872284186
44	0x3fcc33216d90b37b	0.22031038141122025
45	0x3fcc875bb9d0f46a	0.22288080761964874
46	0x3fc449abf4c07243	0.15849828196305013
47	0x3fc27f1e0e0b14da	0.1445043152399766
48	0x3fc93106eefaa20d	0.19680868786714747
49	0x3fa6126d91740fac	0.043109344487702955
50	0x3fcc63c08cedb509	0.2217941940429358
51	0x3fc4848e5a96458c	0.16029529021447464
52	0xbfc7ccccb82f862b	-0.18593749040069105
53	0x3fc593050261b9f0	0.16854918113990847
54	0xbfa9f284abca1d32	-0.050678392382048534
55	0x3fbc6593a381f959	0.11092493764770008
56	0x3fc97f19799eb47c	0.19919126928781228
57	0x3fb0e90ecc15bb26	0.06605617983380493
58	0xbfaa3cf74c14f7dc	-0.05124638370260445
59	0x3fc0925bc007836c	0.12946650387223302
60	0x3fd2d6c3c412b994	0.29435819766777027
61	0x3fc249819d356fc7	0.14286823440749982
62	0xbfd007bf35eead32	-0.25047283427075506
63	0xbfc0382e262f0a7e	-0.1267144857830153
64	0x3fd8d731d0c47875	0.38813443553397714
65	0xbfc99ab111948c48	-0.20003331526194956
66	0xbfcd95856035762c	-0.23112551877686494
67	0xbfbe7bb5c27f31ba	-0.1190751647802192
68	0x3fc1cddeadc1e9e6	0.13909514889003488
69	0xbfc27edcc5ea70fa	-0.14449653304917104
70	0xbfc9926918ed2727	-0.1997805949889024
71	0xbfb4528c61a340f9	-0.07938458808644445
72	0xbfc0630a4714d1ae	-0.12802246542709156
73	0x3fa51154006fb8c7	0.041147828152917
74	0xbfcd0173f4e000dd	-0.2266068406752372
75	0x3fcc2ba966b280fe	0.22008245005145705
76	0x3fc2d27e7fe08c9f	0.14704877132416969
77	0x3fd6df7c77f4adb2	0.35739051546508016
78	0x3fbd38600d9bb85e	0.11414146740182349
79	0xbfc6e02c9bf4207d	-0.17871625533030402
80	0x3fa91aa0ba35dedc	0.04903127930714188
81	0xbfa1dfe9aa09bad9	-0.03491144371661443
82	0x3fd5a5063a8667f0	0.33819728579840014
83	0x3fb3a630f3748b4e	0.07675462669116692
84	0xbfd083c41e19e94c	-0.25804236354419596
85	0xbfa5a1bae84f71be	-0.04224952779597711
86	0x3fd1b7b1fe46b2f8	0.27683687049538674
87	0xbfab0fa87724432d	-0.05285383657804341
88	0x3fd506ffa3c59f7b	0.32855216019969874
89	0x3f65829643df86c1	0.002625745283680953
90	0x3fcb58858efb3f06	0.2136389682914272
91	0x3fa20373a42e05c4	0.035182584563709735
92	0xbfba9b93435246c3	-0.10393638986195257
93	0x3fc4476512e5ae74	0.15842879698481094
94	0x3fd56b00169ab0c3	0.3346557827706073
95	0xbfd1775ca25367ab	-0.2729102692807099
96	0x3fd45ea44398c8b9	0.3182764682889104
97	0x3fc76195b83b3a08	0.18266555305167764
98	0xbfbe4c7f6585c0a0	-0.11835476139617862
99	0xbfc16e7b4ab7821b	-0.13618413112909952
100	0xbfcf34125dd8a1c0	-0.24377660353026265
101	0xbfcde5aa076a092e	-0.23357129442235575
102	0x3fcabc23862c8318	0.2088665394922138
103	0xbfc0653d75482864	-0.12808960177091244
104	0x3fd0fe219bc6a68d	0.26551094257829605
105	0xbfc2b05a9c268a08	-0.14600689529932276
106	0x3fbe5830f395b2b7	0.11853319117444526
107	0x3f985011b0e342f0	0.023742939397211893
108	0x3fc51452d4dfabbf	0.16468272585129104
109	0x3fb57a42b17e798d	0.08389679749823227
110	0x3fb3dc052f73f772	0.07757599266548512
111	0xbfd524ae6f482206	-0.33036385409698743
112	0xbfbc4c6ffca133ca	-0.11054134290425491
113	0x3fc99efa2c71c44d	0.20016410036217494
114	0xbfc49ef3cd3bc0dc	-0.16110084077036546
115	0xbf926ab56c4a67fb	-0.01798518632367772
116	0x3f8f55fb73dfe37a	0.015300716851912578
117	0xbfacc13f6e2e7941	-0.056161863517660844
118	0xbfd4d5f7f11ccda3	-0.32555960222381425
119	0xbfd1461add14c21a	-0.26990386571836356
120	0x3fc027f1e8ecb3f5	0.12621902344963556
121	0x3fd1f79f89a8ef91	0.28073872035360475
122	0xbfbf31ea8c06e104	-0.12185541075348644
123	0xbfcbb56eee310d08	-0.21647440557908504
124	0x3fc8b2a49dcde6e8	0.19295175271309195
125	0x3fb8952f81192b11	0.09602639104666034
126	0xbfcb98a6776c90f4	-0.21559601622823943
127	0x3fcc15d1323a2d12	0.2194158072710271
128	0x3fd29ee7996ca8ac	0.29094877226692506
129	0x3fc2c7d9a0cfc90d	0.14672394134647285
130	0xbf6cb8abf0496e42	-0.0035060270477467468
131	0xbfc969a8ba176125	-0.19853695951929598
132	0xbfc16ba1e9d62869	-0.13609718244362348
133	0x3fc497d9fe0336f8	0.16088414099652204
134	0xbfc1d9e070f2c8ff	-0.13946156992967215
135	0xbfd156c4996b88c0	-0.2709208963625649
136	0x3fcc18c651f784c8	0.21950606348312918
137	0xbfbf4eb28337bca3	-0.12229457572515172
138	0x3fc8b309b8244293	0.19296380511561448
139	0xbfcfe1f9a5b004c7	-0.24908371534551163
140	0xbfb07a00ef6097a6	-0.06436162799999909
141	0x3fbaa676f8523007	0.10410255014920732
142	0x3fd1d09233f71eb7	0.2783551700090174
143	0xbfc42692697c7c90	-0.15742712164589934
144	0xbfcdc51e137f90e8	-0.23257804824891726
145	0x3fb36880b6d4628b	0.07581333602537137
146	0x3fd5ff202bb5e12f	0.3436966349468262
147	0xbfab55aaa9834b3d	-0.0533879596638571
148	0xbfc330af0a8f0a5a	-0.1499232102924733
149	0x3fd133773f02594d	0.2687662234615303
150	0xbfcef2d325d6c81c	-0.24178542468649844
151	0xbfc5cc0e5acc60b4	-0.17028979714883052
152	0x3f8575eba4cf517e	0.0104788217230769
153	0xbfbe90fe0f116edc	-0.11939990871308787
154	0x3fcbd88937c0f52d	0.2175456545100273
155	0xbfd29066948400bd	-0.2900635195110331
156	0x3fc3f25de40c0941	0.15583394656284535
157	0x3f9a05742eff46f7	0.02541142975662233
158	0xbfa11ad6f2b1156c	-0.03340789520783968
159	0x3fafc1f7ce6b468c	0.06202673334850059
160	0x3fd1066a197380e3	0.2660165070101483
161	0xbfcefb653b9c6e58	-0.24204698000618197
162	0x3f8230132de3a419	0.008880758130958498
163	0xbf994286f60096dc	-0.0246678435943498
164	0xbfc238e3693d132f	-0.14236109388925786
165	0xbfaafdaf5e0941f8	-0.05271671317007426
166	0x3fa3c1e7879867aa	0.038588748266376996
167	0x3fb61fee4f666d3c	0.08642472685317143
168	0xbfadac8c7ae41b8b	-0.05795706749090986
169	0x3fd4e5e497f1691e	0.3265315517252406
170	0x3fccd5a078e80805	0.22526937392837013
171	0x3fbe05085b177e45	0.11726429199142625
172	0xbf5be4bfd8f01b73	-0.001702487326612459
173	0x3f9c48086c9486f6	0.027618533732613103
174	0x3fd111251a9cc6d3	0.26667144392841385
175	0x3fd2e479de08d943	0.29519507105887416
176	0xbfa4c409e7e9144c	-0.04055815654695802
177	0xbfd3adfb6238bc5b	-0.3074940165706203
178	0x3fbaf3f7d34eb8b7	0.10528515728830966
179	0x3fbae5e6bb3fa39e	0.10507051536082065
180	0xbf9f30d195adbf5c	-0.030459666023886597
181	0xbfd2213b688610e6	-0.28327832419769405
182	0x3fd0bc70a06a5249	0.2615014616542664
183	0xbfbd0396b734ab70	-0.11333600971981439
184	0xbfd613d57ae31713	-0.34496056557360183
185	0x3f895beb71328190	0.012382354156500935
186	0x3fa486bfba0817c7	0.040090552767693625
187	0xbfd5da92d7d512dc	-0.34146567418455986
188	0x3fcb07074fba20ef	0.2111519946377096
189	0x3fd00ee8cbe4bff4	0.2509099951885212
190	0x3fc03c10fd6f63c4	0.1268330800510552
191	0xbfcbf32da4a87326	-0.2183587125772643
192	0x3f929df19cbfec89	0.018180632774584402
193	0x3fc58eca1d1613d0	0.16842008991457513
194	0xbfb3e92d4f3cea7f	-0.07777674850960102
195	0x3fce6f83e4bdb5d4	0.23777817410466062
196	0x3fcadad943e598cd	0.20980373206402306
197	0xbfb1c3cfb2b408fc	-0.06939409363625154
198	0xbfcafa3146580d2d	-0.2107602685428928
199	0x3fcb5def296d96de	0.21380414507728224
200	0xbfc1da7afebdef8e	-0.1394799941880333
201	0x3fa96d43899808ab	0.04966174177754231
202	0x3fd0ba6ca755f19b	0.26137844411257455
203	0x3f953feda1bab1ef	0.020751679416820264
204	0xbfb49bbbe2223bf1	-0.08050131102412174
205	0x3fd231eedbcc9ea1	0.28429767098212194
206	0x3fca47d7b655705c	0.20531746294989517
207	0x3f9d5dd234d4b2cd	0.028678211664714227
208	0x3fbd707aae179d8a	0.11499754667567266
209	0x3fcebee6a23e649a	0.24020083353096738
210	0x3fd00ae1a4d15a1e	0.2506641492413183
211	0xbfc836702af3fe73	-0.18916132066077615
212	0xbfd21a5b85a4dd43	-0.2828587346188735
213	0x3fb7741a29cd9f2a	0.09161532898508243
214	0xbf789eb88e7857d7	-0.0060107430686197815
215	0x3fc0c63fe330e13b	0.13105009644801577
216	0xbfd14f7fd4457377	-0.2704772541963431
217	0xbfc75c6c7f00ed43	-0.18250805093144082
218	0x3fc2358ebfd378b4	0.1422594486857115
219	0xbfb21fbe241d5afd	-0.0707968557520466
220	0x3fc0088c1fa74d35	0.12526084466535684
221	0xbfd26f94ef8da6f6	-0.28806041139488003
222	0xbfd077ef5d560020	-0.25732025256002267
223	0x3fb1501fd671d503	0.06762885079827545
224	0xbfacaa0d0db3ed80	-0.055984886095724384
225	0x3fa2a07b99602626	0.03638063666592144
226	0x3fc6a6ced894a375	0.17696557593560738
227	0x3fc6e62b7328c61c	0.17889922259341595
228	0xbfa26f121ea0dc20	-0.03600365280038198
229	0x3fc38e47297f8b52	0.15277947927742247
230	0xbfcc3d2440146be6	-0.22061589363951767
231	0xbfd352f8194405ca	-0.3019390341506464
232	0x3fb835d08776eb71	0.0945711451267195
233	0xbfd0b17b5d48fdec	-0.26083263502002185
234	0x3fc46d7d10dca120	0.15959132502872198
235	0xbfc7bb4945abf250	-0.18540302183090995
236	0x3fd2dd01925ed761	0.2947391442679557
237	0x3fc1bf494a396522	0.13865009426334846
238	0x3fa7ae03351c265e	0.0462494852382178
239	0x3fcce57a517353a5	0.22575310685229258
240	0xbf9d30389ff96f74	-0.028504261745509976
241	0xbfd0b3c548ece4d5	-0.2609723293458733
242	0xbfc4a82f76e3d04f	-0.1613826113240315
243	0xbfd0cef0d02a10cd	-0.26263065651461376
244	0xbfd45ea2c6651add	-0.31827611326700184
245	0xbfce9abcc9e05ebc	-0.23909721238373105
246	0xbfb5f8b937ed347d	-0.08582646956820557
247	0x3fca9f21524d5fe2	0.2079812671533992
248	0x3fd0b78260520e6c	0.2612005177145196
249	0xbfc74d4eb5cd4b75	-0.18204673649833195
250	0xbfc0d8592d9603f6	-0.1316024277294045
251	0xbfa633f60f8820c6	-0.04336518230053481
252	0xbfa7cb99ad14b07f	-0.04647522199442821
253	0xbfd3b2f6d76f3f51	-0.30779810942202795
254	0xbfbbc124643b69a6	-0.1084158653933743
255	0xbfcfe0d2e634f64b	-0.2490485786492392

bias f8 [30]
0	0xbfab4bb570375503	-0.05331198687387408
1	0x3faf67c9d1da4a56	0.06133871733358791
2	0xbf9a1bc1cb5eb13e	-0.025496509587968
3	0x3f8b70ea9be21a2d	0.01339896476953325
4	0x3fa2a7918fe8ab4d	0.036434696976661664
5	0xbf8874ccb56c883e	-0.011941527639980017
6	0xbf90b295a74bc100	-0.01630624612420295
7	0x3fa39bfe955ec1bd	0.038299518331203576
8	0x3f7970bb28bfe885	0.006211024370708644
9	0x3f999d492ffa4d5d	0.02501406054814247
10	0xbf866b9ef17b4754	-0.010947458023483549
11	0x3fb5ca98df5bb1a3	0.0851226373012595
12	0x3f6c6f87d6d2d5cf	0.003471150694702919
13	0xbf834ea458c0ac24	-0.00942734142161867
14	0xbf7ba1004c5ab9ff	-0.006745339551044171
15	0x3f859d643897869b	0.01055410669045225
16	0xbfb91ee861176fd3	-0.09812786455535098
17	0xbf953b0a81e70c2d	-0.020733036211606205
18	0xbfa7a2f815196d73	-0.04616523034629951
19	0xbfa10c5ccf6ba4f5	-0.033297443694957275
20	0x3f8054bdefc19250	0.007974132422711083
21	0xbf9af48f2b28a8e5	-0.026323544511037595
22	0xbfa66583c33cb0b7	-0.043743245680475544
23	0x3f9eeabceffde62f	0.030192329547821636
24	0xbfa1f1d84068cc71	-0.035048253881904474
25	0xbf986a3378378bde	-0.023842624866926225
26	0x3f9e92189fcbf1f9	0.02985418773003976
27	0xbf84a24169768225	-0.010075102835629466
28	0x3f8c2d3ea378f911	0.013758172382150964
29	0x3f9f20c5276e52c0	0.030398445636438565

weight f8 [30, 30]
0	0xbf966387b731542e	-0.02186405234927607
1	0xbfd16835d5e5f47d	-0.2719854916429723
2	0xbfbc111c9762d80b	-0.10963610359144142
3	0xbfa54ade410e3287	-0.041586823884334705
4	0x3fa4f77907eca8ae	0.040950567452754924
5	0xbfc44be6e5ba7b69	-0.15856634347161538
6	0x3fc0ea36128146dc	0.13214755919994203
7	0x3fd0f1100e87c5d9	0.2647133008859704
8	0xbfd4a71f9cf77bc4	-0.32270040825636337
9	0xbfbeb875483ec709	-0.12000210775184085
10	0x3fd09aeb24becac1	0.25945547665029883
11	0x3fa44eaed32c1028	0.03966280296120345
12	0xbfd045102009a4d0	-0.25421527031592195
13	0x3fcdc703e382b729	0.23263596161762592
14	0xbfbfc19af9d40f0c	-0.12404793357205451
15	0xbfc7e016d34e43dc	-0.18652615850126508
16	0xbfd5ab7c55524f73	-0.33859165508442074
17	0xbfd40fcf3cabb9f6	-0.31346493649371554
18	0xbfce24575e1ed01a	-0.23548404784890026
19	0x3f8b6beb659ac146	0.013389433897231694
20	0x3fbe81a9a3fc5baf	0.11916599515494285
21	0xbfc9a6e5acc94762	-0.20040579735592262
22	0x3fc3c405d8434dad	0.15441964206421002
23	0xbfca60caa455c4da	-0.2060788443009532
24	0xbfcd60c5fbdccd61	-0.2295157890126616
25	0x3fa7f8990e8f8a71	0.046818526294164615
26	0xbfd0b80043830736	-0.2612305316252902
27	0x3fb55e79b2c62f20	0.08347282995799477
28	0xbfbf47bc8a242ab1	-0.12218836186017758
29	0xbfd1414f449f4e4e	-0.2696111841334855
30	0x3fb6146a53817ba2	0.08624901331630366
31	0x3fc799f9cb527e10	0.18438646724551733
32	0xbfc42b8451caa584	-0.1575780295727719
33	0x3fd3c24224f165fb	0.3087315903445355
34	0x3f98baad0c6af9be	0.024149612315108142
35	0x3fbeb8ac868fc816	0.12000540051647621
36	0xbfcebddad8cbd18a	-0.24016891084432884
37	0x3fb1a7d8f88e45a6	0.0689674002481043
38	0x3f7e8236baaabe50	0.007448400293170801
39	0x3fce4dafb995e729	0.23674580156130645
40	0xbfd1db5ded540c08	-0.2790140931758178
41	0x3fb55ed5828773de	0.08347830235238926
42	0xbfd5a6910278ae7e	-0.338291408933152
43	0xbfc8fe3e1cec44cc	-0.19525886928798852
44	0x3fc3ad1a221c78ba	0.1537201563414266
45	0xbfb0718739b82a2c	-0.06423230322995072
46	0x3fd06e6e1b22765d	0.256740118502284
47	0x3fd48bbbf95108f9	0.32102870318716686
48	0xbfb6aeb35d044453	-0.08860322018542037
49	0xbfc6c0ca1bb90242	-0.1777584681858731
50	0x3fb2482804d96ac6	0.07141351812735328
51	0x3fc401c69567af42	0.15630419058958905
52	0x3fd138b63399f06c	0.26908640898887515
53	0x3fb0f2fb1b61fd66	0.06620759409451224
54	0xbfa314ec7c68bb68	-0.03726901072183503
55	0x3fb47842f6a8196b	0.07996004602327893
56	0x3fb13b327a7f63ba	0.06730952730812492
57	0xbfa738dbfbb791e8	-0.04535567710607663
58	0xbfd26f79e3685ad1	-0.2880539627816861
59	0x3fcfcdd73eecf347	0.24846926281488832
60	0xbfcd1fba8fd0dc33	-0.22753078481920994
61	0x3fd0bc33a7ea0e5b	0.2614869251048952
62	0x3fd9987815e9f76d	0.39993097438843145
63	0x3fccd6d5e0668342	0.22530625779202224
64	0x3fd462cf1a3b2d00	0.3185308223880412
65	0xbfcf53e92f8314ea	-0.24474825687335705
66	0x3fc121588b51fde2	0.1338301353716665
67	0x3fd1071e83325465	0.2660595208374786
68	0xbfb06eab704f0c39	-0.06418868534005719
69	0xbfb22b5467ac62b6	-0.07097365885818871
70	0xbfd5d5481d737e2e	-0.34114268184746066
71	0x3fa640756770401f	0.043460530163543114
72	0x3fc8e1214c494cfb	0.19437042450827122
73	0xbfce333c01a81ef6	-0.23593854981321954
74	0xbf81e743f7492ea4	-0.008741885170045656
75	0xbf73bc02c57c7405	-0.004817972970866617
76	0xbfb06055788e190a	-0.06396993821372035
77	0xbfb62471b16c41e6	-0.08649359304059309
78	0xbfba69ddba679c44	-0.1031778888787907
79	0x3f83b75021203a75	0.009626985560342785
80	0x3f85713bbdaac039	0.010469881749799114
81	0xbfb1250668c56749	-0.06697120721710549
82	0xbf9c2fd07b9db485	-0.02752614740841299
83	0x3fc1415ca85147de	0.13480718821170873
84	0x3fa7851fb3d15934	0.04593752927819353
85	0x3fc13c8da37a47c9	0.13466043932254326
86	0x3f87314bbeb4fb07	0.011324493176855478
87	0x3fd38a6cd1c7303c	0.3053237961401043
88	0x3fca5ee392b19041	0.20602078116201208
89	0xbf9cefc6d1cc63ea	-0.02825842528827486
90	0x3f92d4e4783d3160	0.018390245283897655
91	0x3fd3ee0acfe72db0	0.3114039449980863
92	0xbfd1e368e76a403a	-0.27950499152302977
93	0x3fb490ae707e9260	0.08033266302533937
94	0xbfb8c805f1d67531	-0.09680211214295721
95	0xbfca2fac21fd0926	-0.20457984599676954
96	0x3fca7d2cedacd30a	0.20694505315045603
97	0xbfd0353c0f230b00	-0.2532491824933203
98	0xbfc57a35f22096ec	-0.16779207537290775
99	0x3fb3dcdfe567d3c4	0.0775890288421826
100	0x3fca37c7709e2c9e	0.20482724188727713
101	0x3fc82616707da30d	0.18866234295571652
102	0x3fc848ba15133b36	0.189719448366725
103	0xbfc4789627e51204	-0.1599300093458994
104	0xbfc4a484ce6be767	-0.16127071456122197
105	0xbfa5f5b4b684393b	-0.04289021232590292
106	0xbfb74820aa9a968e	-0.0909443298829393
107	0xbfb1a8def96621e1	-0.06898301686135923
108	0x3f962e3c39778d6e	0.021660748488910135
109	0x3fbb16c497d6917f	0.10581616122232694
110	0x3f9422af47153183	0.01966356154780292
111	0xbfcce46c7daa9721	-0.22572094093373443
112	0xbfcf16f18734accf	-0.24288767911762085
113	0x3fc53f5f3b2c3a22	0.16599645985884687
114	0x3f9aff84cdb2f48d	0.02636535172927217
115	0xbfd5cfb15aa53992	-0.3408015618523673
116	0xbf925ef420bc1e3d	-0.017940344331718306
117	0xbf9ede69f6f67514	-0.0301453167900166
118	0xbfb9164286287b0f	-0.0979959085020534
119	0xbfcd2419800c80ad	-0.22766417267212571
120	0xbfcb9c1beac58825	-0.21570157016236738
121	0xbfc754f92e3d0f70	-0.1822806812070854
122	0x3f6fd25597cedfd4	0.0038844749201096627
123	0xbfb7964324fcd9f4	-0.09213657048244511
124	0x3fd39b236cbaae24	0.30634389513099536
125	0x3fb13866f4069065	0.0672668786779141
126	0xbfa82f45d245b303	-0.04723566238212664
127	0xbfc6848a2b85129d	-0.1759197914599512
128	0xbf96fb176f4ac3fc	-0.022442213218429416
129	0x3fb06caa617f965e	0.06415810470897429
130	0x3fc36ecaa92a51c8	0.15181859264397546
131	0xbfb72b0ba8f20e1e	-0.09050057291647604
132	0xbfc6b1a750764c2c	-0.17729655674756495
133	0x3fd2b0c127231a90	0.29203823873505375
134	0x3fd1362746a131aa	0.26893026254108554
135	0xbfcc51b2db926a84	-0.22124324532781625
136	0x3f93face581b8ece	0.01951143658415227
137	0x3fcb68b78f7e748c	0.21413321024457266
138	0x3faf1b734c8ccf94	0.060756304831016156
139	0x3fbac96d55ff8831	0.10463603353085273
140	0xbfbeaea9e88c79a6	-0.11985265662631281
141	0xbfcb415e8309d27b	-0.21293240927083787
142	0xbf9ba6b287fcb779	-0.0270030875682816
143	0x3fc05fc57c1a18ff	0.12792271194138746
144	0x3fb39f4ececf2424	0.07664959477473637
145	0xbfa80bd03e526f6f	-0.04696512947813757
146	0x3fc055220bbf4085	0.1275980527266293
147	0x3fbc4a3e7b7bd84c	0.11050787462940653
148	0x3fd2bf57bd141072	0.2929286333530917
149	0xbfc31dd6c07bb562	-0.14934811018558053
150	0xbfd0146f0eb1af24	-0.25124718127220746
151	0xbfbc3647a4be204e	-0.11020324489629837
152	0x3f9d8c55c667f31f	0.02885564826464126
153	0xbfb5ee873d5daf19	-0.08567090271179402
154	0x3fcbfbd6f1ec5dbf	0.2186230355516567
155	0x3fc6390e0abc7da3	0.1736161758826543
156	0x3fc484989384c84e	0.1602965088182508
157	0x3fc20c7c88f0dfb7	0.14100605665748642
158	0x3fd198be53474a3a	0.2749477208391543
159	0xbfa1929895681dd7	-0.03432156394779511
160	0xbfa2c3618ad984af	-0.03664688892309564
161	0x3fd045d5040d53f9	0.254262212712376
162	0x3fcc8ee7b26fbcac	0.2231111165305938
163	0x3fc8c27c061323d3	0.19343519493693737
164	0x3fcb9f95fae08882	0.21580767392976347
165	0x3fc4a38976bb869c	0.16124075219618283
166	0x3fb3bcf5f562b1fd	0.07710206261499049
167	0xbfc39a72eadf103a	-0.15315090626074995
168	0x3fb8e27f5fa5729c	0.09720607838739642
169	0xbfb3c605e9ed1128	-0.07724034272275004
170	0x3fbf47d3c2f99d25	0.12218974599965245
171	0xbf97b6fb3d4489af	-0.02315895616005442
172	0x3fc6720fece2fa42	0.17535590235452686
173	0xbfd3d47262ca7f19	-0.3098417248493078
174	0x3fc5efdd65d95aa7	0.17138259385202056
175	0x3fcb7d88d0498ab3	0.2147685067203234
176	0x3fd073c9b3775250	0.2570671322439795
177	0xbfcfa7088f9adfc0	-0.2472849560924697
178	0x3fc068cbfea0b00a	0.12819814618103492
179	0xbfaf5e0bd4178ebd	-0.061264390602244735
180	0xbfc411c9f8261aec	-0.15679287544863685
181	0x3fd1b9594d0e70a1	0.27693779492416054
182	0xbfa77159107a615b	-0.04578665090702102
183	0x3fd165f50d48eb02	0.2718479757055975
184	0x3fd5a6e2e0990241	0.33831092770927645
185	0x3fc81ff885a4715d	0.18847567105775456
186	0xbfcffbd8757b3c76	-0.24987321602245388
187	0x3fcedb6952c60bee	0.24107090512924806
188	0xbfd0ce16be0923ce	-0.26257866438078004
189	0x3fd03f3738ab170f	0.2538583806420868
190	0xbf31a2aa41b2715b	-0.0002690950074766462
191	0xbfc60394c56df31b	-0.17198428764449933
192	0x3fc9e3ea9edc8087	0.2022679591837042
193	0xbfca22eec8d44036	-0.20419106298550255
194	0xbf90a93f66ac7ea3	-0.016270628587448
195	0xbf923623ed38b82b	-0.01778465400109767
196	0xbfd24011c43e9d92	-0.28516048588286325
197	0xbfd1658e641b5b54	-0.27182349945126316
198	0xbfc20d56a798643d	-0.14103205855715997
199	0x3fbfe3eed205b2c8	0.12457172992226184
200	0xbfcfe9f85479fdcf	-0.24932769894438286
201	0x3fc7e783124d3760	0.18675268548616497
202	0xbfd0d208edded576	-0.26281951169524775
203	0xbfae559099f9a3be	-0.05924655799464727
204	0xbfc5a57dccbc3d49	-0.16911289688912692
205	0xbfc4f3af260209c7	-0.16368665080888276
206	0xbfd17145424fa173	-0.2725384852951926
207	0x3fcaa48ff5796eca	0.20814704404880607
208	0x3fd12f36a483680a	0.26850668016197743
209	0xbfc70cc28ad2d5cd	-0.18007690218443742
210	0xbf922906b4a01835	-0.01773462750863804
211	0xbfb3d58afb2fc21e	-0.07747715599521895
212	0x3f99e9dfee8e5d39	0.02530622380763001
213	0x3fb56d76bc27e9a4	0.08370153516435735
214	0x3fbfcaae1e23f8c4	0.12418640361645134
215	0x3fcbeeaa1417b3bd	0.21822095852931325
216	0xbfd33ecc7f180154	-0.30070793544293406
217	0xbfc631d926098271	-0.17339624745638418
218	0x3fc870689f98146e	0.19093044083288951
219	0xbfd411ac94f4c677	-0.3135787443780837
220	0xbfbc99aa9163a0a3	-0.11171976136722832
221	0x3fd02e2392fc0304	0.25281609872767796
222	0x3fc8ce01f6b1d7e8	0.19378685517921146
223	0x3fb9dd86e069353a	0.10103648165496262
224	0xbfa7b6426f75f977	-0.04631240473371439
225	0x3fc6137916bc9616	0.1724692688959954
226	0xbfc615c4008375c5	-0.17253923440050137
227	0x3fc7565379b845af	0.18232196276998766
228	0x3fb6210b23ce48c9	0.08644170402684205
229	0x3fc19d1a85aff60d	0.13760692146017597
230	0xbfd204d6735888b9	-0.2815452696251089
231	0x3fd1c2802f9e65cf	0.27749638223903345
232	0xbf8d4af8ce0b5056	-0.014303153789491468
233	0x3fd23aa10e67657f	0.28482843786840556
234	0x3fb06cdee2e77f5f	0.06416123428016139
235	0xbf8a156a439f84cb	-0.012736158550924156
236	0x3fb9ca5965c3dcd8	0.10074385389804108
237	0xbfc60a39bef01968	-0.17218705962313696
238	0x3fcd05527fc6f5c3	0.2267249225532578
239	0x3f9d7ade546ab7c6	0.028789018537899634
240	0xbfb3a66c85b56abb	-0.07675817741748407
241	0xbfc9f6b167ebeecf	-0.20284097265527243
242	0xbfce56b70bd237d6	-0.23702133252339647
243	0xbfb44d1e99bf41c2	-0.07930175069419135
244	0xbfc4eb9f3fc7fe87	-0.1634406148368621
245	0x3fc5ea9a7f6367fd	0.17122203083164314
246	0xbfc3bee2f515fe24	-0.15426289527020842
247	0x3fb1ea8605bcf92e	0.06998479499904839
248	0x3fa4b2c54b2ac517	0.040426412034671504
249	0xbfc2c9800fabfa9e	-0.14677429928993474
250	0xbf9aabea665b2978	-0.026046431062050485
251	0x3fbdfbb316da388e	0.11712188060684722
252	0xbf99c0f8ce022c81	-0.025150191854248497
253	0x3fcf39a0009cbace	0.2439460757245428
254	0x3fbffd0afc8d2f01	0.1249548784809882
255	0xbfd3a4d09c8abebc	-0.30693450248052634

bias f8 [30]
0	0x3fae36a35dc61c64	0.05901060599995203
1	0xbf91cf6fa74c1469	-0.017392868600854792
2	0x3f9cb26c2b2d1e7a	0.02802437795187849
3	0xbf8349de3082c871	-0.009418235640939994
4	0x3f9318f349eff918	0.0186498655202679
5	0xbf97a06ac63a151b	-0.023072880123909827
6	0x3fb0202f856309b6	0.06299111372485452
7	0xbf9e67feb12a244c	-0.029693584025640526
8	0xbf92b3ff35abe830	-0.018264758730744457
9	0xbfaec5bc79a739f9	-0.060102357721564866
10	0x3f89f03b45b8c305	0.012665236535299504
11	0x3fa3620c12e4b237	0.037857415491405914
12	0x3fa54f1c1bd15fe4	0.04161918487142183
13	0xbf9abb0803d2d5ba	-0.026104092820522708
14	0x3f5b287b67c375d4	0.0016576008920802148
15	0x3f60f92c99390507	0.002071940523621255
16	0xbfa2255dbf3b4f9b	-0.035441331475936276
17	0xbf8ba1adda13e020	-0.013491972177220701
18	0xbf8594404f9dfb9b	-0.010536673001977628
19	0xbf9b0135502856e8	-0.026371796624593907
20	0x3fac03eb28d6f827	0.05471739648372447
21	0x3fa7da037b735619	0.04658518678631313
22	0xbfa6b96e770a442b	-0.04438348010183576
23	0x3f7c58a199925518	0.006920462846342866
24	0x3f82782fc5c46d67	0.00901830026901136
25	0xbf939617ba80fe08	-0.019127245672505594
26	0x3fae17520447d98e	0.058771670362989345
27	0xbf9e7c0004cc72d9	-0.02976989774025438
28	0xbf8f9af17840c5a6	-0.01543224952920037
29	0x3f9b939dbecf2955	0.026930298586912944

weight f8 [30, 30]
0	0xbfc45a0b46d22218	-0.1589979263119552
1	0x3fd17aeb4dab97cc	0.27312738976467865
2	0x3fc1ddcc08ef9ff6	0.13958120762185872
3	0x3fc1b1563e6133d6	0.13822439237483647
4	0xbfd193eac799d85c	-0.2746531438091375
5	0xbfb75c9545799c0d	-0.09125645586173921
6	0xbfca16882e3fa9d5	-0.20381262071835118
7	0xbfc32bde6ddd3b38	-0.14977627148115302
8	0xbfb6d3ed40bc22b9	-0.08917124586526883
9	0xbfc32bc6281ad0dc	-0.1497733779739353
10	0xbfb097410af95192	-0.06480795400540831
11	0x3fd4c7d941fafbc3	0.32469779437445484
12	0x3fb72f18d028b52c	0.09056239206320943
13	0x3fc7f6dd4ea23fbd	0.1872212060884503
14	0xbfbed891f1b17a6b	-0.12049209738459303
15	0xbfc86071d1b7c638	-0.19044325580721178
16	0x3fca61eed5f1f3f3	0.2061136765150021
17	0xbfce119623014e20	-0.23491169652207677
18	0xbfa3bcc0239dc591	-0.038549427364055984
19	0xbfc1b6b17c73e421	-0.13838785721580485
20	0xbf9f7bd7ed4331ff	-0.03074586282382263
21	0x3fbb2e14c698221d	0.10617189262860234
22	0x3fab6b057607df0c	0.053550882967043106
23	0xbfc101093ea3f9ae	-0.13284411963100012
24	0xbfba576a49971c6c	-0.10289634987485535
25	0x3fc89567234b7a24	0.19205941413288585
26	0x3fc641dbf8ec5599	0.17388486532642558
27	0xbf8436f926845454	-0.009870478141730178
28	0xbfc34a19971df020	-0.15069885138280004
29	0x3fbee6e148e9c374	0.12071044950586246
30	0xbfb014d8da73214a	-0.06281810124631196
31	0xbfb3d0109ce4248a	-0.07739356832839142
32	0xbfd2ed717c3718bb	-0.295742389015128
33	0x3fc389d562f10a69	0.1526438458550559
34	0x3fd3adbac0c0738a	0.30747860740103106
35	0x3fcb9b6ce3bcd2fd	0.21568070526122787
36	0x3fcbcf40f7d08f7b	0.2172623834641135
37	0xbfb33829851cd8ac	-0.07507571697064702
38	0x3fc38177624cc395	0.1523884992580206
39	0xbfc34b499c569096	-0.15073509343813346
40	0xbfb46442695923dd	-0.0796548373410952
41	0x3fb1ee8c6f643916	0.07004621238249728
42	0xbfc2e9402e525581	-0.14774324666784014
43	0xbfb351464d35ff3c	-0.07545890221626633
44	0x3fb1ca82cd44e1c5	0.06949632178737548
45	0x3faa48aa0660e612	0.05133563354361227
46	0xbfcd5b9cd1c5ce2f	-0.2293582939415599
47	0x3fb4ff7e0c854e16	0.08202350431138714
48	0xbfd2fa9da76d95d5	-0.29654637670895784
49	0x3fd3980bf7664c58	0.3061551967632048
50	0xbfc2eb4f0056635f	-0.14780604855038867
51	0x3fc38e0a46e5148b	0.15277222119963016
52	0xbfacfccbaa73db40	-0.056616177136609824
53	0x3fb3469fb0d33640	0.07529638354318369
54	0xbfc66f869bb49b50	-0.175278497722696
55	0x3f7006199022f78d	0.0039120672756193355
56	0x3f94e8fa2a08f082	0.020419987502677824
57	0xbfadfbe4ae7d7447	-0.05856241827016411
58	0xbfbc46746433eb45	-0.11045005270345339
59	0xbfc1de535fac0ef8	-0.13959734126557755
60	0xbfb6180a7b1ce582	-0.08630433564839815
61	0xbfbe1863ad39fc91	-0.11755965212977261
62	0xbfcefc0323c8b6da	-0.24206580397861083
63	0xbfa745cb8ca50b42	-0.04545436946729932
64	0x3fa45d930523feac	0.039776415231242396
65	0xbfa1f9759424cd51	-0.03510634835620386
66	0xbf96815ef8195667	-0.021977886097678836
67	0x3fd537bed538ba75	0.3315274317018642
68	0xbfb92ae76a3a5a8b	-0.09831091254668871
69	0x3f9991a425375875	0.024969639560218988
70	0x3f9ac9894f2af641	0.026159425217647806
71	0xbf9f2666e06b8375	-0.030419928977497308
72	0x3fd195edf43ba828	0.27477597094423567
73	0xbf9629a3bac43a85	-0.021643217348407368
74	0x3fc6df1c9939bd42	0.17868382913318653
75	0x3fd060edd8af184d	0.2559160820059148
76	0x3fba77198b1d8947	0.1033798184048794
77	0xbfa01b074a1d37f5	-0.03145621089662135
78	0xbfabb05732e0c3a6	-0.05407974716252477
79	0xbfd29c2a7bacf483	-0.290781613137206
80	0x3fd02f64aecc4769	0.2528926569949506
81	0xbfb8a923cec71f17	-0.09633086965834213
82	0xbfb6dd3edf2c007c	-0.0893134398320416
83	0x3fd02da87b77d02c	0.2527867513410935
84	0x3f99ad6f74260af4	0.025075665916584236
85	0xbfbfdb11bc058a7e	-0.12443648186084919
86	0x3fc9c629d42891a1	0.20135996684360882
87	0xbfcd0644b73bcf86	-0.22675379702524995
88	0xbfb5bac2788b3f1f	-0.08488097613303268
89	0xbfcf2d86d35fbfdd	-0.2435768634891237
90	0xbfb805c1e638e093	-0.09383785124453174
91	0xbfd56173f4da6571	-0.33407305633007583
92	0x3fcf6afa43d666a7	0.24545219719293707
93	0xbfd0859a782af807	-0.2581545041574604
94	0x3fc7a88648fb1189	0.18483046115410343
95	0x3fd0751422fdaa07	0.25714591424062444
96	0x3fd0584daccd0e11	0.2553896129140592
97	0xbf932d6c9dc3fd62	-0.01872796738552774
98	0x3fca03d044406b1a	0.20324138004874542
99	0x3fca006cd0e36062	0.20313797187441468
100	0xbfd044754bb25f5c	-0.25417835609686334
101	0x3f9b5b3c9c2a247b	0.026715228110820704
102	0xbfc48e38b958b5b9	-0.16059025812266528
103	0xbfd40c2b88a2d9fc	-0.3132428011262218
104	0x3fd2702637cfee77	0.28809504938519787
105	0xbfb1cb19fcba649e	-0.06950533313865256
106	0x3fc42237a7d15916	0.15729423231341205
107	0xbfd43fbfa4f5d62d	-0.31639090642360906
108	0xbfcb13de2c8b1ddd	-0.21154381918880363
109	0xbf8b16836e5ec817	-0.013226534658176843
110	0x3fb3ca0c6920f7df	0.07730176512356433
111	0xbfc7cbe4c79fdf30	-0.1859098410347939
112	0xbfc599d741cefda7	-0.16875735009487622
113	0xbf9f3de31ef6f08f	-0.03050951839917154
114	0xbfc69acdceaeb163	-0.17659924117959766
115	0xbfcedbb92d0d7b7d	-0.24108042430722412
116	0x3fc8b0ec25bfa1e5	0.19289924472037892
117	0x3fa59052a2d8f470	0.04211672056087756
118	0xbfcd16d6776315fc	-0.22725945310064322
119	0xbfc822f1948c7d1a	-0.18856639626844968
120	0xbfb5c38736082065	-0.08501477307447798
121	0x3fa501dc3b9af24a	0.041029817844422015
122	0xbfc572eff098d097	-0.1675701069631301
123	0x3fa4b79bea8d6351	0.04046332586466995
124	0x3fc3a6263061f8ef	0.15350797045170547
125	0x3fa45c2e36ce2a87	0.03976578158388571
126	0x3fd2737c8d851d36	0.2882987386733079
127	0xbfcdec5aa9bda439	-0.233775456315273
128	0x3fc4ab9332321948	0.16148605299913243
129	0xbfb95808b5e73635	-0.09899954262729056
130	0xbfc32c44373aa9e0	-0.14978840538726867
131	0xbfa87eece3d0097b	-0.04784336357990334
132	0x3fc5be91255a425d	0.16987814258438308
133	0x3fd02462d4010a11	0.2522208280899188
134	0xbfa7116f2b26b6c3	-0.04505488778828017
135	0xbf98d9a3ae1ed7b2	-0.024267728331061007
136	0x3fac7bd1d366b106	0.05563216882305437
137	0xbfd8b7974e626622	-0.3862055078003285
138	0xbfca97e2a2d78960	-0.20776017142550085
139	0xbfd2ae745a3f2ac8	-0.2918978577915081
140	0x3fcc6889d76d98de	0.22194026011420126
141	0xbfcd4029b4930e1c	-0.228520596667395
142	0x3fb14fe466b127f4	0.06762530810479445
143	0x3fa0a868a33241f5	0.03253485672133031
144	0xbfc058bd66ae31cd	-0.12770812524503442
145	0x3fb7bd3b8d707b6e	0.09273121073827692
146	0x3fc07e7408eaac5c	0.1288590472734964
147	0x3fcb0a505a6f3f9b	0.2112522546362897
148	0xbfb4cab02dc05f74	-0.08121777646044653
149	0xbfc8766298e4b8fd	-0.19111282792568565
150	0xbfbba1d3eeed900f	-0.10793804724886534
151	0x3f90b39e63f7a1bf	0.01631019101287889
152	0x3fd317a23994cec2	0.2983174860303103
153	0x3fa5d4433f3a786f	0.04263506075697953
154	0xbfaf5054d264d204	-0.06115975445064595
155	0x3faf1ca74ce6e1ed	0.06076548398727142
156	0xbfaaa7b299746d36	-0.05206068156459269
157	0xbfa9913ae265c37e	-0.049936142097869216
158	0xbfa3755e551deea6	-0.03800482548737465
159	0xbfd45f4f7970ca2b	-0.31831728801185716
160	0xbfc75fd3d31ad172	-0.18261192138528376
161	0x3fd08311131ade26	0.257999676377468
162	0x3fd1a18fa7e156f3	0.27548591036371234
163	0xbfcc50001cfe7fcd	-0.22119141975144743
164	0xbfc583490b9a6fd0	-0.1680690104157052
165	0xbfcda57f676dcb4b	-0.23161308813322487
166	0xbfc29f37b92fa7cc	-0.14548393766682322
167	0x3fb73dfbbd0c7ab2	0.09078954091499261
168	0x3fbc6f766ee7f918	0.11107578475637003
169	0xbfc85bf0fb1f593d	-0.19030582677687305
170	0x3fd714fd7fcfb40e	0.3606561420591
171	0xbfbaeeef58418ebc	-0.10520835785569721
172	0xbfc26b9b04bf437a	-0.14390886050980695
173	0xbf94a5d8ad4b8db5	-0.02016390378675022
174	0x3fc565da6dd31e65	0.16717081415685012
175	0x3fd6a3661fef4048	0.3537230789052086
176	0x3fd2f28677389726	0.29605256693536075
177	0xbfbc468397f66bb1	-0.11045095882438606
178	0x3fce5b107e7a25df	0.2371540658535158
179	0x3fd13925ef7c392c	0.2691130484316939
180	0xbfd1cf6be4a3fff2	-0.2782850010698886
181	0xbfd028a18ab1ae29	-0.25247992081014786
182	0xbfc5c00da1a192eb	-0.16992349998613263
183	0x3fd6d110159cefa0	0.35651018248221966
184	0xbfb0c0f0b0b404d7	-0.06544403375666562
185	0x3fd949977c225278	0.3951166832205568
186	0xbfd46cac1e574aa0	-0.31913283312784735
187	0xbfa0afc9fcb58369	-0.03259116372897248
188	0x3fa27802ea3fbd66	0.036071864218565605
189	0xbfc123e9338f7305	-0.13390841500849873
190	0xbfc67bb434e2b002	-0.1756501444082233
191	0x3fbab1edf087f469	0.10427748796787885
192	0xbfcf75d17ae3136b	-0.24578302860586673
193	0xbfbf1090af1edf3d	-0.12134651446728824
194	0x3fbb6853bd6376a9	0.10706065534346955
195	0x3f71e1b0dd99d39b	0.00436562622200123
196	0x3fd336100699a651	0.30017471928167533
197	0x3fcff4a44b4e8e00	0.24965337445347302
198	0x3fd26c98c9992f9e	0.2878782242521484
199	0x3fcbc8c4e3aa7803	0.2170644866609451
200	0xbfc5004ae397eb56	-0.16407142746887854
201	0x3fd1c956026ec77c	0.2779135726697104
202	0x3fc66611a0222572	0.17498989409459004
203	0xbfb27a16e1133d4c	-0.07217543597220305
204	0xbfc02a56c9b5292f	-0.12629208420759983
205	0x3fb0d6d3ae18a473	0.06577799797436672
206	0xbfc534f59fabcf04	-0.16567869469110275
207	0xbfb75ad2e2058139	-0.09122961061575986
208	0x3faa2dd3ecada128	0.05113088859690357
209	0xbfce6fb9a24b7765	-0.237784580464843
210	0xbfcb037eb6b028b1	-0.21104415817564395
211	0xbfd0b69c0811a393	-0.2611455992505906
212	0x3fa1453007004bab	0.033730984549172525
213	0xbfc5cfd05a61d708	-0.17040447629158728
214	0xbfce99e8b808d57d	-0.2390719317060465
215	0xbfbf838b522c89df	-0.12310095554543164
216	0xbfd3cd923b6031cc	-0.30942207144178435
217	0x3fb3282d7468c67d	0.07483181087516218
218	0xbfbd520efc756b9d	-0.11453336394826726
219	0x3fbae54951c1ebbc	0.10506113287003321
220	0x3fc466f2bc8c66af	0.15939172941653143
221	0xbfa89d43109fb692	-0.048074813632280514
222	0x3fd22ef8fbf1f018	0.28411697963724825
223	0xbfcbc9f4ac2f6701	-0.2171007004497412
224	0x3fb2f8878249771c	0.07410475664934463
225	0x3fbe560e6a636843	0.11850061509486047
226	0xbfd135a799c991ea	-0.2688998224096212
227	0xbfcc54c06866374d	-0.22133641336079748
228	0xbfc3432b697eb4f0	-0.15048735285873915
229	0x3fd1e153bd1fb551	0.27937787503363604
230	0x3fc2f827d7f1e00d	0.14819810909443767
231	0x3fcc722d3ba8567e	0.22223439610450052
232	0xbfccdc300e28632b	-0.22546959582612067
233	0x3fd46f365ad81cca	0.31928786155226574
234	0x3fc914d7876ae8ca	0.19594854461849415
235	0x3fc07c38008e02d7	0.12879085566603152
236	0xbfcf9b50413cf3fd	-0.24692729173139574
237	0x3fb6c4ae067aaa81	0.08893859537298889
238	0x3fca0059324630e2	0.20313563303751098
239	0xbfa94893cf0b1559	-0.04938184645065275
240	0x3fd3dc7018c9f22b	0.3103294603422763
241	0xbfcc880515a2acef	-0.22290099674623984
242	0xbfcc3b5012b4c88a	-0.22056008256328524
243	0x3fc5cd0b9e6c3218	0.17031998858910025
244	0xbfcf5f1ad1ba2dbe	-0.24508986702526941
245	0xbfa43658a3a929d0	-0.03947712896168165
246	0xbf4cd539173aa8d1	-0.0008799103511212496
247	0x3fd246e91a886bc2	0.28557803717711405
248	0xbfc56159d0860ef6	-0.16703341180629366
249	0xbfd3b014cfd37834	-0.3076221494246767
250	0x3fbf7105219bf403	0.1228182990125362
251	0xbfa2f12b56c48f40	-0.03699622568299654
252	0x3fd56dd9e9466b9b	0.3348297861172626
253	0x3fba88cd10652e97	0.10364991808199374
254	0x3fbec34ddbdaa68b	0.12016760461360769
255	0xbfb23a6de68b342a	-0.07120406034955865

bias f8 [30]
0	0xbfa536fb3384a0ce	-0.04143509868510052
1	0x3f98f8bec67e6f85	0.024386387696366824
2	0x3f5de7b52efc4ff6	0.0018252629633410656
3	0xbf84a19d9499603c	-0.01007388219584026
4	0xbf1e019edddad519	-0.00011446506638431267
5	0x3fa14c4870dd7d12	0.03378511789082429
6	0xbf40122ac23f66c9	-0.0004904469283204201
7	0x3f67c2b52ab896b8	0.0029004610457999645
8	0x3f7beb5e6e9e7253	0.0068162621263608445
9	0xbf691a69636c8142	-0.0030643518797576494
10	0xbf6b361d13e393df	-0.003321701805463636
11	0xbfa153a104263bcb	-0.03384116340304607
12	0x3f8fc2169b256065	0.015506912812881699
13	0xbf8a7b4a523275c8	-0.012930470117050855
14	0x3fa1598aa62d8c3b	0.033886273179426905
15	0xbf8c13c7a4eecc1a	-0.013709602089738527
16	0x3f92b91eb89a33d7	0.018284301774247638
17	0xbf8a01a14e0ca111	-0.012698421663643463
18	0xbf842aea60237bbf	-0.009847479876439523
19	0x3f7bcd7b8f0ad6ac	0.006787760402109971
20	0xbf4389e4f67726c3	-0.0005962722761349782
21	0x3f97bd6463cba2af	0.02318341120818229
22	0xbf91f7f14b360fb7	-0.017547388282323797
23	0x3f692d20bcab337d	0.003073276462009776
24	0xbfb96338af0adc64	-0.0991702487325355
25	0x3f76b9cd41778e1b	0.005548288135716751
26	0xbf55fede5030a5c6	-0.0013425036456829894
27	0xbf8917d42c4a8199	-0.012252481080680154
28	0x3fb8b959efdfdede	0.09657823664008044
29	0x3fa75518354a1ba5	0.04557109499460602

weight f8 [1, 30]
0	0x3fc62609e23681e0	0.17303584619095513
1	0xbf976c130d2c00ed	-0.02287320869345504
2	0xbfb0d1c700c86bdc	-0.06570094842065494
3	0x3fbc0ffba58e5c0d	0.1096188811483076
4	0x3fcf91d21a2db3b5	0.24663759496925555
5	0xbfb7c21a187ec7c8	-0.0928055105021307
6	0xbfd230e1ea8b8a9e	-0.28423355011742923
7	0x3fb864e83c73b97a	0.09528972125892735
8	0xbfd165e93f07f5b8	-0.2718451610124606
9	0x3fc8a895fb36e180	0.19264483228995388
10	0x3fd31752a7380095	0.2982985146518414
11	0xbfd7629b43848b7c	-0.36539346307306864
12	0xbfc6bb0a5c5460a4	-0.17758302219659072
13	0xbfbea07641adb68d	-0.11963595489006647
14	0x3fde6d664359cfdd	0.4754272134516649
15	0xbfbca48a2b2f657a	-0.11188567690205345
16	0x3fbc7e9854c11ce9	0.11130668706129011
17	0xbf73ee9dcea31c41	-0.004866234239847834
18	0xbf9654ec20e896b8	-0.021808328159883955
19	0x3fcf7bebdd2cf9aa	0.24596927928537343
20	0x3fcd89cc50df8897	0.2307677645577015
21	0x3fd52ec5a9a4f0bc	0.3309797436411477
22	0xbfd2a06514b875cf	-0.291039724574003
23	0x3fd5d6fbb9efd8b8	0.3412465396680875
24	0xbfc7708352e72bfc	-0.1831211237716558
25	0xbfd75a58e7599514	-0.3648893603588743
26	0xbfdf81d82ece7ed5	-0.4923000771614004
27	0xbfd471922aa8c86b	-0.3194318214983755
28	0xbfc507e1d65237a8	-0.164303044938092
29	0xbfd41da11f69ce91	-0.3143084341784084

bias f8 [1]
0	0x3f74b926097a9568	0.005059383947501807
