AONN_BFGS/BFGSNN/linear_ctd/results/AONN/At1/y.pt (torch, 27327 bytes, 10 tensors)

weight f8 [30, 2]
-0.5785148091253295 0.020589331573438174 -0.3022309144391553 0.2756439226895817 0.10777716781420688 -0.7118520000420571 -0.2826001485679462 -0.18426411722226643
-0.2425486001672557 -0.213529666273446 0.05614462063125801 -0.4326797446222577 -0.4945269851817625 0.23721558041823673 -0.34480805548749327 0.022152198601511228
-0.19797872381382645 0.16675742128138993 -0.20064491950791014 -0.3348689614140801 -0.39354376875725455 -0.23083285920513455 0.2111612976716661 -0.2842432798705867
-0.5555839333670766 -0.20747495701725172 0.5695378016510378 -0.13257970108449046 -0.1647561692595654 -0.12591926793461872 0.05033724552832368 -0.45554990576467985
0.5416526573007868 -0.2582772202006093 -0.2695388789690529 0.6295394353199295 0.1935487419860163 0.5232029873072894 0.2769366700837541 -0.7091482492186683
0.37806220355517367 0.443616779335149 0.4334404141762074 0.2897692713381245 -0.00121932200992768 -0.48349406601923 -0.13862844780064307 -0.29870167511564544
0.29798188800252623 -0.1750954385004154 0.3351913051356669 0.6080252506531093 -0.16817747737013133 -0.2659575696963779 -0.2637014040734393 0.2989203537557553
0.1592050397966334 -0.08482952272838916 -0.20305703649844187 0.04761364601987799
00000000: 373d 2e7d 3183 e2bf f085 04a7 5e15 953f
00000010: 60ce 5655 c057 d3bf f8be 5268 26a4 d13f
00000020: 587c 04d3 4897 bb3f fdba 78d8 7dc7 e6bf
00000030: a56b fcee 1e16 d2bf 84e1 a572 f795 c7bf
00000040: 4258 b420 d50b cfbf 2e64 afaa f054 cbbf
00000050: ee47 eada fcbe ac3f a5d4 3262 06b1 dbbf
00000060: e216 1683 54a6 dfbf f7bd ff83 145d ce3f
00000070: 30d5 6dce 5511 d6bf cca8 1ce2 10af 963f
00000080: 19c7 0ae8 5d57 c9bf 246a 62a3 4e58 c53f
00000090: 3a90 b293 bbae c9bf 7103 6e39 7e6e d5bf
000000a0: 01d9 1634 d22f d9bf b169 905e ee8b cdbf
000000b0: 0f22 d759 5507 cb3f 77b9 c9b9 0a31 d2bf
000000c0: 11d4 fff4 57c7 e1bf a465 9015 8a8e cabf
000000d0: 83a9 fd56 a739 e23f 58bb 2224 5ff8 c0bf
000000e0: 895c 64eb ba16 c5bf d493 db60 1f1e c0bf
000000f0: f636 a1ae cdc5 a93f b321 bdca ba27 ddbf
00000100: 7dbf 1cf4 3755 e13f de0e 842d 9d87 d0bf
00000110: 9f0b 8bff 1f40 d1bf 96b9 c7e2 2f25 e43f
00000120: 5a85 8186 34c6 c83f 1ef0 f430 14be e03f
00000130: d4a9 4495 54b9 d13f 641d 4dab 57b1 e6bf
00000140: f3e1 07d0 2b32 d83f 52e2 cca1 3764 dc3f
00000150: 44b2 e9dc 7cbd db3f 971c f269 948b d23f
00000160: c7cb fa09 35fa 53bf c935 5718 91f1 debf
00000170: 33ac ccb4 93be c1bf 8f74 78a1 ed1d d3bf
00000180: 185b f19f 2212 d33f 43df 04ff 8669 c6bf
00000190: 0f85 5d3b c673 d53f 5750 d65e f174 e33f
000001a0: 4c3f 9dee d686 c5bf a90d fee5 7205 d1bf
000001b0: a7e6 99da 7be0 d0bf 9257 dfd5 8221 d33f
000001c0: 3978 a4ab d460 c43f 678d da39 63b7 b5bf
000001d0: e0e2 7de1 c5fd c9bf 2755 ffd8 d060 a83f

bias f8 [30]
-0.02030786985506396 -1.0236493574447008 1.2195473056951387 0.060477853251549925 -0.37132570503940987 1.2086653411881432 -0.3342934032409006 -0.30266481168155457
-0.5590433783812552 1.0686307726322 0.18942761564082863 0.35612990829849916 0.7873065987863412 0.3780775105212413 0.7170353690166166 -0.8269089352356082
-0.5881799919145334 0.12068220505952315 1.0447829390554964 0.061549660844120356 0.19919954365351644 -0.07554999305909174 0.025218722267666194 -0.372358247367726
-0.8691321049130436 0.34637248800552706 -0.12128933192695229 -0.10252873960784993 0.5014614199991025 0.7674307283254777
00000000: a504 8413 96cb 94bf 12be 0c26 de60 f0bf
00000010: 272b 1e09 4483 f33f f904 b203 f4f6 ae3f
00000020: f4bc d3e3 ccc3 d7bf 5b63 0378 b156 f33f
00000030: 9c0b 8c28 1065 d5bf 2aa0 f43a dc5e d3bf
00000040: c82b 66f0 aee3 e1bf ad45 bf94 1c19 f13f
00000050: ab7c 1103 2a3f c83f 0740 5119 d5ca d63f
00000060: 66cb b69b 9d31 e93f 4cad c203 6c32 d83f
00000070: 990d 8028 f4f1 e63f 856d 33ba 0976 eabf
00000080: 24e7 add8 5ed2 e2bf e497 f06b 07e5 be3f
00000090: 0998 aa50 6eb7 f03f 1b8f cfe8 6f83 af3f
000000a0: 6c5b afe2 5e7f c93f 12de 668d 3e57 b3bf
000000b0: 60cf 8bcd efd2 993f d7c6 b5af b7d4 d7bf
000000c0: 4c2a d021 eecf ebbf edf1 0d83 f72a d63f
000000d0: ecdd fa51 d10c bfbf 790c 84cf 523f babf
000000e0: 7c42 e3d1 f80b e03f f34e 03e3 ca8e e83f

weight f8 [30, 30]
0.06722651168678367 0.16942866831823197 0.0027656949644404173 0.08493447433870632 -0.3230365589721758 -0.14349920867578944 -0.36647015219105833 -0.11996169556771881
-0.018057689060284106 -0.35449843162385275 0.10742182295106989 0.3453734614470324 -0.005026863440981944 0.07039564793592086 -0.3479382415998032 -0.0039233412976265045
0.5128930258284113 -0.13012142118733938 0.03152612430353966 -0.07468621508417647 0.37377897764574647 0.4475572758535129 0.2510653873744807 0.03546222973235106
0.17206740300526083 0.24714170037576808 0.1858708479489313 0.20525175646876317 0.02762502167564667 -0.45483087951019746 -0.20533300706147112 -0.2257869012595027
-0.11132610538727909 -0.07796872139561614 -0.40743460551424476 0.3171196791575149 -0.38597868410998576 0.09974049299029676 -0.14168640102008973 -0.027901794193876613
0.020098280784322433 0.380659004051461 -0.17793992148581453 0.09721468216923426 -0.17870424620532147 -0.17879754987322305 0.1826587367924712 -0.1821368488093717
-0.2718842476685666 -0.23145109863048288 0.010443116126727797 0.18239812635339872 -0.049141867447570056 -0.052100133478843874 0.2031403942667377 0.035811412956409265
-0.16612541824792848 0.30755274059878335 0.3392573711737665 -0.13778191343449883 0.09576842118532296 -0.011381577714779677 -0.014213704339954765 0.04076601079118934
-0.03183678322615518 -0.24658476776048255 -0.05865807737505969 -0.008239716703368429 0.11156604196416185 -0.15548659686852176 -0.18554151134733318 -0.26408570026209877
-0.1925152444336942 0.28047201689702983 -0.41305597707120084 -0.2792713660491091 0.1608707548356911 -0.11305686230399759 -0.08639471713455117 -0.33090589933547976
-0.11206054511994154 0.11447982384685972 -0.06811095015122001 -0.16335403553287037 -0.17824055627139235 0.21629285172485058 -0.18795098720295075 0.14584211588300602
0.14240716471575837 0.14981887054287985 0.20037869843789582 0.17840597788923354 0.19200168721558442 0.2087066476070599 0.17508172881190873 0.1119064068675336
-0.03968691408907356 0.281857344497783 -0.09948985552448268 0.3829898831224752 -0.02948246467332569 0.0738906933834788 -0.0733821241858706 -0.37902341318437627
0.11562123325987039 -0.2867937470641125 -0.06673136405888165 0.09616484293687967 0.4289696816227378 -0.24006444425051868 -0.19349616536113462 0.09887577470778625
-0.33501408394127097 -0.016326992202282734 -0.11868982427185493 0.1058941852649428 0.4181310473878022 -0.03530535119490471 -0.3603329358598442 0.14525295425848508
-0.19242855173044549 -0.10242283550797868 0.10607525393018145 0.04148423028101153 0.17327545747919218 -0.14511545297195524 0.016343325432497478 0.11947443258375498
0.1773765608115086 0.013712573034767557 0.2425978017970338 0.046345869161364454 0.0655034978839582 -0.09108189171770076 0.20075255130438652 0.2746257342127361
0.20417638108529626 0.24457961126610492 0.14864882534078255 0.1644326106287367 -0.1652069209873867 0.04131975174434138 -0.0500387040865644 0.023547419260612962
-0.20809834680035774 0.08001061698648436 -0.06800265537083394 0.13149054461162876 -0.06985071002860838 0.1448016365333844 -0.22446284917150203 -0.491194221336728
0.014554258076231456 -0.09506432702828978 -0.23123816661831872 0.22672043364563713 -0.15178594349998292 0.2510506625682168 0.1728712986568583 -0.20246546322110567
0.37249516418924056 0.17162945492136122 -0.1703291350581341 0.06933386950643167 0.12451749333595034 -0.42011051224935403 -0.4757716591377187 -0.0024926677979924205
0.6789457645413141 -0.27155661092134975 0.1467908229883998 -0.19571388290040773 -0.05548513353500417 -0.08136991271067404 -0.07672270594678982 0.346022305668949
0.1547717553713221 -0.27343617645418244 0.20121899647287134 0.017877906623459228 0.023561188103281838 0.09323348062598374 -0.056052370579315426 0.3088870780490837
-0.18071048992151337 -0.25627935913789596 0.14255462683663433 0.20145093941282458 0.14619748161313528 0.10089595991361962 0.4040960141495832 0.04592341456143115
-0.2560544638751016 0.0011437982409784999 0.3864232299624503 -0.3394844004720863 -0.23924918629192546 0.10950670194045983 0.4072955907322561 -0.15718787715879243
-0.2666304254916688 0.10709140777901884 -0.3593326063483968 -0.15881792865529346 -0.33936450534064294 -0.08708568354204294 -0.0160188122874451 -0.06029448957241821
0.04286693849013501 0.22622454138077405 -0.21366238599747825 -0.13893229976037055 0.21316195594211168 0.04668867660031039 -0.2221145564218063 0.24009558774972678
0.08395172470973285 -0.07056395869485559 -0.13766500564651202 0.38736348206250204 0.1784201196950246 -0.11247496290077114 -0.2403299724041643 0.04171197619242142
0.06299211226300885 0.41112092002474515 -0.008082081048820144 0.17616885170979193 -0.19326187114644525 0.3934770546499746 0.04575484982288088 -0.022484584363991256
0.11897167795209443 -0.17404467398374754 0.16997299231653545 -0.11381679957084596 0.055629789211213115 -0.22874308930508935 0.14274560365279623 0.10720093608916523
0.5125144648437979 0.2847372141075686 0.3368870671367557 -0.06287923725091456 -0.04908028198963514 -0.1542571629824721 -0.011703316401777547 -0.008220857491984979
-0.25994739852031407 -0.32266604666432863 -0.43400919979255564 -0.20620671683840947 0.2452080934053585 -0.3877569205875252 -0.18703662187557027 0.4056050135124142
00000000: 1470 1eb5 c135 b13f e73f b7ae d6af c53f
00000010: a414 892d 15a8 663f 2c73 9605 44be b53f
00000020: e9a9 0c88 a1ac d4bf b3d7 219c 2e5e c2bf
00000030: 2dba a739 3f74 d7bf 756e 3c47 cfb5 bebf
00000040: f22e d2ff b67d 92bf 02b2 9330 1ab0 d6bf
00000050: 9c98 7320 ff7f bb3f 8690 744a 991a d63f
00000060: a7a0 4961 0c97 74bf dd5e aafd 7205 b23f
00000070: cdba 2cc2 9e44 d6bf 0196 07e9 eb11 70bf
00000080: bff1 88a2 9e69 e03f e81b 4198 d1a7 c0bf
00000090: 25e8 b431 3124 a03f 9ea1 3fc3 a21e b3bf
000000a0: 53ee 3aa9 feeb d73f 0c2c b845 c7a4 dc3f
000000b0: f294 fb8e 7411 d03f e52a e3f9 1a28 a23f
000000c0: 6dc0 4efe 4d06 c63f 9fbe 4bd8 56a2 cf3f
000000d0: a937 9cae 9dca c73f 2d6d bd86 b045 ca3f
000000e0: 0ec0 97d2 bb49 9c3f 0143 2dfa f21b ddbf
000000f0: 4626 0f1b 5a48 cabf db2a 63ce 95e6 ccbf
00000100: 6b54 d41d de7f bcbf ae4e 8114 c2f5 b3bf
00000110: 574f 7c98 6813 dabf 0d92 b956 b04b d43f
00000120: f926 4df0 dfb3 d8bf 21f1 7acb 9788 b93f
00000130: 36a9 55ad c722 c2bf bfeb 3fb6 4992 9cbf
00000140: 87ad b2ca a494 943f a00d 5595 b75c d83f
00000150: cd99 b73f bcc6 c6bf 0a9f 9bb8 0fe3 b83f
00000160: 19d9 8dde c7df c6bf e8bb a78e d6e2 c6bf
00000170: 5619 6d8a 5c61 c73f 1631 84a0 4250 c7bf
00000180: 012e 0230 8d66 d1bf 75df 9e89 30a0 cdbf
00000190: 106b dc51 3363 853f 190f c561 d258 c73f
000001a0: da75 1a73 1f29 a9bf 4c57 d162 deac aabf
000001b0: bca3 ef22 8100 ca3f f751 f19e df55 a23f
000001c0: d45f 3403 9943 c5bf 3eaf aab0 f1ae d33f
000001d0: 9391 878c 64b6 d53f 973a 1776 d6a2 c1bf
000001e0: 1303 fb7c 4784 b83f 0cb1 7e80 394f 87bf
000001f0: 5767 5c1a 131c 8dbf bee8 4556 48df a43f
00000200: 7748 882d e94c a0bf 2c8c 9cf4 1690 cfbf
00000210: 91b9 f177 6e08 aebf 4178 270e fcdf 80bf
00000220: 878a 9495 978f bc3f 2921 421c fce6 c3bf
00000230: 43c3 a401 d3bf c7bf e2e2 7db5 c7e6 d0bf
00000240: 297e 69eb 56a4 c8bf 8c04 01e7 40f3 d13f
00000250: 610a 3c56 826f dabf 85f8 f801 95df d1bf
00000260: e778 73b3 6997 c43f 901d 2f66 4bf1 bcbf
00000270: 81db a3d4 f61d b6bf 36c2 ecef 8f2d d5bf
00000280: f64a 76f8 ffaf bcbf d75e 79bb 8c4e bd3f
00000290: 4e23 661f b86f b1bf 2e43 24f8 c8e8 c4bf
000002a0: 44d4 0028 96d0 c6bf d826 42f2 7baf cb3f
000002b0: afcf a427 c70e c8bf f568 0c57 f4aa c23f
000002c0: 52cb 95e1 653a c23f f214 a7c6 432d c33f
000002d0: 258b 4d5a 02a6 c93f e9fa 38d0 01d6 c63f
000002e0: a412 afe3 8293 c83f 230e f740 e6b6 ca3f
000002f0: b3e8 affd 1369 c63f 377c b5f5 e5a5 bc3f
00000300: 92f7 2edc d751 a4bf 3458 3063 f309 d23f
00000310: 4bec c2cb 2a78 b9bf e56e adff e782 d83f
00000320: 5944 4fb6 a630 9ebf eb90 8f1f 80ea b23f
00000330: 6544 7dbf 2bc9 b2bf 6ae4 026b eb41 d8bf
00000340: 5807 9367 5a99 bd3f 359c 1529 d45a d2bf
00000350: 0518 4082 4e15 b1bf 195a 7057 429e b83f
00000360: 69e4 6240 3d74 db3f a983 7e84 6eba cebf
00000370: 4e51 107b 7bc4 c8bf 3492 bc3a ec4f b93f
00000380: c089 8ee9 de70 d5bf 6112 34e6 05b8 90bf
00000390: 3898 9dd1 7462 bebf abab 8c9e e11b bb3f
000003a0: f542 7eb9 a8c2 da3f ab06 8301 8b13 a2bf
000003b0: fd23 ccdf b10f d7bf 8902 1818 a697 c23f
000003c0: 34dc 3fb0 7fa1 c8bf a6cf de08 6238 babf
000003d0: bf86 8b72 bf27 bb3f 6c9e b6c8 6b3d a53f
000003e0: f149 89e3 e32d c63f b352 54a6 2493 c2bf
000003f0: 993b f600 4ebc 903f 46c7 a75c e095 be3f
00000400: d295 e16f 46b4 c63f f1a2 d365 5615 8c3f
00000410: 375e 66dc 710d cf3f 579c b450 a5ba a73f
00000420: a469 2f55 d6c4 b03f 5072 2f92 2451 b7bf
00000430: 7c6f 3875 42b2 c93f 2d5b c5d0 7793 d13f
00000440: e540 b09f 7322 ca3f 1702 d47b 624e cf3f
00000450: 92b7 b6b9 ec06 c33f 04ee 85b6 200c c53f
00000460: ee59 5b19 8025 c5bf 2871 d7cc dc27 a53f
00000470: 3e0a 2c4b ac9e a9bf 58a4 848e d01c 983f
00000480: 5bfa ed74 f7a2 cabf e72b 4a67 937b b43f
00000490: 40e0 db3c 9f68 b1bf d78a 6ba2 aed4 c03f
000004a0: 54dd 2c73 bce1 b1bf a0b9 a82a dc88 c23f
000004b0: 03e6 2dda 32bb ccbf 1507 28e3 b96f dfbf
000004c0: 02c1 a373 9fce 8d3f 0d4e 9abf 2256 b8bf
000004d0: 0739 9b55 3699 cdbf c5e5 ebd7 2c05 cd3f
000004e0: 5297 a9c7 b86d c3bf e5a7 57cc 3611 d03f
000004f0: 06fa 128f a520 c63f 7354 8d67 63ea c9bf
00000500: 9e19 07f5 f5d6 d73f 5e72 f537 f4f7 c53f
00000510: 3db9 5058 58cd c5bf 8406 094e ddbf b13f
00000520: e365 a8e1 60e0 bf3f 2c46 b433 17e3 dabf
00000530: e20c 17f9 0a73 debf 336a 82d5 806b 64bf
00000540: 1dce ce77 ecb9 e53f e6dd bafa 2e61 d1bf
00000550: ee46 0bac 0aca c23f 2918 370b 270d c9bf
00000560: e0e1 e423 8c68 acbf 1681 f899 a8d4 b4bf
00000570: 2cef e668 19a4 b3bf ba37 a2bd 3a25 d63f
00000580: 1e09 d595 8fcf c33f f57e da72 fa7f d1bf
00000590: 84ab 9748 8bc1 c93f e025 1301 964e 923f
000005a0: 901a 6f91 6c20 983f 2c4c 2e3e 26de b73f
000005b0: bdbb 0075 e5b2 acbf 1b2e 984e cec4 d33f
000005c0: 9be6 2076 8521 c7bf 47c6 888a e166 d0bf
000005d0: f412 14e2 3a3f c23f 4966 43f6 24c9 c93f
000005e0: e89a 245d 99b6 c23f 5da5 2050 51d4 b93f
000005f0: b6d9 4d87 b5dc d93f 44f1 5217 4683 a73f
00000600: efa7 1543 3263 d0bf 3447 7202 70bd 523f
00000610: 4b9e c67f 28bb d83f e0e7 61c7 1cba d5bf
00000620: 8ff5 5ba3 b79f cebf aeef 8697 a108 bc3f
00000630: aa00 8086 2111 da3f 47c2 dc7b bb1e c4bf
00000640: f2bc 660f 7910 d1bf b1ee 17ae 576a bb3f
00000650: 94c7 2930 4eff d6bf ade5 cb58 2554 c4bf
00000660: 311f f7e6 25b8 d5bf 184c c352 3f4b b6bf
00000670: ebd3 944b 3c67 90bf 9d62 af59 ebde aebf
00000680: c01f cac5 a7f2 a53f 1b3a 64ff ecf4 cc3f
00000690: b14b 1f00 4a59 cbbf 1718 ea99 88c8 c1bf
000006a0: e2e9 c216 e448 cb3f 6f07 2f06 94e7 a73f
000006b0: cf0a e6f1 3f6e ccbf ce44 a6c4 73bb ce3f
000006c0: 7533 1238 dc7d b53f 2be6 dec6 7a10 b2bf
000006d0: 2618 87c4 019f c1bf 58e1 c733 90ca d83f
000006e0: c1ee 8471 78d6 c63f 7412 47bf 28cb bcbf
000006f0: 5fbb dced 21c3 cebf 832a 32ab 455b a53f
00000700: 7259 1346 4020 b03f 274b 8d1e ce4f da3f
00000710: 4672 4e8e 568d 80bf 596e 5570 b38c c63f
00000720: bda1 1114 cebc c8bf c8ac 5c62 ba2e d93f
00000730: ebcd 3eff 2d6d a73f e0ac 07ea 3206 97bf
00000740: 7259 f489 ed74 be3f 87ce 668b 1847 c6bf
00000750: aaf4 99cd acc1 c53f 4565 e407 1923 bdbf
00000760: d4e9 b0fa 817b ac3f c42c e01b 7447 cdbf
00000770: ad13 abe9 7c45 c23f 4e82 9a42 8571 bb3f
00000780: cb64 27bc 8466 e03f 3cf4 a26f 2239 d23f
00000790: e10d f3c5 8e8f d53f fd10 978b da18 b0bf
000007a0: f641 0cfc 0c21 a9bf 9a7b 17df b2be c3bf
000007b0: 305e 9a89 e8f7 87bf c0d0 95d0 18d6 80bf
000007c0: 41cd d469 faa2 d0bf 56fc 7c7d 8fa6 d4bf
000007d0: 036b d185 cec6 dbbf 12ac 8450 fb64 cabf
000007e0: d3fc f192 fa62 cf3f 5626 2e67 02d1 d8bf
000007f0: f510 0ee7 d0f0 c7bf 0649 08bb 6ef5 d93f

bias f8 [30]
0.2889946626497453 1.1718871192800304 0.027411582901140957 0.8753669301538248 0.5426776343402879 0.9351850773421737 -0.25912998134195686 0.5915206708277563
2.2847581077295622 0.2758733638528329 0.7009897479723958 0.39628125907360423 0.5231956620922551 0.30450746345627155 0.851586463480348 -0.18840823908512902
0.6126554274593494 1.455408360859853 -1.2182589428825197 0.20430176193451624 -0.06476760048763244 -0.8020920898631266 -1.0972299902010656 0.351944685488967
1.492376056480118 -0.8602185110160624 -0.002274161532662123 -0.7181290759378226 0.21413285666774254 0.43254562749231
00000000: 3d26 3378 e37e d23f 0595 3eb5 0cc0 f23f
00000010: 7833 5e30 c811 9c3f c956 2082 0103 ec3f
00000020: ce63 787c 9d5d e13f 2c8a 5c41 09ed ed3f
00000030: 02b7 d1ea 9595 d0bf 4a9f 03c2 bced e23f
00000040: 28c1 3f42 2f47 0240 9e77 e5c0 e8a7 d13f
00000050: 57ed 4b0d 826e e63f 0c49 ef11 ac5c d93f
00000060: b80c 43d4 04be e03f beaf 3bdf 0c7d d33f
00000070: 1ca9 4b41 3240 eb3f 3373 95dc c21d c8bf
00000080: 2cf4 148e df9a e33f 127d 0347 5a49 f73f
00000090: dad6 db16 fd7d f3bf f90f 0365 8f26 ca3f
000000a0: 6a4d ef05 9c94 b0bf 1ff5 ca07 bdaa e9bf
000000b0: e4a9 c108 418e f1bf 8945 8b00 4386 d63f
000000c0: 1ea6 3eb7 c5e0 f73f 2b4a 87f8 e886 ebbf
000000d0: e84a 132d 43a1 62bf 71b5 eed3 e9fa e6bf
000000e0: 8989 3198 b468 cb3f 83dd 06db d3ae db3f

weight f8 [30, 30]
0.025005612141746576 0.18618179138989532 0.07374229953984657 -0.0241537756600432 -0.09712678758842883 -0.2537880169224269 -0.04273681141948115 0.009907126317545624
-0.30765293765093243 -0.036280347905239596 -0.14435651461210322 0.2465097848906048 -0.2517336954808058 -0.20294396276109308 -0.3084516971540004 0.17497256346746676
-0.266537241751827 -0.4172397159899464 0.3836606178933443 -0.24359391310146988 0.1990296709331605 0.2782293909178826 0.20046650093738844 0.020677592897223398
-0.02826126009834439 0.14476598169789257 -0.1522187284439239 -0.0718704972955438 0.34851643398149873 0.1375937714236319 0.2116703602771452 -0.08222297674224263
0.18506454188043556 -0.09928699360104527 0.14265561334277016 -0.2936595055696622 -0.38853289817251424 0.25603353292812997 0.4615390847051826 0.6137255848748717
-0.2271167149387894 0.43241518897285336 -0.20898304724413702 0.1635030446953624 0.02155818791366167 0.3100918470819934 0.09586796539865142 0.25103074443581097
0.23809150269517787 0.24309660318642057 -0.5149871186217696 0.09194580449430517 0.047050534984519714 0.08603890363687745 -0.040428897355498726 -0.03260426150594737
0.18341122386267686 0.3684026391725377 0.23189305047998365 -0.1977960269162692 0.23509206202355493 -0.1467674847270125 0.2169351819841711 -0.2904114852017895
-0.31034427815725446 0.19621665527207785 -0.17203170370379403 -0.08882467826841066 0.10138048444063666 0.0019963951819459364 0.12549862646030718 -0.11600725740789997
-0.3285109453142587 0.1925021324208735 -0.23885837485987285 0.19550130410842825 -0.003198017835098021 -0.19817701150901912 0.18667302874877445 -0.29573937125245797
0.15031023420588313 0.41224250297086656 0.25541747527895226 -0.24386313839920437 0.06393419774973923 0.24189981857054452 0.2422726887781947 0.18505082449468907
-0.054761959782079324 0.018476028715971093 -0.038148714779391475 0.26806054054157397 0.1385153359134553 0.08816239097957147 -0.09190856894821546 0.14542266817328636
-0.0035127252987983927 -0.18236027092319873 -0.1664100772368297 -0.3262036412765761 0.07466445167031134 0.06627752165880245 -0.08060838922614104 -0.06781402174936392
-0.11306750254729848 -0.32947250851779286 -0.13164305414754598 -0.19123527417970568 0.055664873478417656 -0.20886648241822206 0.11662668849850819 0.3066754942478237
-0.24915108992043428 -0.2201017701694388 0.09975256464717104 -0.3356067123123058 -0.18559009914745278 -0.09702992677245231 0.1555986517766738 0.3163379284065489
0.09059187770352171 -0.3574872044493169 -0.09027484440414543 -0.3162983424444141 0.20201203303089602 0.3103945917268251 0.26326093830914044 -0.14588359542805543
-0.16038391435188865 -0.24519933222966306 -0.017288025420454246 -0.11958477390305003 -0.032915937918425106 -0.08403077034164143 -0.28289531049039873 -0.14449247592127232
0.03828178518209525 -0.10393559687270437 0.15799169358493365 -0.06895112586809041 0.03740261004232587 0.12428589694774135 0.3522038109750015 -0.1912503046055557
-0.29306164446474564 0.12756913068773465 -0.21180468620861015 -0.034581829836264226 -0.26697473801677696 -0.42418455075383177 -0.1268482192344417 0.14529616761940337
0.05843753178756997 -0.28938696053119306 0.003686923174913357 0.2795014902165653 -0.26831520961457095 -0.0077962951648825884 0.18581464016291874 -0.2058175746526584
-0.307112248815781 0.052013044624292105 -0.28625618609115044 -0.07769083806723073 -0.06372755711788994 0.1806055014396251 -0.14630707742680757 -0.264939355234483
0.28546148042939185 -0.08628675002346346 0.08854746471917117 -0.2569836772483923 0.2537473457053041 -0.23380357042845643 -0.31241433086709913 0.1639307517669734
0.18759036257066275 0.3200583289628946 -0.28508581077477363 -0.181445460859843 -0.16713753757821817 0.21095778041544988 -0.20511213690226004 0.20356830038994886
-0.03488575933662247 0.12246490887804712 0.238556236355823 0.08866360952771528 -0.17163791398061184 -0.07127423390447662 -0.07509791495785682 -0.15724864174294267
-0.06299133715524202 0.12596547464280167 0.22352815902064735 -0.020423315409337714 -0.12061660258600751 -0.10399846500097516 -0.019261973715000054 -0.2365978428260321
0.11397945862703897 -0.26783692942982107 -0.12545415292377424 -0.2856489503133768 -0.15111288736232734 -0.3176651793296014 -0.3542109092748072 -0.27823908463028174
-0.02402471447159546 0.37336780829286365 -0.2012690394619943 0.1815242960910344 0.16964922915233296 -0.12860005383794182 0.07504934830684028 0.11485180671756381
-0.08970286334037508 -0.3081115562034723 -0.16722777132382188 -0.24128001587163095 0.027803684492202246 0.15755007601193605 0.0756377996701072 -0.0004096050265306735
-0.16067202190176358 -0.3434258698312611 0.1906106856179216 -0.3290218285572021 0.15233956011585936 0.0451085135347804 0.22629558731766478 0.08322264254635067
-0.31778482978334416 0.01618134522003562 -0.2957044459574952 -0.18356888051525555 0.19337581890893382 0.2667959003284767 0.12671752684485996 0.45302144529437843
0.03631754958522801 -0.015953349755035852 -0.25150259863498203 -0.1111873525179911 0.07221567254361076 -0.4341877837328369 -0.3714599865677806 0.11869164052389415
-0.13689477852372128 0.18054339010306739 -0.1557009770269574 -0.1427177782929602 0.014620562798419827 0.47843167848036755 -0.06738623853426823 0.07848706720799369
00000000: 4207 7639 129b 993f 80ad 9010 ced4 c73f
00000010: 8800 db7c c6e0 b23f 47a4 2372 c4bb 98bf
00000020: d601 4218 4ddd b8bf ec1a 3318 103e d0bf
00000030: 4f94 c36e 99e1 a5bf 74e5 3ffc 2f4a 843f
00000040: 47a9 6ef2 95b0 d3bf a023 7b77 5693 a2bf
00000050: 9d9c 9c36 467a c2bf e7e3 1ff4 a18d cf3f
00000060: cc0a 59a5 671c d0bf 7561 7d59 11fa c9bf
00000070: 2504 eb2f acbd d3bf 7e20 e53e 8065 c63f
00000080: 805e 1f38 f20e d1bf b939 b135 0eb4 dabf
00000090: 3f5d a743 e58d d83f e642 23d9 152e cfbf
000000a0: 71b8 cbe3 cd79 c93f c1cf b1a5 82ce d13f
000000b0: 0e1d bce4 e2a8 c93f 87a9 03c5 812c 953f
000000c0: 1eed 760f 85f0 9cbf c89e 7b12 b187 c23f
000000d0: 93af 403e e77b c3bf 757e 6edb 1a66 b2bf
000000e0: cf6b 84df 174e d63f 0feb 3236 ac9c c13f
000000f0: ce20 76ad 0318 cb3f 8e73 16a4 900c b5bf
00000100: e949 83e5 31b0 c73f 4545 6f56 df6a b9bf
00000110: 4af2 f204 8a42 c23f db32 253d 51cb d2bf
00000120: 088c c416 b9dd d8bf 17c3 a678 da62 d03f
00000130: 319c a83a db89 dd3f 8831 78d6 a3a3 e33f
00000140: 39be 8417 2912 cdbf f4a6 bbc1 b0ac db3f
00000150: b27e aadc f4bf cabf 3daa e1f2 aaed c43f
00000160: 7567 3380 5913 963f 194c 7e79 8bd8 d33f
00000170: 620b 1f90 cd8a b83f 221c 6941 e310 d03f
00000180: 2401 c448 c879 ce3f a828 3a1c ca1d cf3f
00000190: ceef 0a44 c67a e0bf 14b5 4e9f c289 b73f
000001a0: 2f1f 09fa 0117 a83f 75d8 4d45 a506 b63f
000001b0: 0311 e9af 18b3 a4bf 59ad c179 81b1 a0bf
000001c0: f1d1 1adc 047a c73f 9064 c0a9 e893 d73f
000001d0: 3098 fde5 abae cd3f 952a 7155 6151 c9bf
000001e0: 1c5e f826 7f17 ce3f b464 82e5 46c9 c2bf
000001f0: 3ea6 fc33 88c4 cb3f 2ec4 d40d 1a96 d2bf
00000200: a3e9 4b3f aedc d3bf 777b a99a a01d c93f
00000210: f337 a486 2205 c6bf 6794 3dd0 36bd b6bf
00000220: 3a0b 2049 12f4 b93f f2ef 8580 be5a 603f
00000230: 2483 2bc8 5610 c03f b863 aad0 a6b2 bdbf
00000240: a32d a0c5 5206 d5bf 7e36 94ed e8a3 c83f
00000250: ed0d 3346 e992 cebf 5c4b bccd 2f06 c93f
00000260: 4ccf 70c0 ba32 6abf 4808 a043 dd5d c9bf
00000270: 74b8 c2dc e6e4 c73f 6acf ead3 64ed d2bf
00000280: 1a8d 15a2 5d3d c33f cdfc 1161 2e62 da3f
00000290: 6999 c989 c258 d03f c4ef 0f46 e836 cfbf
000002a0: 535e 6ed8 fd5d b03f f79b d5c0 92f6 ce3f
000002b0: 2e17 829d ca02 cf3f 26b9 a6d3 beaf c73f
000002c0: 5165 a874 c209 acbf 8055 614c 61eb 923f
000002d0: 594d b974 3a88 a3bf 5958 be65 e727 d13f
000002e0: 4312 dfda deba c13f a192 fe79 cf91 b63f
000002f0: abd0 dae9 5187 b7bf 9e5e f3c1 359d c23f
00000300: b6c6 e608 b8c6 6cbf 2438 dad3 9457 c7bf
00000310: 8e7f bae7 ec4c c5bf dc9d c73c 85e0 d4bf
00000320: c906 19a2 351d b33f 6b07 fc4b 90f7 b03f
00000330: 8b6f 825b c0a2 b4bf 21ae 9f7d 425c b1bf
00000340: e158 aee9 fdf1 bcbf caf5 40dc 1316 d5bf
00000350: 1196 27fa add9 c0bf 49c2 38c0 657a c8bf
00000360: 7266 4036 1b80 ac3f d9c0 9b0b 23bc cabf
00000370: 861e f124 3fdb bd3f c6db 9140 92a0 d33f
00000380: 664a 7cd3 2ee4 cfbf 79b0 5578 4b2c ccbf
00000390: ad0a da52 6289 b93f 87c3 6c93 947a d5bf
000003a0: ce5c 2697 6ac1 c7bf ac90 380a f4d6 b8bf
000003b0: 5e5c 5718 a8ea c33f a164 3f70 e13e d43f
000003c0: 5f15 0580 0731 b73f 404a f602 12e1 d6bf
000003d0: ee06 5e90 401c b7bf 24fa 2467 3b3e d4bf
000003e0: dd11 a2c1 87db c93f 6b9b 1447 81dd d33f
000003f0: b087 1668 44d9 d03f 5575 b14b 50ac c2bf
00000400: da10 79c9 7587 c4bf 68b6 7614 b162 cfbf
00000410: 5a4e 2cbf f3b3 91bf 125e 0395 1b9d bebf
00000420: 36ec c099 5bda a0bf 019c 7962 0a83 b5bf
00000430: b2df afee f41a d2bf 93ca 4cbd ba7e c2bf
00000440: 3179 c78e ab99 a33f 9860 75f5 859b babf
00000450: 2654 7e62 1239 c43f 4236 a0ee c7a6 b1bf
00000460: d86a d555 6f26 a33f 7d9c be56 33d1 bf3f
00000470: 3582 6ada 818a d63f 54c1 d0d5 e37a c8bf
00000480: 3509 aca0 85c1 d2bf 5f38 246e 2f54 c03f
00000490: 2ce8 337c 6a1c cbbf af7c 5da8 b5b4 a1bf
000004a0: 72f9 2836 1d16 d1bf b831 3df5 d625 dbbf
000004b0: 5579 95fc 8f3c c0bf 9169 1498 1099 c23f
000004c0: f4ec c52f 86eb ad3f 46b3 d7e2 5085 d2bf
000004d0: e216 b1ce 0934 6e3f 5775 ea37 5ae3 d13f
000004e0: 0918 948e 132c d1bf a0cb 350c 02ef 7fbf
000004f0: 3d12 4f2d c6c8 c73f 5da0 09f4 3a58 cabf
00000500: c958 3722 baa7 d3bf dde1 402b 74a1 aa3f
00000510: f281 6277 0552 d2bf 1e95 b2f8 8be3 b3bf
00000520: 12e1 acfd 7250 b0bf 6997 14c1 141e c73f
00000530: 6759 5cb8 30ba c2bf 94f2 8932 c4f4 d0bf
00000540: 1d91 ad3a 0045 d23f 93cc 6d71 e316 b6bf
00000550: 57d0 1cf1 0bab b63f 7dcf 58aa 6b72 d0bf
00000560: d011 d081 653d d03f ffd0 5680 46ed cdbf
00000570: fa0e 78ad 98fe d3bf 95ec d2d0 aefb c43f
00000580: 6894 2404 f602 c83f 8f50 eded d57b d43f
00000590: f933 758e d83e d2bf 4749 33d8 9a39 c7bf
000005a0: ad8c ea48 c364 c5bf 384d dc1f aa00 cb3f
000005b0: 4402 0150 1d41 cabf 57ac 56ac 860e ca3f
000005c0: b8d2 e4d6 8bdc a1bf ecf0 893a dc59 bf3f
000005d0: 83da b3c0 0289 ce3f 5b50 4487 a8b2 b63f
000005e0: 2673 a62d 3bf8 c5bf 68cc aa37 073f b2bf
000005f0: 93e5 bdf0 9d39 b3bf 8a2c d036 b920 c4bf
00000600: d458 0345 3320 b0bf aa0a 02fd a21f c03f
00000610: 4348 5d1a 929c cc3f dc36 097f d9e9 94bf
00000620: ea26 76cb bae0 bebf 756d 03b6 a49f babf
00000630: a23b a62c 69b9 93bf 6bf8 9e8e d648 cebf
00000640: f90a 38ff c12d bd3f 20fa 2381 3d24 d1bf
00000650: 373d fab5 e10e c0bf 44e4 ee88 1248 d2bf
00000660: 89d7 9cc6 aa57 c3bf 7b1c 1355 a054 d4bf
00000670: a930 ce3b 64ab d6bf b32f 3d4e abce d1bf
00000680: f811 ce4b ef99 98bf 9ecf 7f17 42e5 d73f
00000690: 79e2 1713 2fc3 c9bf 11f9 9129 303c c73f
000006a0: d51c 80e1 10b7 c53f e4b7 bf70 f775 c0bf
000006b0: c761 9020 6f36 b33f 0a0b bd91 ed66 bd3f
000006c0: 3c8b 6750 c4f6 b6bf 1678 5a88 19b8 d3bf
000006d0: d6cd 6838 b867 c5bf 046b ac78 43e2 cebf
000006e0: 38c4 68ae 9178 9c3f e40e fad3 992a c43f
000006f0: b0ac ecb3 ff5c b33f f949 7731 08d8 3abf
00000700: 75a2 b99b e690 c4bf c0a3 e17f b0fa d5bf
00000710: 54a1 7f52 ee65 c83f fab0 5492 b10e d5bf
00000720: 8cd5 4ada dc7f c33f 405d ce8c 7618 a73f
00000730: f515 61f9 40f7 cc3f 4ef5 0540 144e b53f
00000740: a566 c52e 9656 d4bf 72f2 19b2 d791 903f
00000750: d9d4 2a57 d2ec d2bf 602c 3061 2f7f c7bf
00000760: 178a 06f1 89c0 c83f 1f88 a71c 2f13 d13f
00000770: 7178 d0a8 4738 c03f b943 fba8 4dfe dc3f
00000780: 4c94 7abf 3698 a23f aa8e d62d 1356 90bf
00000790: c2c2 ff5a 9e18 d0bf 0b29 cb3a c676 bcbf
000007a0: 335d d5ef b97c b23f e722 dd8e bbc9 dbbf
000007b0: a932 851b 00c6 d7bf a9d4 5b4a 9362 be3f
000007c0: 6e53 60a2 c485 c1bf e335 00ba 0b1c c73f
000007d0: 9c9c 2476 02ee c3bf c5bb 297f 9344 c2bf
000007e0: 3cef 8bb8 62f1 8d3f 6163 1ce7 9f9e de3f
000007f0: dc83 b47a 3940 b1bf b739 d17a ba17 b43f

bias f8 [30]
-0.947116878007319 1.7982836721999114 -0.09994900422681666 0.08876527759570427 -1.0957296484230443 -0.6809213922526586 -0.9646052337611456 -0.16725847024921808
-0.32489602992035066 -0.41355683625423434 -0.2733560072701327 0.15361502466951726 1.4811071033786014 -0.25661835895888807 -0.3471215261170209 -1.8183106083023584
0.2568464389795987 -0.5285593250059979 0.14896030432445137 0.09070329026628286 0.5471228931260211 -1.540547274692848 1.3136388178047702 -0.3212369772060169
0.6849990831607072 -0.5045981320615823 -0.27323405480509855 0.28871349070190744 -0.05544105410307136 1.2388413140549959
00000000: 6bfe 100e c84e eebf 7078 9019 c5c5 fc3f
00000010: 7a04 6c08 4296 b9bf c63d 4b3c 52b9 b63f
00000020: bbc0 d3cf 1b88 f1bf 11e7 dba8 1bca e5bf
00000030: ebbe 91cb 0bde eebf 4e85 d9bd b968 c5bf
00000040: d3eb c6b7 18cb d4bf 4cf2 af17 b777 dabf
00000050: a1fb d831 aa7e d1bf 9c9d 9039 a8a9 c33f
00000060: 7026 ae5c 9db2 f73f f205 d268 6f6c d0bf
00000070: f540 9a34 3d37 d6bf 510e 4add cc17 fdbf
00000080: 5ebb e00b 2c70 d03f eab0 dc3e f5e9 e0bf
00000090: 97e4 bc99 2111 c33f d751 55b1 5438 b73f
000000a0: 31d0 9bde 0782 e13f 9ff6 2be6 14a6 f8bf
000000b0: 36a4 1323 aa04 f53f 4968 d789 258f d4bf
000000c0: 19e3 7e32 83eb e53f 4d78 5afb aa25 e0bf
000000d0: cea5 62b0 aa7c d1bf e6a2 1e26 487a d23f
000000e0: 76f8 7414 c562 acbf 47cc 0c45 4bd2 f33f

weight f8 [30, 30]
-0.24940845462257347 0.16324074120247298 -0.05548158716162576 -0.4130423414166695 -0.0924323204885831 -0.142002742974059 -0.12544815531174455 0.15115884332770857
0.39527837183523884 0.3394923910902533 0.2700152359778335 -0.5500319654781098 0.08451040643356346 0.0006666332024566307 0.09940786169313455 0.21405553008990852
-0.09236217825030102 0.04620359828484651 -0.23253842709406586 0.11582432368337828 0.07722226981399781 -0.4288433068701353 0.4260650039907824 0.5820601239729478
0.139026007099575 -0.1535892719512649 -0.1261123128999929 0.13153816479476324 -0.233505912172177 0.13075879959699988 0.16537722840799288 -0.0400161662040155
-0.08877465562934451 -0.11209506112319004 0.08346978657224965 0.38006216166855694 -0.045061587766019706 -0.22714212255176863 0.22675942133726007 -0.0767253327002793
0.2944232040172861 -0.20626407400011518 -0.3936367002265798 -0.11845884807317446 0.3106913855447861 0.1945302818444749 0.2039177503965838 0.42188549133296227
0.05932067750620797 0.11869023473726228 -0.2785003302919349 0.08822648812850593 -0.5442769956249509 0.06063404989575495 -0.4337564310642199 0.32482801491977426
-0.24569546317320134 0.24567844972811267 0.08530587044751203 -0.3477040788054826 0.009136720209220114 -0.616835855964952 -0.07572537844537423 0.49128515071092593
0.04595549557113069 0.3535082652597467 0.5675592488491313 0.07778150714716252 -0.11916450065248767 -0.6743002547592636 -0.16510733835425082 0.66769544662628
-0.1677409486335647 -0.5392091711586452 0.07579132579961971 0.26608333013179 0.4642959980371975 -0.16487856069696935 0.02032457227011046 0.5703104945880189
-0.2801684245927873 0.7120549678225983 -0.19475726606924468 -0.3893226631147308 -0.12071071955466864 0.2619773859976144 -0.445929259679423 -0.34712856473816783
0.6782777090552102 -0.34101883527060955 0.2918732535627526 -0.4763000526019446 0.07968232989748122 -0.15531711569757925 0.3552653503789665 -0.2749180518027177
0.1523780743057777 -0.08176134996547267 0.34589742651027017 -0.05965722419304004 -0.1766842213518012 -0.08228986814317411 -0.08659470168437049 -0.14845416420433696
0.23292059576269983 0.30483254074833316 -0.08425650053755496 0.23361812677581284 -0.15757929987752134 0.4241886092434778 0.1916565899284744 0.11356225836866043
-0.3976378896147941 -0.05373686777761721 -0.415684135684769 0.011296153947471002 0.030642280765418955 -0.10927179591083674 -0.019090980299972908 -0.14491779628885978
-0.2620915167594205 0.3485941272416013 0.009285586068993063 -0.3595627149549305 -0.04182542706029459 -0.24910557607506847 -0.26927627682856276 0.3679367337031419
0.2167822208603512 0.149395507585341 -0.10740341203117922 0.10999336449996065 -0.17812587601926808 0.020501917153756707 0.14842763425482972 0.08255823828552465
-0.02489483493202572 -0.29918929902293684 0.23620830738966306 -0.3309965301896593 0.13105451062679432 -0.3012026427249278 0.18375905863741993 0.4151852756388524
-0.27048690789976065 -0.3179744775684876 -0.018386613524037067 0.176185166953586 -0.3409046551059135 0.23877127938849446 -0.020233544274216086 -0.3826919732222106
-0.03839158484986627 0.3347747908252954 0.0630606212454375 -0.2567590464763046 -0.1752858762101291 0.2049984894127655 0.05523853797386661 -0.1231942943430299
0.1315109812731627 0.128218175751518 -0.3096890274577063 -0.2868817372446505 -0.2598777665679985 0.23526642201810816 0.4186504604173692 0.20728091593295436
-0.08715446891950508 0.271310909274426 -0.28294622617201803 0.16573947982118722 0.027371168128813093 -0.13027936624953476 -0.12052423368338779 0.002936698110622327
-0.20269955318670416 0.1279765893803997 0.16744127773638587 -0.20559091240373387 -0.12652707798663465 -0.1423990447882995 0.15760626871858793 0.03312423416097734
0.09240907325604875 0.2085711360682969 -0.20559403404160098 0.16470732857083603 -0.23915119658551953 -0.14166193454977477 0.33995676167912436 -0.01276334516936092
-0.10962425407823978 0.06702915050029287 -0.059982857560098087 0.3713889879416036 -0.025315735456154235 -0.2218475404953031 -0.05400683341067344 -0.2647901466007588
0.09616953617937991 0.24470057382525673 -0.2794204630048913 0.2764546733515454 0.0958457830340593 0.15997473555807623 0.261545525484217 -0.06586430348731769
-0.06426124701170967 -0.1422623976628414 -0.23391952676674663 0.13272087939356159 0.11424422076590307 -0.4023686438744966 -0.24099977215249319 0.14348025836788558
-0.3205688015796367 -0.016457992958994062 0.2534613237665454 0.11938147549032782 -0.19439801873807833 -0.14139303569300918 0.25233630062048135 0.14499630753555112
-0.21783531140460916 -0.4329260653871824 -0.11306059619877294 -0.376375798011827 -0.1610473511184804 -0.15420238716134418 0.15211621070134004 0.03741660091326815
-0.07054927359614742 -0.1454432643322174 0.21977471723511058 -0.21888414551425656 0.2399285748108158 0.5178100898201391 -0.036295669782304404 0.30563760628921866
-0.014149140692315881 -0.4382665259009313 -0.09040261405551532 0.05377028771929 -0.2600597825594382 0.012476902052525099 0.4191083539965041 0.18757094316807407
-0.02827295440101346 -0.4460421986362053 0.0669740563441679 0.47342519559916624 -0.3029068569017822 -0.2379088318185026 -0.2381827560117325 0.3269144711972719
00000000: c994 f9c1 9dec cfbf 2772 6b96 12e5 c43f
00000010: af59 c724 1568 acbf f8dc 0f25 496f dabf
00000020: d283 9701 a5a9 b7bf 4308 8258 252d c2bf
00000030: 0728 3466 af0e c0bf 3cfe 4b48 2c59 c33f
00000040: 784d f6a7 3d4c d93f 7e4d 3e4b 3eba d53f
00000050: be93 fcfb ed47 d13f 6a75 efa2 dc99 e1bf
00000060: 59c7 cd57 79a2 b53f dc03 c8e6 1fd8 453f
00000070: 29f3 ef2a cb72 b93f 10ce a1ee 2b66 cb3f
00000080: f0ec f836 0ca5 b7bf 5b8f 2e7f ffa7 a73f
00000090: 6255 b7b5 d1c3 cdbf 622a 4db2 a9a6 bd3f
000000a0: 07bf 5fb3 d6c4 b33f 0268 8732 2b72 dbbf
000000b0: c212 8726 a644 db3f e19f 988d 3ca0 e23f
000000c0: 2fa0 e4ac 9acb c13f 7308 0632 d0a8 c3bf
000000d0: 3ba2 c3c1 7224 c0bf 3514 fc19 3ed6 c03f
000000e0: 01e0 1990 85e3 cdbf 7077 f74f b4bc c03f
000000f0: 51fa c1bd 142b c53f 01aa 50ba ff7c a4bf
00000100: 4146 a492 efb9 b6bf 7a35 910d 43b2 bcbf
00000110: 662b 88a3 465e b53f a910 b43e f052 d83f
00000120: 2893 85fb 4f12 a7bf 06b2 f339 fe12 cdbf
00000130: 8e09 5ae5 7306 cd3f 73f0 b87a 45a4 b3bf
00000140: 9504 1c6c d4d7 d23f b9c9 1576 dc66 cabf
00000150: 02a0 7efc 5731 d9bf eb67 65ae 5153 bebf
00000160: 0715 041f 5ee2 d33f 7645 4d47 5ee6 c83f
00000170: e57b 8312 fa19 ca3f 4ea5 fb00 2c00 db3f
00000180: 7240 bba3 475f ae3f 3215 8db4 7b62 be3f
00000190: 18dc a10c f3d2 d1bf 2d22 27d9 0296 b63f
000001a0: dc93 0597 b76a e1bf c210 a71a 6d0b af3f
000001b0: a46e 7655 aac2 dbbf 05ec 3971 fbc9 d43f
000001c0: 585f 8ded f272 cfbf 4b05 7535 6472 cf3f
000001d0: b097 ba03 9bd6 b53f 54f1 c99b c840 d6bf
000001e0: 1830 eed3 45b6 823f 0ed4 8b8c 1ebd e3bf
000001f0: 536d e607 bd62 b3bf 4016 d445 3771 df3f
00000200: 5555 198d 7a87 a73f e700 8a21 e19f d63f
00000210: d52d 8b03 7229 e23f 4b3f 6e25 7de9 b33f
00000220: eb87 2591 9081 bebf 2404 bc20 de93 e5bf
00000230: 93d2 47bd 3c22 c5bf e755 5ed7 c25d e53f
00000240: fc63 4a10 8978 c5bf 798c 7a97 3341 e1bf
00000250: b33d a171 0f67 b33f d850 3b60 8207 d13f
00000260: bdf0 ce8f 06b7 dd3f f7a4 009d bd1a c5bf
00000270: 8c3d d2f4 f6cf 943f aa46 5acb fb3f e23f
00000280: ffdc 3f8b 47ee d1bf 9813 f87f 27c9 e63f
00000290: d77f 365c ceed c8bf 5bd7 6a9a a9ea d8bf
000002a0: e290 c3d0 e5e6 bebf 43af 49cc 3cc4 d03f
000002b0: 6ac4 a9e0 1a8a dcbf cfb3 43ba 5a37 d6bf
000002c0: 0def 3f74 73b4 e53f 77aa 33aa 40d3 d5bf
000002d0: cc43 a827 0dae d23f 258a 4037 b37b debf
000002e0: 5690 faa8 0f66 b43f 310f 3766 6ee1 c3bf
000002f0: a9e5 51e1 aabc d63f 39a7 64e2 4198 d1bf
00000300: b2a8 e2ee 1f81 c33f 37b3 2dd4 4fee b4bf
00000310: 8975 a8f5 2e23 d63f a82c c245 648b aebf
00000320: 516d 36ac 969d c6bf e392 77e4 f210 b5bf
00000330: 63c2 bd03 122b b6bf d337 1bca 8b00 c3bf
00000340: 07cd ae92 57d0 cd3f cb52 5158 6082 d33f
00000350: a8c1 4882 d591 b5bf 80a0 20e3 32e7 cd3f
00000360: 6611 c0f9 8e2b c4bf 5e55 02fb e725 db3f
00000370: 8a20 e700 3488 c83f 32d8 c089 6a12 bd3f
00000380: a5f1 e230 e672 d9bf cf80 6313 6683 abbf
00000390: e1da 0ea2 919a dabf 1523 331e 7022 873f
000003a0: bb9e 0ca7 b060 9f3f 54ee cf85 3cf9 bbbf
000003b0: ded9 2500 968c 93bf 33a3 d595 aa8c c2bf
000003c0: 999b 427f 1bc6 d0bf 4c24 05be 5d4f d63f
000003d0: ea94 ec43 5204 833f d3e9 6555 1303 d7bf
000003e0: 52fb ba72 246a a5bf 3930 3f07 b1e2 cfbf
000003f0: f74e a490 d23b d1bf ad21 9083 468c d73f
00000400: d287 7912 85bf cb3f 3fca 9f59 641f c33f
00000410: 2919 273e ca7e bbbf 1fe9 4d6f 8628 bc3f
00000420: 577c 0926 d4cc c6bf df05 b95e 74fe 943f
00000430: fb3b 793d adff c23f d7a2 7365 8922 b53f
00000440: 434e 7d17 087e 99bf a977 a7df ea25 d3bf
00000450: 711c a4e5 123c ce3f 9342 1012 0c2f d5bf
00000460: ad53 91ea 64c6 c03f c63a fe72 e746 d3bf
00000470: ec81 98b5 6a85 c73f 5193 2943 6592 da3f
00000480: 9f3d db51 a84f d1bf 44a3 879f b159 d4bf
00000490: aa68 14bf f0d3 92bf d48f 0d4d 3c8d c63f
000004a0: cefa 2ec2 61d1 d5bf 024d 19aa 0e90 ce3f
000004b0: 007c c22b 1ab8 94bf 2e97 5b79 067e d8bf
000004c0: 905a bed2 0fa8 a3bf 30ac 873e f36c d53f
000004d0: 0523 eaa9 bd24 b03f 0558 e47e bd6e d0bf
000004e0: 82f8 e280 c46f c6bf eaec e0f7 633d ca3f
000004f0: 9539 27c4 3948 ac3f 0bd2 4149 a989 bfbf
00000500: 7f09 d111 5ad5 c03f aa82 cd03 7469 c03f
00000510: e618 37ed f1d1 d3bf a244 d237 455c d2bf
00000520: 2b7e 175b d6a1 d0bf 2e15 35ca 351d ce3f
00000530: 1aab fc4c 2bcb da3f e32b 8259 2e88 ca3f
00000540: 49a3 b559 c14f b6bf 7e6d 986e 285d d13f
00000550: 32de fb7c ca1b d2bf 7578 be86 f336 c53f
00000560: 76c4 ddff 2f07 9c3f 6953 b188 feac c0bf
00000570: 3dad 0b1a adda bebf b4b4 fcca b30e 683f
00000580: f7e3 ec17 0ff2 c9bf 996e 0571 8961 c03f
00000590: d969 f03d b76e c53f c17d 9092 cd50 cabf
000005a0: ac69 010f 0a32 c0bf 2277 2cc4 213a c2bf
000005b0: f73c e534 712c c43f d356 dadc a8f5 a03f
000005c0: a007 7dfb 1ea8 b73f 77c5 2680 75b2 ca3f
000005d0: ba0e 3bc2 e750 cabf 38c7 cf36 2115 c53f
000005e0: 5029 11a4 819c cebf 2a5c fd6f fa21 c2bf
000005f0: 64d1 5d01 dac1 d53f 6e3f b830 ab23 8abf
00000600: 944b 1dca 5510 bcbf fe04 4789 d228 b13f
00000610: 691e 15b7 12b6 aebf 3e70 5351 d6c4 d73f
00000620: 91f8 6e3f 5eec 99bf e10b 900d 8065 ccbf
00000630: 2bcb 849e c8a6 abbf f102 fd5e 52f2 d0bf
00000640: 8d0d c314 919e b83f 262a f230 5952 cf3f
00000650: a01b 9c5d 06e2 d1bf 90c2 37f1 6eb1 d13f
00000660: 6e3e 9767 5989 b83f 6e3f b458 0d7a c43f
00000670: 91ab 9771 29bd d03f 53ac 73a5 7bdc b0bf
00000680: b1c2 50d2 6c73 b0bf 2fcb b47c a735 c2bf
00000690: d7f2 ad36 13f1 cdbf 44f0 3e6e fffc c03f
000006a0: 9c51 f2f7 1b3f bd3f 0b1e 9869 68c0 d9bf
000006b0: 3684 de9d 14d9 cebf c0e5 a7a4 8f5d c23f
000006c0: c9c1 b901 3384 d4bf fa13 1136 5dda 90bf
000006d0: 1a34 18d8 b538 d03f c6ab facc c88f be3f
000006e0: 2291 71c6 08e2 c8bf 5b81 17c0 2a19 c2bf
000006f0: c58c b027 4726 d03f 2ff6 732f 3d8f c23f
00000700: 6ec9 3209 07e2 cbbf 4721 1b87 0fb5 dbbf
00000710: 7fd6 230b 8af1 bcbf 65de dd83 8a16 d8bf
00000720: 8ea5 1419 339d c4bf 755b e960 e7bc c3bf
00000730: 77ac 1343 8b78 c33f 20fc 7fca 4428 a33f
00000740: 4b1d da66 840f b2bf 577c dd87 e29d c2bf
00000750: e197 81f3 9321 cc3f 9a5e 4c4b 6504 ccbf
00000760: a21b 18c3 fab5 ce3f 4b1f 2a77 e691 e03f
00000770: 961f 6795 5895 a2bf 9e27 dc08 918f d33f
00000780: 43eb 5184 39fa 8cbf 3044 eb0a 8f0c dcbf
00000790: 9962 d72e a024 b7bf da70 8076 c787 ab3f
000007a0: 0840 46c9 d1a4 d0bf 1bfd 2a72 7d8d 893f
000007b0: d74d 79d8 abd2 da3f b71a 4b1d 5302 c83f
000007c0: d0fa 0dda 95f3 9cbf ecd1 f193 f48b dcbf
000007d0: d3bc ad35 3625 b13f 45da 0c31 994c de3f
000007e0: ca25 0871 d362 d3bf 3286 0bee cb73 cebf
000007f0: 2251 c5c5 c57c cebf 2269 98ac 2aec d43f

bias f8 [30]
1.0044987058227632 -1.052989053036459 -1.2169767580423192 -1.0340523103416537 0.8350649482824645 -0.4218422069112622 -0.0011915592121612593 0.6106328926954552
-1.0287506095110917 0.5808008205506512 0.3389858760969886 -0.5192003160550288 -0.1194718000998431 0.9896364171856981 -0.29959779143951165 -0.7499288738268998
0.9944866777474487 0.46659145366221744 1.0812724273073602 0.8564215409049049 0.8997247262868674 0.44933054412347434 -0.1924507314885043 -1.180360201797071
0.5904688461279648 0.9522216498265321 -0.8835737274267303 0.3016261095622518 0.7994369946466602 -0.6497216630792807
00000000: 2621 263c 6d12 f03f d066 9d0c 0bd9 f0bf
00000010: b78a fc9e bc78 f3bf 9054 746f 7a8b f0bf
00000020: 7b17 5d20 dab8 ea3f d067 b074 76ff dabf
00000030: 511d 3df6 c285 53bf b8a4 fffd 4d8a e33f
00000040: 7b71 f932 c375 f0bf 0e29 389a eb95 e23f
00000050: 4c1e e9d0 f1b1 d53f 4fef 30fb 499d e0bf
00000060: 7c1b 3932 b495 bebf 2dc8 d7fd 19ab ef3f
00000070: 21f0 0b37 9c2c d3bf 6334 6dd6 6aff e7bf
00000080: 9974 a7b9 d5d2 ef3f f2a0 8466 a2dc dd3f
00000090: 5ba0 1551 e44c f13f 07d9 b825 ce67 eb3f
000000a0: abbf 5982 8bca ec3f 55ab 06e6 d4c1 dc3f
000000b0: bbcd eabe 39a2 c8bf 7c7e 0361 c1e2 f2bf
000000c0: 9aa5 edeb 1ee5 e23f 328a 9189 9978 ee3f
000000d0: 4ee2 dc68 3c46 ecbf 2622 0c99 d74d d33f
000000e0: b009 67e4 fc94 e93f 27b4 cd15 85ca e4bf

weight f8 [1, 30]
0.9445818933015725 -0.8605956863609545 -2.275308088987996 -0.9800860803426947 1.2536227446539576 -0.28737055635807557 -0.7388061996502139 0.6070763447099207
-1.3767115580165004 0.08553677488248329 1.5019737847674168 -0.44091177515653285 -1.1106531726735032 0.769553270411619 -1.094935478465466 -0.8150735397038288
1.386996102997445 0.03691987279404046 0.9368918812568627 0.8350591545966658 1.225394282045323 -0.2846649246267349 0.22787400628797486 -0.5599458195050192
0.8331253612626291 1.173225087599319 -0.9511895565084967 0.7807933901186757 0.06638991420270006 -0.9873851113672036
00000000: eff7 83ce 033a ee3f 96f7 fff6 ff89 ebbf
00000010: bb38 34ba d433 02c0 44c6 ca7b dd5c efbf
00000020: d6f7 1cb9 d60e f43f 650a 5979 4764 d2bf
00000030: 078d 32e6 4ca4 e7bf e389 d65e 2b6d e33f
00000040: 164c dbb2 0207 f6bf 9cbf b9f2 bce5 b53f
00000050: 0868 d0a9 1508 f83f c5fd ad05 e637 dcbf
00000060: 284d dd42 3cc5 f1bf f453 1e2e 2ea0 e83f
00000070: 20d4 7310 db84 f1bf e59c 9b1a 1515 eabf
00000080: 07db 60d3 2231 f63f d71d 725c 29e7 a23f
00000090: 445b bcae 04fb ed3f 93fa e6f9 cdb8 ea3f
000000a0: e570 e108 379b f33f b7c4 653b f337 d2bf
000000b0: cdc3 4eb6 f92a cd3f 8fca c97e 13eb e1bf
000000c0: edea 8284 f6a8 ea3f 7b5f 61ab 87c5 f23f
000000d0: 0a06 b014 2570 eebf 0cc4 6f6b 42fc e83f
000000e0: 73eb 48ee edfe b03f 8424 3ca9 a898 efbf

bias f8 [1]
3.179962679204347
00000000: 3777 ed45 9070 0940
