DAL_BFGS/BFGSNN/steady_NS/results/AONN/AONN_01mu_t1/y.pt (torch, 19603 bytes, 8 tensors)

weight f8 [30, 2]
0	0x3fc922a79296ecf5	0.19637007386868502
1	0xbfc5f953bf4a2674	-0.17167136040034203
2	0x3fd45740990493a1	0.31782545989181626
3	0xbfc65fea6a69b38e	-0.17480211444799604
4	0x3fdbb077f936a544	0.4326457914090336
5	0x3fc5132d54cef7cf	0.16464773789442552
6	0x3fd5fb53bbf6eb2d	0.3434647880164217
7	0xbfd3be36d19386fe	-0.3084847494738908
8	0x3fe0a05eaba53dd4	0.5195763924074819
9	0x3fca8a6aacc2595b	0.20734914241320265
10	0xbfd77c0dffa2903f	-0.3669466968951873
11	0x3f70fcd812153772	0.00414738085357934
12	0x3fdbc00efd48c7ae	0.4335973237494909
13	0x3fd89537cbc8f0b1	0.3841075410925994
14	0xbfd00a0e831a0e62	-0.25061381152065654
15	0x3fd20fb01f5c1653	0.282207518219683
16	0xbfd428d13c97b587	-0.31499129216430116
17	0xbfde6ef66d676633	-0.4755226200482838
18	0x3fb478b059dc58da	0.07996656602731225
19	0x3fd90f296c8d1cce	0.3915504036016956
20	0xbfcc75c160162c02	-0.22234360877732234
21	0xbfd50914d27e4669	-0.3286792808149586
22	0x3f979d702943dfbe	0.023061516302703693
23	0xbfd703e14764af4c	-0.35961181613923965
24	0xbf861c1ef45f90b0	-0.010795823891335793
25	0x3fd64e64ea7d9af1	0.3485348024318418
26	0xbfad4325a08a83e3	-0.057152915808963
27	0x3fb6d17620e691ca	0.08913362792242832
28	0x3fc66c401d23e974	0.175178541401532
29	0xbfc53fd63281f3ba	-0.16601064172928465
30	0xbf67fd200bbaf35e	-0.002928316678519157
31	0xbfd3059cd4b0adf3	-0.2972175671627319
32	0x3fb6c6b0fa229d13	0.08896928889099724
33	0x3fb7bfc2115422c1	0.0927697460466659
34	0x3fd91a374576c54e	0.3922250917776936
35	0x3fcf30cec054f835	0.24367699042517335
36	0xbfd5544597377cab	-0.33326854483852725
37	0x3fdde6aeabdc1088	0.4672047308270142
38	0x3fc04ac0e2a6aa5e	0.12728129450745745
39	0xbfc399c29a38f356	-0.1531298878707285
40	0x3fc39c52c42b7d5f	0.15320810869796284
41	0xbfd88a8e90f48823	-0.3834568420007846
42	0xbfdb3992ef6d546d	-0.4253890360026336
43	0xbfc2a5d38a847130	-0.1456856180528887
44	0xbfd6cc923850c373	-0.3562360334354288
45	0x3fd596781a10d4da	0.3373089079426116
46	0x3fd8393efb8f3217	0.3784940201410633
47	0xbfa615f3f381adf1	-0.043136237597391054
48	0x3fd8ea442e04c674	0.38929848188408944
49	0x3fcab3efaffb87e6	0.20861621945283487
50	0xbfc65d0c920a8681	-0.17471463328279316
51	0x3fd119f23422b1f6	0.2672086247573867
52	0x3fcf7633e7bf6865	0.2457947618084432
53	0xbf79ede90870be34	-0.006330404553451841
54	0xbfd3f7c509fa188f	-0.3119976613455799
55	0x3fa616f7ed001681	0.04314398544378851
56	0x3fc4060389936053	0.15643352716029088
57	0x3fd34f26375e2c8c	0.3017058888151005
58	0xbfd23fdc62f58975	-0.28514775909402285
59	0x3fce15dc7a4f6b68	0.23504215213946655

bias f8 [30]
0	0x3fc1646c334cc235	0.13587715630412026
1	0xbfa4c06ea04a8873	-0.040530640665807825
2	0xbfcb915c2a7e9238	-0.21537353587076935
3	0xbfc2fee7e6263611	-0.14840410936123807
4	0xbfce4039fbb5f7d2	-0.23633503714148546
5	0x3fa94adc6d8a11fe	0.04939926945829497
6	0xbfd8ce7bf3065ef9	-0.38760279400729264
7	0x3fc1ac1a4ace0dd1	0.13806465771277357
8	0x3fbbf28ca00d839d	0.10916975886858755
9	0x3fa5a3431fa65de7	0.04226121674872357
10	0x3fd1574b4e9a8437	0.27095301319247106
11	0x3fd27f3de39a1448	0.2890162203478366
12	0xbfa840d8f5ff77e5	-0.04736974718956314
13	0xbfc14efe3012d883	-0.1352231726393179
14	0xbf84aef15d573f3d	-0.010099301968608304
15	0x3fd638d99d5b661c	0.3472198521318164
16	0xbf8dfa72d2c78793	-0.014637848908879458
17	0xbfd53e3262b95aaf	-0.33192119256038216
18	0x3faf66b5dc1fa47e	0.06133049308829984
19	0x3fab31cbd2cd7eef	0.05311428974414222
20	0x3fc2b8f9ddbc7f3c	0.1462700207421167
21	0x3fc114b1acb66a13	0.13344403203230168
22	0x3fcc1b0b7ecdc81e	0.219575344959197
23	0xbfc2ce10fcd7acfa	-0.146913646181339
24	0xbfd48144b0068d60	-0.32038991155623897
25	0xbfd37532075a6e65	-0.30402804105845
26	0x3fbf5c4275e22023	0.12250151994715046
27	0x3fb783134a552f3d	0.09184380116238074
28	0xbfcf3a72c7fa288e	-0.24397120251189047
29	0x3f7513658cee95f4	0.005145451242162025

weight f8 [30, 30]
0	0x3fc81bfebf491766	0.18835434284317926
1	0xbf861e75764df620	-0.010800283120029397
2	0xbfd8587604c2ceb7	-0.38039923157632977
3	0xbfc7775c1f234318	-0.18333007355115494
4	0x3fc0166785b5383b	0.12568372753816157
5	0x3fd6854d58ac6dd6	0.3518861165955206
6	0xbfd475395108c850	-0.3196547786093378
7	0x3fc00d941a0710a0	0.12541438361052304
8	0xbfb561a4d909a2cc	-0.08352117823381916
9	0xbfd295792e975efb	-0.2903731303208443
10	0xbfb378742242f818	-0.07605672680344389
11	0x3fbe36aaef5c2a5d	0.11802166312933467
12	0x3fb345a392157cbd	0.07528135601522741
13	0x3fc6672975ca2d48	0.1750232529778748
14	0x3fc91b8c5e914315	0.19615320794630323
15	0xbfa5b51f8e66a845	-0.042397485859809105
16	0xbfcfbe7293c11e4d	-0.24799949850624828
17	0x3fbf887f7a4bb3fc	0.12317654357657654
18	0x3fcab210ec087f93	0.208559146166405
19	0xbf894054b39879ca	-0.012329732638190278
20	0xbfbd1890732cdd93	-0.11365607082267663
21	0x3fc1d9a2a786149c	0.13945420436735823
22	0x3fd6a1d0ad4ee383	0.353626412626504
23	0x3fc10d46f93de663	0.13321768922814944
24	0xbfb069d755318565	-0.06411500768583307
25	0xbfc397b6d78a05be	-0.15306745075581135
26	0xbfd6e677523a9d7d	-0.357816534330105
27	0xbfb28ea53d55ff4b	-0.07248909709414623
28	0x3fd085f44579d37d	0.2581759146190093
29	0x3fa294ed52a1762f	0.03629247316051153
30	0xbfb08858b146e2ab	-0.06458048179673408
31	0x3fcd4faa1205e9e3	0.22899366264375862
32	0x3fd5d8a31240b919	0.34134747297766094
33	0xbfb45a756238805e	-0.07950528762785455
34	0x3fb051d589514122	0.06374868967509831
35	0xbfa6d4e3f3da6504	-0.04459297515604457
36	0x3f90a9fdaca53f42	0.016273463880963186
37	0xbfa72ef97bbf25c1	-0.04528026233272043
38	0xbfa7fb3bdf42f83d	-0.046838637355435676
39	0x3fd56c677888672e	0.3347414662435878
40	0xbfd121575b90e95d	-0.26765998785017137
41	0x3fc7ac617b27aa1a	0.184948144087074
42	0xbfd15ea8469827b4	-0.2714024247549063
43	0xbfb78b535700aa87	-0.09196968912207569
44	0x3fcc5f3fd9156e43	0.22165678119459828
45	0x3fd04918168a1d9e	0.25446130944370704
46	0xbfc1537e220ebef1	-0.13536049521416474
47	0x3fbc540423fbc50a	0.11065698507788482
48	0xbfbdc92c515dfd7d	-0.11635090815069833
49	0x3fcd03ab8c56d90c	0.2266745028734437
50	0x3fc0650cd677c929	0.12808380577150416
51	0xbfd35e900fd15b10	-0.3026466516943609
52	0x3fc8712af6f7019e	0.19095360812026468
53	0x3fd1497d7ef30caf	0.2701104869594912
54	0x3fd182ff94a4f8e1	0.27362050548607725
55	0x3fbc91a4ce15118e	0.11159734755808001
56	0x3fcda2e2056602b5	0.23153329146955107
57	0x3fb6a4acbe36a291	0.08845023769266393
58	0x3fb6948bdd219345	0.08820413731298256
59	0x3fd111468959e961	0.26667941487507646
60	0x3fd00c3170984528	0.2507442092474599
61	0xbfc841c675dbc39f	-0.18950730089957532
62	0xbfc03900a6dabbb3	-0.12673957965077207
63	0xbfd3b4c23bd6ac1e	-0.307907637058351
64	0x3fc0af1f48bf5b49	0.13034430553553936
65	0x3fd3e86199eb369d	0.3110584262002279
66	0xbfd0133492146c54	-0.2511722017822582
67	0xbf991db452e465e5	-0.02452737575467791
68	0xbfd524802748277f	-0.33035281978720116
69	0x3fcd826b8cd8ba2d	0.23054260613703673
70	0x3fc1807c70d2ef3a	0.13673358448965606
71	0xbfcf81ffba53d37c	-0.2461547527124387
72	0xbfced8ae82589d19	-0.2409875999885365
73	0xbfa4f0bf3af21da9	-0.04089925379326626
74	0xbfb9d8d9999b7bc2	-0.1009651184099161
75	0x3f85967394796990	0.010540869682860415
76	0xbf9d45732357a637	-0.028585242302062688
77	0x3fcd83924a8d9afb	0.23057774200716338
78	0x3fd5e353addf5821	0.3419999311421425
79	0x3fc0625551f2b4d4	0.12800089360590639
80	0xbfb4961fbef36b49	-0.0804157105625737
81	0xbfc79ef1b67ff86c	-0.18453809176566283
82	0x3fc82382967cd81e	0.1885836825183
83	0x3fb7343592e10497	0.09064040027534968
84	0xbf8653891fbf6f70	-0.010901519090047634
85	0xbfb81ca5aeb8ee2f	-0.09418712154086316
86	0xbfc17fbc2a4eb9bd	-0.13671066346928554
87	0x3fb4b351426233e5	0.08086116667455163
88	0xbfb796f0d14ada51	-0.09214692220380384
89	0x3fc7dc7968d5b7c5	0.18641584032906003
90	0xbfd160334a55a67b	-0.27149660357699873
91	0xbfc30d028189f1c4	-0.14883452725542956
92	0xbfd5586144da2b1e	-0.33351928447580004
93	0x3f90a3daf37f69a4	0.01625005828086902
94	0xbfddce1ed22d9fbb	-0.46570559048859267
95	0x3fd12e3a5b0d1264	0.26844653026299725
96	0xbfd798c09f0a4eb6	-0.3686982682349752
97	0xbfb9cd505b450f43	-0.10078909137979246
98	0x3fdb690dc774bf88	0.42828697660569803
99	0xbfd128588f855092	-0.26808752074908526
100	0x3fcb8f1619a5a907	0.21530414821911156
101	0x3fb6a15d7dc528a8	0.08839973755417196
102	0xbfd6aba25461bd6c	-0.3542257141152365
103	0x3fb39055643ff502	0.07642110536103888
104	0xbfd00316632d9e9f	-0.2501884430443883
105	0x3fc262320fafcb9a	0.14362169042541667
106	0xbfb6235ac988d71d	-0.08647696895863217
107	0xbfde98305c1d715d	-0.4780388736305861
108	0xbfd40c23257f6b3c	-0.313240801447751
109	0x3fceb1365e167da5	0.23978309244283227
110	0x3fd930bec8afaafb	0.3936001739336203
111	0x3fc53f77d5a09b5e	0.165999392805328
112	0xbfcb18bc18287968	-0.21169234447092866
113	0xbfc8f5373df46aa0	-0.19498339200147985
114	0xbfd8413b0896d2ab	-0.3789813598516882
115	0x3fcf2b49b09a871a	0.2435085403749831
116	0x3f6504fcbb68efaa	0.0025658546612969584
117	0x3fd85bb06860e8e1	0.380596258098775
118	0xbfc2a0c86326b520	-0.14553170052878617
119	0x3fb11aa167e99a9e	0.06681259905745171
120	0xbfd05536a82b7e7d	-0.2552010195049446
121	0x3f9950f20f8cda6d	0.02472284526740014
122	0x3fca3cb8ff87a259	0.20497810818712273
123	0xbfc0c4bb00ae2ad8	-0.13100373776645458
124	0xbfc6624f6584e9a7	-0.17487518746368133
125	0x3fd3f628a531617b	0.3118993390285351
126	0x3fd4b2b8a5ba50ee	0.32340828117709364
127	0x3fc68feca2499126	0.1762672226351551
128	0xbfa8d50bdbc51f28	-0.04850041444529857
129	0xbf961708280ac3ed	-0.021572234577153116
130	0x3fafd945cddb4e10	0.06220453393839531
131	0xbfd3f561bd541dae	-0.31185191620940145
132	0x3fd0819060383748	0.2579079570431202
133	0x3fc254fea2925ad8	0.14321883142539238
134	0x3fba1aea99b50aa9	0.10197321179024733
135	0x3fb72a47ba22f4a4	0.09048889440869573
136	0xbfd2823b91cba5e6	-0.28919877279130757
137	0xbf6c2deeca59f4ff	-0.003439871203964828
138	0xbfcc2d040ec72698	-0.22012377473429434
139	0xbfb5e607fa5c2db3	-0.08554124700838521
140	0x3fbf88d199e0f4d3	0.12318143851094314
141	0x3fc2fb6a554fc259	0.1482975880203579
142	0x3fcf328419f55557	0.24372912662026167
143	0x3fc229c245bf19b1	0.1418993797835362
144	0xbf7df8a6d748f29a	-0.007317210886466663
145	0xbfc83524f760e652	-0.1891218383696463
146	0x3fb9e149f429e018	0.10109388552689358
147	0x3fce5fab01cbbb0f	0.23729455554663345
148	0x3fb5bbdbad5b29f9	0.0848977373345078
149	0x3fcab4cf74a99bf0	0.20864289471066355
150	0xbfbc28bc36db1fe4	-0.10999657000786517
151	0x3fc719e255484bd4	0.18047742046527893
152	0xbfd67795588e7ee2	-0.3510487904368188
153	0xbfd275f7a009a5a8	-0.28845015171699595
154	0x3fc22afc68ce360e	0.14193682782608658
155	0x3fa1fac96f26da26	0.03511647683938106
156	0xbf8dfb5a5a255193	-0.014639573932677041
157	0x3fd0ae6625a461a7	0.26064447093951987
158	0xbfafa42b22669b56	-0.061799381207768775
159	0xbfb3c6b5243996ea	-0.07725078710935987
160	0x3fc117a5686692c5	0.13353412244500454
161	0xbfc35153b99f8019	-0.15091940463662537
162	0x3fbbfa4c1dc39606	0.10928798414860105
163	0x3fcb876c43fcd16e	0.21507027930932615
164	0x3fb99b9c2edf7972	0.10003067154273085
165	0xbfc3d8cfac50110f	-0.1550540534373188
166	0x3fbb1c714e6ff0ad	0.10590274968120879
167	0x3fcd976ab2223670	0.23118337343150897
168	0xbfa9550388d006f7	-0.049476728869207
169	0xbfd52c60929726cc	-0.3308335715815758
170	0x3fb67743a2e9719e	0.08775732734051764
171	0xbfa6d402f8fa5b9c	-0.04458627023011916
172	0x3fcecc0b12143c70	0.24060190565839745
173	0xbfbe7db597482b55	-0.1191056722965816
174	0x3fcc207632f3980e	0.2197406529223262
175	0xbf97c04a6a9f123f	-0.023194468267109022
176	0xbfd10d4a48ad29ef	-0.26643616769129513
177	0xbfb17856dc5d533d	-0.06824248199457102
178	0xbfd433537c736efb	-0.31563269761475937
179	0x3fd4c7d6f1bc3358	0.32469724280308787
180	0x3fc416cc7218044f	0.15694575854289147
181	0x3fc05c51c19e3412	0.12781736330035237
182	0xbfa579bb67835e2a	-0.04194436682308507
183	0x3fccf9b1c56c743a	0.22637006892992578
184	0xbfd0c5b78633faf4	-0.26206768136755376
185	0xbf8b91fe9cafec35	-0.013462056309427076
186	0xbfc1067d7b05e1c7	-0.13301056391698138
187	0xbf8d6eeb1a1ffda4	-0.014371716246386175
188	0x3fc2674b2072029b	0.1437772663521358
189	0xbfd29830bccc251b	-0.2905389636731159
190	0xbfcda9b13cd3501e	-0.23174109907142876
191	0x3fa4c8140c96ce68	0.04058897641826037
192	0xbfd93b1b45219d42	-0.39423257590393146
193	0xbfd12efb6bd63726	-0.26849256068168115
194	0x3fb045144e5f756a	0.06355406678581735
195	0x3fd4cb249f3a3a14	0.32489886807971513
196	0xbfca2a4bf5f24e92	-0.2044157935057354
197	0xbfb9bc293a4f80cd	-0.1005273597106708
198	0xbfc5c35b0f0caaeb	-0.17002428278768575
199	0x3fc0692fe5c26680	0.12821005552978093
200	0xbfcaff37e87f2260	-0.21091364719747485
201	0xbfb8657442488610	-0.09529806726688883
202	0xbfb8cbe4344d665c	-0.0968611362162845
203	0x3fcd208e397276dc	0.22755601697001893
204	0x3fba369f5b3c3813	0.10239597299025176
205	0x3fc66ee2099ad2a9	0.17525887936576126
206	0x3fd17ee9da66780c	0.27337118461753174
207	0x3fc5eafe063374e8	0.17123389532836275
208	0xbfbb74dd8dc13201	-0.10725197516257624
209	0x3fc3cbfe6a8ccbeb	0.1546628971351248
210	0x3fcd18c48d3b168a	0.227318352661474
211	0xbfae0921460415a4	-0.05866340617835
212	0xbfca21e0cce0619f	-0.20415887836203425
213	0xbfc1f15c8e6ee373	-0.14017826990837143
214	0xbfb86198b5936db8	-0.09523920472150038
215	0xbfb0914000962e8c	-0.0647163392479177
216	0xbfc7fd12dbedee19	-0.1874106954454511
217	0xbfbe94c4717cf616	-0.11945750971514033
218	0x3fca8870d1d54ba4	0.20728883977662094
219	0xbfbd06ee024647b8	-0.11338698916941226
220	0x3fc8dc19514c4a84	0.1942168852770757
221	0x3fc5612175ec118f	0.16702669389645705
222	0x3fbd6a1ab4b85758	0.11490027343856235
223	0xbfbf4decbb9c5144	-0.12228278713547974
224	0x3f5df65e97d76596	0.001828758598426771
225	0x3fccc98142f3f681	0.22489944237888795
226	0xbfd208589a51e1f9	-0.281759405806525
227	0xbfb4eeb0de9a4d00	-0.0817671340430941
228	0x3fd2060a463d8079	0.28161866053961365
229	0x3fcaddc803c988c3	0.20989322838710764
230	0x3fc1d61293e8f6b2	0.13934547636192957
231	0x3fc4e0de42915b2f	0.1631124329603266
232	0x3fcf3d2cb9a095bb	0.2440544039138056
233	0xbfda6d6f3fcc9254	-0.4129293559110796
234	0xbfca242620a04290	-0.20422817795817538
235	0xbfbb085c8f05c5cf	-0.10559633723985161
236	0x3fc72c774dcff95f	0.18104449557717836
237	0xbfbe134bcb8074b8	-0.1174819347219963
238	0x3fccd1870e82c330	0.2251442738393279
239	0x3fd462dbdeff3d07	0.31853386666348665
240	0xbfbfae7a915d7893	-0.1237560849089923
241	0xbfd824ff355592d8	-0.3772581120340823
242	0x3fd09dc8d5c8a3e6	0.2596304023487036
243	0x3fac49a2b3a274da	0.055249294689227305
244	0x3fca01cdaf2c2200	0.2031800370534853
245	0xbf91c7013321226d	-0.017360705133145183
246	0x3fdb762af92e7108	0.42908739408609664
247	0xbfc2c931ad6ade2c	-0.1467649552121072
248	0xbfdba8978b551b84	-0.4321650372189014
249	0xbfca7b8b07a310cc	-0.2068952357568662
250	0xbfcfa5709688d83e	-0.24723632192916684
251	0xbfcbf2cd3cbbb718	-0.21834722009173713
252	0xbfc3cee680c96a72	-0.15475159920136466
253	0x3fd51f9b0190391e	0.33005404617951395
254	0x3fb4f0094540c09b	0.08178766194100932
255	0x3f84a53cf9d521d3	0.010080791830333979

bias f8 [30]
0	0x3fad483c3c8c0260	0.05719173659418142
1	0x3fb5a789020be0da	0.08458763408623629
2	0x3fb1cd9836faec69	0.06954337446488669
3	0x3f972f8b2948ba1e	0.022642301935940627
4	0x3fa0e44d59bd77f0	0.032991807179072796
5	0x3f876f1fab1c1259	0.01144242039618708
6	0x3f4f72a8026a4ffe	0.0009597130163734311
7	0x3fc0f21a174f591f	0.13238836420232133
8	0xbfc1c50a34211d95	-0.1388256792581443
9	0xbfac96614ba37e9e	-0.05583480881045698
10	0xbf9b4bc914ddf8a2	-0.02665628614294547
11	0xbfbf81255f09e46f	-0.12306436128882735
12	0x3f87728387ced309	0.01144888647272914
13	0xbfacb7a640e89528	-0.056088633941082044
14	0xbf9a40dda4d78327	-0.025638068376682057
15	0x3fc59a8db29c2ba5	0.16877909871285826
16	0xbf8de27522b0a9a0	-0.014592089768559913
17	0x3fad1fe5a3ea5124	0.056883980044548005
18	0xbfc10dc5eeb8a710	-0.13323282390893398
19	0x3f9f745e77fbbd14	0.030717350075915098
20	0xbf8cf7165124d44e	-0.014143156386675095
21	0x3f818a7045d3d11f	0.008564831858600073
22	0x3fa12dbca9f924f8	0.033552070378002286
23	0xbfd44ade76399d2b	-0.31706964059272263
24	0xbfa3d3b808463214	-0.03872466183665693
25	0x3fb475ad8f6ecaaa	0.07992062331940511
26	0x3f9f0dd1e0258152	0.03032615595418637
27	0xbfad7c5f9ce313d9	-0.05758951940655494
28	0x3fb872d51b15af44	0.0955022040486116
29	0x3fce7be1e0c2a370	0.23815558886169752

weight f8 [30, 30]
0	0xbfc119af092afcd4	-0.13359630534794198
1	0xbfcc061a4409e304	-0.2189362365932298
2	0x3fc68fc62f9b2666	0.17626263927950275
3	0xbfa3bc5131f91196	-0.0385461209776025
4	0x3fc6c1640fc2dd87	0.17777682084645738
5	0x3fc89144ab61dbc0	0.19193323486589797
6	0xbfb44fec3ee8dac8	-0.07934452567938444
7	0x3f9de9b45242250e	0.029211823959973286
8	0x3fba1603e87dddd3	0.10189842630449357
9	0xbfd73aa027323ab1	-0.36295322253946966
10	0x3f856537927ee1b6	0.010446962507430917
11	0x3fd65769d20da040	0.34908528817186735
12	0xbfcc0becd91f583f	-0.21911392785722403
13	0xbfa6bc2bb2309756	-0.044404378415761656
14	0x3fd0e1bc74fce4e3	0.2637778418025631
15	0xbfc72994ef27b0ac	-0.1809564750432221
16	0xbfda187ea7415a0e	-0.40774504025958513
17	0xbfc302feb6157a07	-0.14852889910521602
18	0xbfb1b51f78d1ddaa	-0.06916996669484968
19	0xbfccaa11623532a2	-0.22394006057074473
20	0xbfd4784678c14520	-0.3198410205123583
21	0x3fc431c0baeb4967	0.15776833655270225
22	0xbfcb8012784befd3	-0.21484595178469465
23	0x3fc274e09bf72615	0.14419181457041988
24	0xbfc5607a3d8f1ff2	-0.1670067596990062
25	0xbfd08678cb3136b2	-0.25820751040451306
26	0xbfb23992fa0ecf7d	-0.07119101147583069
27	0x3fc38cd904e53eac	0.15273583163297155
28	0x3fd77874d3262f54	0.3667270719531548
29	0xbfc65005803e334c	-0.17431706201423436
30	0xbfd5031765ee592d	-0.3283136840267556
31	0xbfbe6450b8aef2ee	-0.1187181902777856
32	0xbfd46e33b84390d6	-0.31922619814419073
33	0x3fe36135a94cbd75	0.6056164080272725
34	0x3fc51c7c8370c343	0.16493183534614717
35	0xbfc8d5d71fa9de1d	-0.19402588888236574
36	0xbfc002471bcd3ace	-0.12506951196197352
37	0xbfc008a2a3b1e341	-0.12526352875627292
38	0x3fc1a01a813bb191	0.13769847212041644
39	0x3fd1e71fd0e23d58	0.2797317066078526
40	0xbfc33b89d4537539	-0.1502544676540454
41	0xbf52a38b5c781921	-0.001137624831132174
42	0xbfd512a537f59e3b	-0.32926302399434676
43	0xbfcd11e2e4eec0c1	-0.22710834673262606
44	0xbf929bb50135be8d	-0.01817210025677567
45	0x3f97a9578599d0ea	0.023106925515507117
46	0x3fd7a9390d4915c4	0.369703543638334
47	0xbfcd64e247bb365b	-0.2296412325144271
48	0x3fce709ece662aa6	0.23781189992981416
49	0x3f96b986a8fb2a73	0.02219210058573613
50	0x3fc1f5d8462de937	0.1403150885269697
51	0xbfceffc6eb27a2a7	-0.24218069536370487
52	0xbf9d21d6dc8ba006	-0.02844939919569358
53	0x3fc5fe2a8480bdce	0.17181903333538034
54	0x3fd7a0656bbc5ef3	0.36916480561329407
55	0x3fbf7a83c1614f48	0.12296317549890745
56	0x3fcbfab379af4ada	0.21858828965795035
57	0xbfa113c81e6e78b3	-0.03335404750326756
58	0x3fd2b85892755662	0.2925015859849279
59	0xbfbcd7a454129802	-0.11266543438486568
60	0x3fd1c8a397df996b	0.2778710349215518
61	0xbf5453c15db03088	-0.001240671953158164
62	0xbfccebdbd1b2bb8e	-0.22594783534210844
63	0xbfc7ee1221b2c95f	-0.18695284505299534
64	0xbfca4181a9205a9c	-0.20512409933208609
65	0x3fc007662fcc4425	0.12522580465204772
66	0xbfa4729a153a3afb	-0.03993684300541208
67	0x3fc756c83b8c5b13	0.18233588130598175
68	0x3fce3a08fcc08b5e	0.23614609090244704
69	0x3fba6b00f5dae314	0.10319524767227178
70	0xbfcd83bc696e8c1e	-0.23058276317633014
71	0x3f82b6f2bf1cc253	0.009138008553777477
72	0x3fc7f78c4e988588	0.1872420676964277
73	0x3fd2506aa0258a55	0.28615823401756774
74	0x3fd254afcaefe29b	0.28641886537620004
75	0x3fc631bfc5e8ba9d	0.1733932224610343
76	0xbfc36d55fb817281	-0.15177416592168316
77	0xbfab6e08317594c5	-0.05357385257483708
78	0xbfc608cf5d024542	-0.17214386025856682
79	0xbfc6d389fb87e6cc	-0.17833065778523005
80	0xbfc332b9a824f45b	-0.14998551092313303
81	0xbfc606358d616eeb	-0.1720644893965678
82	0xbfc6007ef9346f23	-0.17189013641552106
83	0x3fcafea6608bea21	0.21089629854380212
84	0x3f914d7cab53038b	0.01689715190582634
85	0x3fd070ce6e7d5fe0	0.25688515462888795
86	0x3fca77d5bd7f6289	0.2067820716172444
87	0x3fc8d435b8ca832d	0.19397613070489098
88	0x3fc50ca82f4c73be	0.16444876012329063
89	0x3fb5ada712688e22	0.08468097876953398
90	0x3fc031f263bfb8fe	0.12652425642540516
91	0xbfc772ca2bd2f2c7	-0.18319060458988742
92	0x3fd098c1646a50f9	0.2593234520548005
93	0x3fb5a64d7970235b	0.0845688268165196
94	0x3fb54dce9ee641bf	0.08321849231129529
95	0x3fb3d438d901a107	0.07745700166708867
96	0x3fd063c9abcd2fdb	0.2560905626057754
97	0x3fb6cdbbb5bdb2fa	0.08907674014126235
98	0xbfac21f3386dd788	-0.054946518553079804
99	0x3fb95c5641b5e37f	0.09906519989261929
100	0xbfbae1a0c251909a	-0.10500530952555423
101	0x3fac52d469bbdcd9	0.05531944075294754
102	0x3f932b2257f1b0da	0.018719231240923097
103	0x3fb0bdd6eeed3a26	0.06539672215624445
104	0x3fde640766bdda3e	0.4748552802406357
105	0x3fd15c38d0faf491	0.2712537804434954
106	0x3fc5395c67e1f98c	0.16581301758192202
107	0x3fb1cdba0730b1a5	0.0695453898958421
108	0xbf8aaa185eb8605d	-0.013019743338233686
109	0xbfd264f01e5b4094	-0.2874107643556354
110	0xbfd5ba88633bed16	-0.33951005640820264
111	0x3fae5cf7415eccd1	0.05930302308061076
112	0xbfc4e42741822205	-0.1632126874794865
113	0xbfe2086864783114	-0.5635263407034778
114	0x3fc436af4e37b968	0.1579188472673636
115	0xbfa57840a9e3df68	-0.0419330794701967
116	0x3fccc0e9ac38724c	0.22463723096088228
117	0x3fd2dfc3d736d65c	0.29490753190052543
118	0xbfbcdebab8b8c073	-0.1127735806446724
119	0x3f8dbdba522706bb	0.014522033340543463
120	0xbfc44df9cde5bece	-0.15862963250719136
121	0xbfd021d627c0384a	-0.25206521875305
122	0xbf9cc03287459e86	-0.028076924806923496
123	0x3fa3a9bffd2a5264	0.038404464391679466
124	0xbfc65b399db67984	-0.174658967979621
125	0x3fc156e87bc3cf92	0.13546472590644193
126	0xbfca3250f6015d34	-0.20466053020457198
127	0x3fc9da8c8bb5d5a1	0.20198208638946105
128	0x3fc644301267af54	0.1739559259289033
129	0xbfc80e39dee8d5a2	-0.18793414482358367
130	0x3fbb799bb61a284c	0.10732434459546986
131	0x3fccb75378105639	0.22434466707697867
132	0xbfd03e725502c32f	-0.2538114385779861
133	0x3fd089a735b1c48e	0.2584016823157719
134	0xbfb432a8734fd222	-0.07889797988156791
135	0xbfd3b23f5995c944	-0.30775436161561154
136	0x3fb2416714421026	0.07131046528417126
137	0xbfaefb9eb1e1e672	-0.060513457502520476
138	0xbfab6b9440881943	-0.05355513847102824
139	0xbfd104fa04b5a602	-0.26592874965589897
140	0xbf7a1d4da8d580ca	-0.006375602109386766
141	0xbfcff1f95763eb3d	-0.24957196013550656
142	0x3fcc795f9d952c68	0.22245402521579938
143	0x3fc8c4c83c85abd7	0.19350531535323398
144	0xbfd0de6a5c1f5f5e	-0.2635751628526942
145	0x3fbac0917fb0351f	0.10450085990324397
146	0xbfccbb50bef096e2	-0.2244664127658132
147	0xbf92ba76d5f4fed5	-0.01828942948236441
148	0x3fcbb89835cc6b92	0.21657087923889812
149	0x3fc6c0d4337a2080	0.17775967134025805
150	0xbfcdb059f263251c	-0.23194431624714518
151	0x3fd405667ac9c083	0.31282960883164196
152	0xbfd3cd5e2e31c871	-0.3094096613996334
153	0x3fd4a866b607cd4b	0.3227783944741602
154	0x3fc00d62fa3a4840	0.12540852754733756
155	0x3fcde4022231b70c	0.23352076215399398
156	0xbfd191b6e188c257	-0.2745186998827526
157	0xbfd2e08bdd66414e	-0.294955221376786
158	0x3fac5ce6b0c003f3	0.05539627940743932
159	0x3f9058573a4030fd	0.015961993151038623
160	0x3fc6175376fd565e	0.1725868540767576
161	0x3fc891e4c21e35fe	0.19195231893938564
162	0x3fc4c469d2399745	0.1622440601815304
163	0xbfb5206509e7abb0	-0.08252555362530134
164	0xbfa1ea2843bd063f	-0.034989603298992915
165	0xbfc2a2845f0319d6	-0.14558462752593354
166	0xbfc0bc9bb933807d	-0.13075586836839995
167	0xbf4d7dfe2bb3c9cf	-0.000900029284279841
168	0x3fced84acdd69f5f	0.2409757142133868
169	0x3fbb974453ec545d	0.10777689980416612
170	0x3fae0fa3e3fa2c6c	0.058713075236561746
171	0xbfc7af07210a3bad	-0.18502892602233825
172	0xbfd04ea91c07bd62	-0.2548010610325574
173	0xbfccbc77b41e6e56	-0.22450157446734192
174	0x3fd5625f9b32ab10	0.3341292396168436
175	0xbfa4dde1e69edec9	-0.04075532856171333
176	0xbfc626d801a0a80e	-0.17306041793318666
177	0x3fc6c9c7c1b8961f	0.17803284606013478
178	0x3fc06bb2c087f470	0.1282866897671826
179	0xbfd88b90c3fe67c1	-0.3835184015275637
180	0xbfb9fbdd6d8c3aef	-0.10149940418726165
181	0xbfd12bfc4a2f1f20	-0.26830966228998143
182	0xbfc427c44402b042	-0.15746358223748486
183	0xbfd9a8c1c7872673	-0.4009251068606325
184	0xbfb8debaa66cf506	-0.097148576384786
185	0x3fc2863f7e09495a	0.144721924344206
186	0x3fc7ef8f21b49c51	0.18699826379563203
187	0xbfc2625f2f6d9536	-0.14362706962416788
188	0x3fceed33986e6ed6	0.24161381667078413
189	0xbf84bbcc0c1b99bf	-0.010123819465161497
190	0x3fa39f5b91a1f5f6	0.03832517769567893
191	0xbfb5d191dd990f98	-0.08522903118233527
192	0xbfc1386ba86c4bd0	-0.13453431819706774
193	0x3fc5cdfbeddcf1df	0.1703486358109236
194	0xbfc3c4d47d5d6eeb	-0.1544442760594998
195	0x3fcc0a83f9a0bf2e	0.2190709084402384
196	0xbfc65dcd3f5e70a1	-0.1747376021784293
197	0xbfbb993ead8a5c6f	-0.10780708062007859
198	0x3fc41e1ab855b320	0.15716871262284204
199	0xbfcd81f44fce6ab0	-0.23052839180748697
200	0x3fba2bbd6079b35d	0.10222991566997792
201	0xbf9980428cb06b4d	-0.02490333541582439
202	0xbfa373ce2bf0d533	-0.037992899764882536
203	0x3fc7f0128e284424	0.18701393071435846
204	0x3f908ac326171be6	0.01615433616623454
205	0x3fcdf02501afcfc9	0.23389113027917421
206	0xbf9920ed3eb152a3	-0.024539668036896455
207	0x3fc1bff1d59d1c4e	0.1386701863322934
208	0xbfd7fe794bf5f6ff	-0.3749068490795792
209	0xbfaab617b637ac5b	-0.05217050647100826
210	0x3fb54d477f7c9b1e	0.08321043837041173
211	0x3fc45a40417f0eb0	0.15900424192488094
212	0x3fd2ca3e348ca71a	0.29359393245486987
213	0xbfcf452464053df3	-0.24429755100071268
214	0xbfce124445d6f66e	-0.234932455159583
215	0xbfc91ce6d13e242f	-0.19619450776034017
216	0x3fcbe7a3f75d06d4	0.21800660684862427
217	0x3fbcbbb66f57c823	0.11223926752407513
218	0xbf997b1885611d7c	-0.024883635655240863
219	0x3fd42380d00ba56f	0.31466694180433924
220	0xbfd721f3499559f9	-0.36144716440085706
221	0x3fc2048966a1e1a8	0.14076344977708044
222	0xbfc0b0125c893662	-0.1303732826076383
223	0xbfc522eabe3e3c5e	-0.16512808121885575
224	0xbfc19e0b885ebb7f	-0.13763565214818738
225	0x3fc15e3129c83f85	0.13568701305529998
226	0xbfb7f4df1c14e8b1	-0.09358019290530951
227	0xbfd2113057ab1782	-0.2822991233955393
228	0x3fd1d4242d2dd4b0	0.27857307827009503
229	0xbfd43e30ca9b019b	-0.3162958124703665
230	0x3f90215ccc0896cc	0.01575226779291121
231	0x3fd55865bf7e23e9	0.33352035236799665
232	0x3fc578a8c35ee733	0.16774472751222333
233	0xbfb151d71847e1ea	-0.06765503256600139
234	0xbfd1ec44e2fc790f	-0.2800457207357718
235	0xbfc1d7f38c4548ed	-0.1394028124728445
236	0xbfc65b0c79c1e63e	-0.1746535868185663
237	0x3fc43dfb8bbfeaf5	0.15814155887331763
238	0x3fb3afc3e4cb78ee	0.07690071426211251
239	0x3faecc73ff09e30d	0.0601536034418527
240	0x3fd2fbbffeb41270	0.29661559937839055
241	0xbf90f5c30de062af	-0.01656250736422987
242	0x3fbde0ac2e7c9b1f	0.11670948157243942
243	0x3fccd8a5ce0829c7	0.22536156234884983
244	0x3fd7db157a9d66d1	0.372746820202889
245	0x3fd1fdce4851483b	0.28111607610947303
246	0xbfd9c70d24694fa5	-0.4027741294460106
247	0x3fd5189b69998067	0.32962689697706654
248	0x3fd0b11e2010d482	0.260810405077173
249	0xbfcde35e5106c5af	-0.2335012336384756
250	0x3fd3bc6f45f37fa0	0.30837613898438043
251	0x3fcd1f28f34177e6	0.2275134265682361
252	0xbf9a6060bb68e79b	-0.02575827735765977
253	0xbfcf4b6c82e59624	-0.24448925391622922
254	0x3fe0483710db2fe5	0.5088153199408195
255	0x3fb45be32b453a98	0.07952709013373249

bias f8 [30]
0	0xbf95174d90e19fc0	-0.020596706359725436
1	0x3fc3508e499fd235	0.1508958682531031
2	0x3fa29dea1cc37784	0.03636104203336202
3	0x3f966fc5b5529009	0.02191075247959876
4	0x3fb9b39eab439d8e	0.10039703065159797
5	0x3f8f9a563cc6f12c	0.015431092958231384
6	0xbfc534e4f7c07a97	-0.16567670914897256
7	0xbfb120fc4733eed7	-0.06690956819869186
8	0x3f94ddb7b532708e	0.020377035555256877
9	0x3fb8f66411ad6755	0.09750962668968317
10	0xbfc279e34e4ce08c	-0.14434472392327213
11	0x3fa55e32e5e3fa83	0.04173430496483823
12	0x3fb0b0c49c9ba71e	0.06519726584852178
13	0x3f93741cc61b737c	0.01899762114668445
14	0x3fa5074fee0f6b0e	0.04107141285904535
15	0xbfb9498c65f3492f	-0.09877850998899328
16	0x3fc00eca182bdaa9	0.12545133762588037
17	0xbfb377ef854ac9dc	-0.07604882244303418
18	0x3fa4db65ff4c6234	0.040736377157547216
19	0x3f963873594c0b09	0.021699716878184314
20	0x3fb7e7e43fa853b6	0.09338213495386935
21	0x3fc0153e97c0adff	0.12564833078191381
22	0xbf9f131d8a69f932	-0.03034635693847427
23	0xbfb324420ed473ad	-0.07477200376565803
24	0xbf9fc1cbcfc45f33	-0.03101271110162358
25	0x3f7384adcf63b9b0	0.0047652043779024406
26	0x3fb3ca2ded979156	0.07730376291835248
27	0xbf317240283a1e71	-0.0002662092813143563
28	0xbfb8bfdcf4f931fb	-0.09667759877010688
29	0xbf93866cb8e441cb	-0.019067477021111928

weight f8 [2, 30]
0	0x3faf082d492aca3f	0.06060925977853459
1	0x3fc5b570a54cecab	0.16959961005509192
2	0xbfa438a3dc5e69a8	-0.03949462952660393
3	0xbfe028f93e08b4c0	-0.5050016604997367
4	0xbf73e278087490f2	-0.004854649428384971
5	0xbfcc499a4db8b225	-0.2209961776255948
6	0x3fc6f744b10201e0	0.1794210304542636
7	0x3fe583f1b8d18c0d	0.67235647294399
8	0xbfe983791a23a82c	-0.7972989569218547
9	0x3fd7bb2ce5056dcb	0.3707992779288502
10	0x3feb5eec1fc90ab6	0.8553372021491075
11	0xbfe0db1a6fb3d8be	-0.5267460042657814
12	0x3fe0559329dac96a	0.5104461495850903
13	0x3fca7f05059ac570	0.20700133107815644
14	0x3ff62489c4315fb4	1.38392044675673
15	0x3fe19e8f222abbe1	0.5506053607294882
16	0x3fe0902c18253639	0.517599150809196
17	0xbfde374bfc195314	-0.4721250497726015
18	0xbff5a3925c8cbae3	-1.3524345030997942
19	0x3fd26ef83dc99af5	0.28802305253923005
20	0xbfc3a9c3f0d7ba10	-0.15361832866570113
21	0x3fa6a3ab18010b63	0.044217440300164744
22	0x3f845002aeae152a	0.009918232875643602
23	0x3fe2d53b7443da4b	0.5885293265153647
24	0x3fea4cf849306797	0.8218957356905204
25	0xbfbc0eaca3bf1696	-0.10959891317096501
26	0xbfa977c665b77e20	-0.049741935650441826
27	0xbfb624e2f4a61860	-0.08650034401770901
28	0xbfa9cb2b1d4459cf	-0.050378176996833106
29	0xbfe344082ac26e2a	-0.6020546755930287
30	0xbfe9b25e84ed6a70	-0.8030235859144579
31	0x3fe9981a02243a3d	0.7998170892549933
32	0xbfb5cf9170cda34f	-0.08519848827348862
33	0x3fc08b20fba15e1e	0.12924587523114978
34	0x3fa71c6e73cf159e	0.04513878978427076
35	0x3fd88828732af4a1	0.38331042525153164
36	0x3fdf78ffbbd575b3	0.49176019042155444
37	0x3fcadd784ea4f6e9	0.20988372650202017
38	0xbfda3d44b1cf9a11	-0.40998952259397564
39	0x3fd352a47b956f4a	0.3019190985557897
40	0x3fe90503d355f86b	0.781862175717618
41	0xbfed33d11ac434e0	-0.9125752947599288
42	0xbfe46ca4c2a39246	-0.6382621575872427
43	0xbfa8d422802ecd53	-0.04849345984203048
44	0x3ff4f4334950a470	1.309619223009829
45	0x3fcf1e3314736515	0.24310911654064485
46	0xbfe85dbf0ab5309b	-0.7614436349044981
47	0xbfcc840964b66b2b	-0.22277944009405223
48	0x3ff434180abbf936	1.2627182406718709
49	0xbfd89c474d250dc0	-0.38453848394075507
50	0xbfbbd4113f9df05d	-0.10870464137218634
51	0x3fe1421c3697d4de	0.5393200937529874
52	0xbfd969fc9361e51d	-0.3970939101487419
53	0xbfe0cf03a9359f48	-0.5252703003761576
54	0xbfc52ec27fd87645	-0.1654894947286484
55	0x3fda350db6ad15bd	0.40948813285316615
56	0xbfe1234aed763b55	-0.5355581891943567
57	0x3fd9278fa2da4014	0.3930396166188086
58	0xbfdae32879fc0dd3	-0.4201146308189127
59	0x3fd219b033de881b	0.28281788888318865

bias f8 [2]
0	0x3fbe98f546cb4f3f	0.11952145555852399
1	0x3fc78c4e85ad15a8	0.18396932150987522
