DAL_BFGS/BFGSNN/linear_ctd/results/AONN/At1/u.pt (torch, 27327 bytes, 10 tensors)

weight f8 [30, 2]
-0.7769842011356168 -0.03331382191385575 -0.6247595117376228 0.5248521903284885 0.004722382028394131 0.3658273921176089 0.4109708211921228 0.9352877626349718
-0.041593226715008695 -0.24406706835959993 -0.006355723512892843 0.2663971968205463 0.2321145766729 0.32120315849084974 0.4287896191189641 0.02464315367535825
0.1334893532774732 -1.0578974123316636 0.08003723978727703 -0.050424194067344774 -0.09149364884213117 0.20267658249901033 -0.24826310754271336 0.2839542953253068
0.1596464018472418 -0.10227080544055255 0.009133532051972591 0.032205783847715955 0.06438885288019461 0.2736166260070895 0.374343016048794 -0.18069463281535525
-0.0017794718475559702 0.4628458419328296 0.05650496802929967 -0.11299094886849499 8.861213909212285e-05 -0.1816820174633666 0.6649329100627858 0.4015480837477644
-0.4311134153376119 -0.3587247348532388 -0.07218843844883227 0.15295285910333734 -0.5123789208514007 0.09844533941246268 0.22053481982444864 -0.08546655226322453
-0.06665946145195437 -0.18528661599588012 0.011579288539091896 0.11473587983544092 -0.7490801267793181 0.0001525128820135902 -0.04566943721349432 -0.16699187967201756
0.08040070297784564 0.3213405113772143 -0.011121680197012606 -0.30516811423755114
00000000: 6d5b acf8 0ddd e8bf fae2 3f5f 820e a1bf
00000010: 86e5 d8a8 07fe e3bf 033c 16d2 96cb e03f
00000020: ef50 f0c5 c657 733f ff11 484b b769 d73f
00000030: fc58 288f 584d da3f 08b8 1b9a e0ed ed3f
00000040: 37c0 f318 b54b a5bf 3d4a 51f6 963d cfbf
00000050: 1cae 158a 7508 7abf d4c7 05d4 a60c d13f
00000060: 2714 de31 eeb5 cd3f 45c4 45b1 978e d43f
00000070: 5fbc be03 4a71 db3f 5282 6c0c 0e3c 993f
00000080: a670 58db 2d16 c13f e4cc 47d6 25ed f0bf
00000090: fe34 590f 527d b43f f08e e430 33d1 a9bf
000000a0: cf93 91b5 206c b7bf 24c8 bf66 4ef1 c93f
000000b0: 2a82 d9e3 15c7 cfbf 5ec7 fea2 4e2c d23f
000000c0: 35d2 6d15 4b6f c43f 8fe7 b364 6b2e babf
000000d0: 1f78 aeeb 99b4 823f 8a68 bcc8 467d a03f
000000e0: a2ee 58b1 c97b b03f 73e8 154f ef82 d13f
000000f0: c198 da68 3cf5 d73f 5499 4071 0021 c7bf
00000100: 6c05 ec58 a527 5dbf cc3a 8c2a 449f dd3f
00000110: f9a6 7e1b 38ee ac3f 8d5a 228e f9ec bcbf
00000120: 5ff2 2cf5 a83a 173f 0e63 a339 5b41 c7bf
00000130: eb1e d861 2147 e53f a2f5 ddbb f6b2 d93f
00000140: 6b7b efb8 5c97 dbbf e97f 1d97 58f5 d6bf
00000150: b07b 4906 f17a b2bf 10da d693 f593 c33f
00000160: e2ed 867a 6865 e0bf 8f5b 38b9 b633 b93f
00000170: b33b 6327 7c3a cc3f 3057 dfce 22e1 b5bf
00000180: bab5 e72e 9810 b1bf 4f5e 0bca 78b7 c7bf
00000190: dcd6 b0cc e1b6 873f 5c2d 92a3 545f bd3f
000001a0: fa38 d3e2 76f8 e7bf 5eb3 51ae 7bfd 233f
000001b0: 2972 8406 fc61 a7bf e8c6 f16a fd5f c5bf
000001c0: 7981 ddf5 2395 b43f ecae cfca d790 d43f
000001d0: e62b c8a5 f6c6 86bf 61aa 9bd7 df87 d3bf

bias f8 [30]
0.37786251325009834 -0.08053713200163523 0.09387222344538165 -0.030903287815593903 0.07614190532371315 0.15013813221475097 0.3027736396140454 0.06094096937523993
-0.009878476765772932 0.04653791847234646 0.3269191750721484 -0.36443946118923093 -0.05999894004311124 -0.21089004070911008 -0.2882951970194523 -0.48304780664315616
0.48557975524730856 0.09160334633250938 0.4070288010003636 -0.09694078896015512 0.4612153281425416 0.35837608064923354 0.4869424124012386 0.11265092833915484
-0.20544945694868919 -0.3075578349420483 -0.32198513833045406 0.1497678223753787 -0.009441020775154725 0.08482326789370694
00000000: 58c9 3240 e62e d83f 4e87 0fdc 149e b4bf
00000010: 4c62 b391 0208 b83f f903 078a 1ca5 9fbf
00000020: 2271 3831 097e b33f 3658 dfef b937 c33f
00000030: ffec 0eb0 a460 d33f eb08 e89c a733 af3f
00000040: 8a75 25b5 2a3b 84bf 41ac b96b d1d3 a73f
00000050: f6b0 5767 3eec d43f b37e cbe3 f952 d7bf
00000060: 9045 8f5a 2eb8 aebf 07e9 f2e1 71fe cabf
00000070: 14b7 b2b2 6d73 d2bf f6f5 fb58 41ea debf
00000080: 8ec2 181c bd13 df3f 3cc9 b320 5173 b73f
00000090: e5e7 3487 c20c da3f 4878 3b8e 1cd1 b8bf
000000a0: de4f b24b 8d84 dd3f cca7 833a a2ef d63f
000000b0: 521d 1382 102a df3f 63a9 14f5 b0d6 bc3f
000000c0: 9bac 49f5 2a4c cabf 3519 ad0e 07af d3bf
000000d0: 7a59 bb8d 679b d4bf b135 8c8d 972b c33f
000000e0: f7db c25b d055 83bf e516 8b49 fab6 b53f

weight f8 [30, 30]
0.07764214109803946 -0.23744701427838988 0.21212985740440052 -0.11336956541290631 -0.023500620995679667 0.07709331442851722 -0.12661868200084325 -0.09214976822093508
0.19645957434240452 -0.1741145423342413 0.355040908983993 -0.3127666062500846 -0.10346341988135982 0.44861732538719556 -0.2274315389010486 0.03457572984908381
-0.030445976982316148 -0.07827451954815567 -0.15018398859127277 0.09419098411225245 0.38034413409545936 0.24346709970408348 -0.2724577963156187 0.3231092494947889
-0.4396898446305268 0.2900078802867355 0.14925587952067193 -0.5080898578426319 0.06749395041132275 0.07439437024495771 -0.1320629341418952 -0.4875104268785186
0.03442087756010177 -0.14149952177752267 0.2727319988046264 -0.18168904944365882 0.12779300229927892 0.0729742872648714 0.28746739074305167 0.11590000523492806
0.21493718651636382 -0.1328585168314689 0.04540211486676925 0.06347415364697864 -0.09733429544400153 0.16767246310758221 -0.06258472380518411 0.13325385954968283
0.07045973183865331 0.02865599692733902 0.1659206702462844 0.24829391164920667 -0.21839361696945814 -0.006643248413891876 -0.09259961558592372 -0.04671902451913534
-0.14895526983217783 -0.03623405166456833 0.2553805508672732 -0.13468626061652839 0.09584482110882811 0.44240473172567346 -0.3401005987259798 -0.060819944726739204
0.06455344305446953 -0.2510654641822984 -0.2869195125497948 -0.09967241824661088 -0.27822385944619304 -0.05133546383279828 -0.1932497157428222 -0.19141710605718573
0.12957100928610407 -0.2142670994871864 0.2558815235167224 0.17537321947810475 -0.3216924817336446 0.036278199096285504 -0.15366891831371945 0.29966789889823214
-0.14046044408790326 -0.43449790552359585 -0.09102066935302265 0.31495446219070494 0.13148516321166762 0.0552032346928158 0.3529098241914737 -0.20113376783841197
-0.12411186660789479 0.22513605928327524 0.49015361237904514 -0.4606755243286128 0.10523745049401753 -0.5474183469088674 0.10939731148213061 -0.029979109072641057
-0.0054973927921017135 -0.021690943084283244 0.40872247434688574 0.2473702746636223 -0.09129292859825758 -0.12034463381370265 0.20774350996209495 -0.37013661923597735
0.0032622206728917555 0.26538862892688736 -0.37937212644291946 0.2943953764989376 0.3555319449254558 0.261931470851711 0.30799231506445723 -0.1537123678642293
-0.012090640197851324 -0.004915133227527844 -0.020405290413631687 -0.48502923243710505 -0.34044310467446903 0.035393562865619003 0.014547300716685401 -0.21539825977579513
0.16343785253045287 0.27486799240567805 -0.07268362702969386 0.014391418940211773 -0.06699241422446964 0.0644482216380713 0.1638066220626753 0.0712993893095679
-0.12539960385171858 0.2595945408941931 0.1733976986271379 0.004203261220946423 -0.0660655142282258 0.27450006647507835 -0.1101577413094344 0.24950948667336748
-0.011337623757179232 -0.09526048661895924 -0.171872111372352 0.0820905756458774 0.25452181876590463 0.064266839633319 0.005085191246560811 -0.007102079609237881
-0.12943982431354062 0.3042892247787402 0.3104691350389815 0.28510060079425437 -0.2456550668890876 0.2865579614551351 -0.23359618079214728 -0.4090388499105869
0.11684285626410586 -0.1969733071910069 -0.41507282810614904 0.3611279210558083 -0.30998542742015595 -0.06519699950629426 0.33078063223634036 -0.3327231423376465
0.07030568351171439 -0.48735749130832834 -0.7641578303499598 0.5508123013788304 0.21299274382079048 0.40557620858922516 0.1455035329896602 -0.6215300319329405
0.06412784269575057 -0.08543716627906921 0.34346536565072067 0.42214999049556257 0.12176556100833258 -0.017229146008739572 -0.5432068237679664 0.45990672498251023
-0.0988900628620171 -0.36922810695316016 -0.33342764595629043 0.02122818512152924 -0.12059077778549798 0.047755493319883664 -0.21380687563979694 -0.017897351893174842
-0.08211409983050925 0.1434235894065128 -0.21511973834701062 0.2479189463502615 -0.019127501535561562 -0.2403433397694287 -0.29563565708914086 -0.047388434386970976
0.27479332373234994 0.18358760443601327 -0.29517646903818456 0.15503298139272703 0.18032137670405318 0.06944754116698376 -0.0624209195844074 -0.20132956890385967
-0.24193202527372207 -0.030830306808137437 -0.0069677364280247124 -0.17066379829683107 -0.09579048408302794 0.1440089725372701 0.1808217059804926 -0.12876813296769496
-0.035893341786264035 0.09592379764278179 0.13327133653778236 0.3045854783278949 -0.014186797344147174 0.18593630789340654 -0.3594810547320779 0.3345204697202429
-0.18312065866523536 0.005430205697791001 -0.5220214682567244 0.27225758299388136 0.3106655297119603 0.25088250020767133 -0.3019313537948533 -0.13676745607465968
0.3891452550835555 -0.05361710417591623 0.1601214622798955 -0.21064132108849642 0.22446457101174674 -0.11562860159347448 0.11430287474772317 -0.3164253417316432
0.28483487873509655 0.09312790729931682 -0.03462290592959812 0.0716825884948992 -0.021212799833569797 0.1451021558838976 -0.157867215856683 0.07183095643322912
-0.07728595102064797 -0.19332329508404503 0.32223309756900725 0.0713628864485454 0.12661698838647456 -0.0006418603322298296 0.26238935831188437 0.3685468733415329
-0.4476545391133201 0.4552742224083506 -0.12048332239528989 0.29238236929565153 0.4533345918160041 0.11434717645903383 -0.04509610633250324 0.04236686255997174
00000000: 20b8 cef8 5ae0 b33f 4ce4 6dec a964 cebf
00000010: 354d 0738 1227 cb3f ff66 cfaf c905 bdbf
00000020: 8dd3 72fa 8b10 98bf 2af2 3530 63bc b33f
00000030: a8cc 207d 0a35 c0bf 0dc8 d790 2097 b7bf
00000040: dab2 645b 9625 c93f 8db2 8aa4 6249 c6bf
00000050: e403 3581 fdb8 d63f 5f00 483a 5e04 d4bf
00000060: 9406 b924 947c babf 6a3f 3d71 25b6 dc3f
00000070: a858 d406 7a1c cdbf 99d1 dff9 e8b3 a13f
00000080: 6d3a bced 3a2d 9fbf e8c6 9185 cc09 b4bf
00000090: f7f0 b09b 3a39 c3bf 0716 577c e61c b83f
000000a0: 8396 4aec 8e57 d83f eec4 700f ee29 cf3f
000000b0: dccf 2dd3 f26f d1bf d05f e76a d2ad d43f
000000c0: 5f92 c4df e023 dcbf e67b 5a36 7d8f d23f
000000d0: ce74 a310 d11a c33f eba0 5ba9 4542 e0bf
000000e0: 3ec9 b195 4847 b13f 6467 356b 820b b33f
000000f0: 6d9d 932f 70e7 c0bf 3fbe f9ee 5e33 dfbf
00000100: fa2b d7fe 9c9f a13f 9490 3705 a81c c2bf
00000110: b811 dce9 7074 d13f 8c6f b336 9641 c7bf
00000120: 2c3b c466 855b c03f 6664 4061 71ae b23f
00000130: 611a 7aa0 dd65 d23f 491a 176c 9fab bd3f
00000140: b719 64cd 0f83 cb3f 01a3 6404 8201 c1bf
00000150: ce44 0b2d f23e a73f ea17 0e96 d73f b03f
00000160: 7110 b67f e6ea b8bf 8450 be90 4a76 c53f
00000170: 09f3 f86d 8d05 b0bf 0074 6a64 760e c13f
00000180: 0294 ee23 a609 b23f 867d 8c66 ff57 9d3f
00000190: ab16 3876 e33c c53f 1025 2a4b 18c8 cf3f
000001a0: 14fd 4471 52f4 cbbf 1775 d46a f335 7bbf
000001b0: 944f 90c0 9bb4 b7bf 5f48 d254 8eeb a7bf
000001c0: de7e 3f5e f710 c3bf 2742 cd05 458d a2bf
000001d0: 0e9a 80aa 2758 d03f 56c5 483e 663d c1bf
000001e0: 6244 2744 4989 b83f fddf 96ef 5b50 dc3f
000001f0: d532 384d 35c4 d5bf 9b7c 17b3 ca23 afbf
00000200: 785d c30e 9386 b03f 9f5a 74e1 7411 d0bf
00000210: 9114 bfa8 e35c d2bf 90b3 aeb0 2184 b9bf
00000220: 8173 5272 6bce d1bf 3ddf 9254 a448 aabf
00000230: e3d1 891c 68bc c8bf c38d 3411 5b80 c8bf
00000240: 2b5f b267 c895 c03f cdff 73b4 1a6d cbbf
00000250: 27eb c9e5 5c60 d03f 2658 2031 a172 c63f
00000260: b090 1a10 9c96 d4bf 0247 5a5d 0e93 a23f
00000270: f1d8 4851 6cab c3bf c773 5b44 c22d d33f
00000280: 7c9d de9a 9bfa c1bf bde0 994d d0ce dbbf
00000290: 5f9a 216e 214d b7bf 77a7 b5c2 3628 d43f
000002a0: 79a0 f37d 81d4 c03f 6932 472f 9943 ac3f
000002b0: 31ba 5516 1396 d63f c05d 7e55 c0be c9bf
000002c0: 3b5d 2098 cbc5 bfbf 62d0 e225 42d1 cc3f
000002d0: e9ca cb41 ad5e df3f 62c7 c331 b57b ddbf
000002e0: 66ac 2f70 d7f0 ba3f e886 267b 7384 e1bf
000002f0: 1809 1653 7601 bc3f 6eef 1ef4 d7b2 9ebf
00000300: 87e2 1524 6f84 76bf 2a63 aa8c 2636 96bf
00000310: d771 1d4f 8228 da3f d565 d743 d4a9 cf3f
00000320: 2282 af2e f95e b7bf 619c 7aea e7ce bebf
00000330: 4e29 9fde 5697 ca3f ebe9 aa80 51b0 d7bf
00000340: 47e7 4663 5fb9 6a3f 2329 7e96 20fc d03f
00000350: 3386 0507 a247 d8bf d104 8ab4 5fd7 d23f
00000360: bad6 080f 09c1 d63f 4e7b 4637 7cc3 d03f
00000370: 48c1 2766 25b6 d33f ddd9 7bcc d8ac c3bf
00000380: fb58 e641 fac2 88bf bec2 7b07 e421 74bf
00000390: 9bbc f7db 1fe5 94bf 60f7 ba0c b80a dfbf
000003a0: 666f 2ee0 d1c9 d5bf 7f56 fee5 1a1f a23f
000003b0: 76ff 95a6 f9ca 8d3f e219 ad90 2b92 cbbf
000003c0: 6dfc c513 88eb c43f 405f 86eb 6f97 d13f
000003d0: 1615 0ce9 649b b2bf 38ab 878d 3f79 8d3f
000003e0: 3697 2c34 6a26 b1bf 518b 38bc ad7f b03f
000003f0: 614f 508a 9df7 c43f 9f32 4f41 ad40 b23f
00000400: fdbb bc1e 180d c0bf 9c15 d76b 329d d03f
00000410: 7e11 6752 e531 c63f 2b2b b057 7037 713f
00000420: 5fef 0067 abe9 b0bf 8da8 10ba 6891 d13f
00000430: 8443 5338 4c33 bcbf ece4 a646 edef cf3f
00000440: a3f1 021a 2e38 87bf 4f25 a1c2 fd62 b8bf
00000450: 0728 b8c4 e7ff c5bf b077 b551 e303 b53f
00000460: b4f3 ede1 154a d03f ee3f 71a6 ca73 b03f
00000470: faee 90a1 35d4 743f 52f7 7bfa 1117 7dbf
00000480: a002 1df2 7b91 c0bf deca 3c83 7979 d33f
00000490: b53a 5aef b9de d33f 32cd 1e97 163f d23f
000004a0: 4952 310f a071 cfbf 4eed 3634 f756 d23f
000004b0: ec83 7cca 7ae6 cdbf fe33 ca48 b12d dabf
000004c0: b9f1 6cd6 69e9 bd3f c700 49dc 6b36 c9bf
000004d0: 1b25 8b9f 8d90 dabf d1db a648 b81c d73f
000004e0: c964 401e cdd6 d3bf d446 ad24 c0b0 b0bf
000004f0: febc 6687 822b d53f 559a bd01 564b d5bf
00000500: 8fde 67a3 8dff b13f dd4f a879 dd30 dfbf
00000510: 8bbb 4a1f fb73 e8bf a402 951e 41a0 e13f
00000520: dc6f 7fa2 5843 cb3f 144a fbe9 f5f4 d93f
00000530: 634f d219 dc9f c23f 3748 14f3 92e3 e3bf
00000540: 012b 24ab ae6a b03f 7311 08cb 35df b5bf
00000550: 63d3 3128 56fb d53f 88d9 cb64 8104 db3f
00000560: 6054 4f1e 072c bf3f da09 956a 84a4 91bf
00000570: b884 e146 f361 e1bf 89a9 c09d 1c6f dd3f
00000580: 9249 e4f1 db50 b9bf 172e 08ed 6ea1 d7bf
00000590: edba bde8 e056 d5bf c0cf 6663 d7bc 953f
000005a0: f0b4 c986 09df bebf 49c8 0674 6873 a83f
000005b0: fc34 4411 065e cbbf 37c7 43f4 ae53 92bf
000005c0: 1301 50fd 6d05 b5bf 71ea fc44 b45b c23f
000005d0: 9d55 7628 0b89 cbbf 1d0b 51db cebb cf3f
000005e0: e99c 32e6 2896 93bf 9d80 0f10 92c3 cebf
000005f0: 5aad aed1 b1eb d2bf 3626 cdff 4b43 a8bf
00000600: bdbb a5bc 3696 d13f fb77 8072 cc7f c73f
00000610: 2b56 44d8 2be4 d2bf b40a 71e8 1ed8 c33f
00000620: 6657 db57 c514 c73f 148d 1966 50c7 b13f
00000630: 9c0d 6780 a2f5 afbf 2876 14d5 2ac5 c9bf
00000640: 61ed 33ec a0f7 cebf 75cb dddd fa91 9fbf
00000650: ed43 5e81 338a 7cbf 4fe4 25b4 4fd8 c5bf
00000660: c194 67a4 b985 b8bf cd66 b0d1 e26e c23f
00000670: 1fec cb68 2a25 c73f 4c7e ee63 797b c0bf
00000680: 9278 3bb2 9c60 a2bf afab c845 768e b83f
00000690: 2545 f6ff 080f c13f 0f4f 1017 547e d33f
000006a0: fa54 06b5 f70d 8dbf fc44 c5cc c2cc c73f
000006b0: 6cc6 66d3 bc01 d7bf c59f 528b c868 d53f
000006c0: 8e36 186c 7f70 c7bf b2fc 1ebe fb3d 763f
000006d0: fe1e bf5d 66b4 e0bf 90fd c211 ab6c d13f
000006e0: 69df 86ac f1e1 d33f 5cf6 6179 750e d03f
000006f0: cbe5 8be2 d752 d3bf 40b7 7f93 9881 c1bf
00000700: 858e fe7f c1e7 d83f ad31 e279 b373 abbf
00000710: e29e f02d dc7e c43f 2c73 a178 4bf6 cabf
00000720: 6795 cd4b 41bb cc3f f380 5306 d699 bdbf
00000730: 6958 e104 f442 bd3f e93b 9713 5040 d4bf
00000740: f559 3b12 bc3a d23f 550b 3204 3bd7 b73f
00000750: bbf9 51f1 17ba a1bf 4a39 4745 ca59 b23f
00000760: 77c7 2ae6 ceb8 95bf 07db 0c1b b592 c23f
00000770: fa85 9b30 fe34 c4bf 509b b878 8363 b23f
00000780: caed 1218 03c9 b3bf 6d70 f856 d1be c8bf
00000790: b7d9 ef91 779f d43f 81d5 718f d644 b23f
000007a0: 2a74 1e48 fc34 c03f 4ff1 5891 5008 45bf
000007b0: 6826 31bc fcca d03f 44e0 02a0 4596 d73f
000007c0: 4e73 5939 5fa6 dcbf 202a fd7d 3623 dd3f
000007d0: aeb4 66b9 fed7 bebf fc50 838a 64b6 d23f
000007e0: 20b2 7f17 6f03 dd3f d20f 4847 db45 bd3f
000007f0: 3b05 c03b d616 a7bf 3827 4202 1cb1 a53f

bias f8 [30]
0.2635842198100143 -0.04574278052411147 -0.19902817927049052 -0.2998615597158567 0.04220641350208463 0.0872799875721148 0.023911272390131987 0.06348518587115072
-0.25583124898585186 -0.12631887470478015 0.10710502589773672 0.06037274612753085 0.4470730191246218 0.17369890423852427 0.06557730599485277 -0.23541414527506907
0.1196623229937194 0.037346257275164094 -0.0878320696889104 0.026345721985891732 -0.18093335069004948 0.044189159279869196 -0.17274496092484531 0.03294876934109769
0.1636057734848051 0.059886727139538264 -0.1545366749575821 0.14633075100943232 0.005465471615520258 0.19351167988603055
00000000: 0dd8 f458 90de d03f da21 c204 996b a7bf
00000010: cb7e 7960 c179 c9bf 70a8 138a ee30 d3bf
00000020: 2d87 583b 149c a53f 5caf 3734 fb57 b63f
00000030: 367a af53 327c 983f d1d9 18ad 9040 b03f
00000040: ac19 ec07 8a5f d0bf 22be dc85 372b c0bf
00000050: a7cf 7727 3c6b bb3f 30fa 5f34 2de9 ae3f
00000060: 651c 0427 d89c dc3f 8b1a 8704 c43b c63f
00000070: bf90 9ba0 acc9 b03f 8771 7cfb 0c22 cebf
00000080: 2a48 d2a3 30a2 be3f f6e9 3f73 0c1f a33f
00000090: c596 da9a 297c b6bf 2c91 4679 5ffa 9a3f
000000a0: 5117 fcf3 d228 c7bf 4db9 e323 f69f a63f
000000b0: 024a dcc2 811c c6bf 7fe4 863d a9de a03f
000000c0: 30ea 46b3 08f1 c43f e3bd 0e1d 79a9 ae3f
000000d0: d2d9 7c96 dbc7 c3bf 6208 fe4e f7ba c23f
000000e0: 0fb5 885d f662 763f 2f94 40a0 fdc4 c83f

weight f8 [30, 30]
0.45939566588943337 0.19226969920258685 -0.12886057189473155 -0.16903080597496634 0.06214318059043265 0.8327410714508398 -0.032365513963287185 0.24221649913011964
-0.3602478756656654 -0.5832568587056067 -0.5968841635461658 -0.0017474488416400142 0.26288287898108165 0.03333379070242033 -0.008741667742371818 -0.22890837882542475
0.09687221240508619 0.1865269520236968 -0.3968464884241733 0.1953590242498015 -0.3254692120897851 -0.0717618215042729 -0.2513464553479315 -0.4859315395571655
-0.04095628615635831 -0.182335492771394 -0.05321437069096675 -0.21654378024398385 0.21268566622693957 0.22428636759318146 0.04580899819507799 0.11807801929135602
-0.24749830773542822 0.25561804125240506 0.10217844841863874 -0.645943567068036 -0.19173768740289546 0.11185971224251236 0.4236748290231417 0.40167122989517073
0.40882053102682736 -0.3114720251993128 0.06829494791035784 -0.1683803598317771 -0.09772533740637898 -0.033332968645623316 0.00043000941239141493 0.24971406637358953
-0.05383397273586371 -0.2258090242793612 -0.22982437637810374 0.3811773963398715 -0.22631572760402693 0.3801200322188575 -0.24396876774120904 0.014197729628081465
-0.07683958548162581 -0.021964222443320986 0.1926722007780039 0.1710311721967435 -0.19032684043170894 -0.07640923520417285 -0.02116123451253821 0.192929271369842
-0.1617568157113518 0.21704125401582866 -0.23746619448427497 0.26174010790565916 -0.2555170119075943 0.2869251614744645 0.2866549812583096 -0.22707441938986309
0.017990081587037608 -0.09582098016379882 -0.2871612042519528 0.17457466925213627 0.11634100488049666 0.08190284306269228 -0.06110292784294353 0.1745967052931901
-0.20332635150838516 -0.22444579464423522 -0.37194376242844085 -0.28046539265843606 -0.21761418268657598 -0.225074438495869 0.029801250810992948 0.3314357836660428
0.2934782534341264 0.10138448804437956 0.25337034446927253 0.25132179283830025 0.22728034555292698 -0.21500944721042808 0.22879232939446098 -0.15739611064329445
-0.1875726534597139 -0.23168828114748868 -0.12774298830000502 0.28651301586154193 0.008689250229795597 -0.3238128441656932 0.013965557928404098 -0.24011135939773662
0.08404984690292099 -0.09046090990775026 -0.0992902171001686 -0.1104696826687765 0.07989035326926182 0.04295897031966124 -0.21510100835469928 0.10592296067907271
0.03165836573543802 0.1064135644669339 0.09562969182213146 -0.22981522712192098 -0.20804605911619556 0.3127495885907806 0.25184389526239803 0.05495319828117228
0.31631746289123913 -0.12762176367229258 0.3090020341687778 -0.2554654296959084 0.08618511666358183 0.5821809385283835 -0.09113856846253561 -0.10661964749805392
-0.3642138979127474 -0.4707096781410024 -0.3395456706835656 0.3993525295184188 0.34708664599461664 -0.4327555760149893 0.17971544217439722 0.06277247191471774
-0.17731772100465004 -0.07175638453952109 -0.16513734358677057 0.10184821429267375 -0.050039030664289184 0.24380628207930624 0.01784162704478186 -0.2992957536204239
0.13811808734166037 -0.31488103198107736 -0.1252828636327032 -0.056215885119667144 0.0787778366438574 0.014882061537746603 -0.2926889004405143 -0.006329529559960497
0.14413288169895527 0.19905142068709542 0.09858312458117918 -0.5245084185669612 0.18532884361889007 0.15618109386578208 -0.06928533046714554 -0.005102000951169266
-0.02668230999752605 -0.3786479463619402 -0.012761613709859041 0.0038443459584166016 -0.11356114888458928 -0.009580231187326746 -0.10007561578759062 0.13044224432440418
0.0684130292487316 -0.2653256965948026 0.006367894493790683 0.04660800679115357 0.19195627801085682 0.2425197584518397 -0.18245591113664167 0.056842494731028974
0.06311597373965049 -0.22931772027856503 -0.06910165698768349 -0.20749997725911487 0.40687691231740913 0.13818799891476638 0.08599629099721015 -0.29825762466748984
0.24434293311017716 0.5994256184325203 -0.26213824582431344 0.10491814025981672 -0.003850155477860517 -0.3456800567248435 -0.37971051035789866 0.42824947038073635
0.40246310410175457 -0.36376774838371595 -0.06358041156957503 -0.14321185175794543 0.2084195790106524 -0.310878186783956 -0.2687789871612105 -0.07497210359453013
0.12771271657355318 0.14907213088508764 -0.3994857268235997 -0.15061649555371756 0.02251434211409643 -0.41451824455653924 0.15034034525388965 -0.17990225347049577
-0.1131278005617844 0.31106466276079525 0.06250022228553602 0.23312603613583177 0.1374807720965963 0.05470712409641727 0.02719477841201538 0.16127244541805516
-0.06753165297114383 0.21516337418978224 0.3491125980165948 0.040489833510155136 0.13174519092986278 -0.19768793392934805 -0.2861737556755639 -0.08066754113486826
0.03148254027435674 0.09964870319748446 0.0004717617115727615 0.08542823183495256 -0.25711424244221587 0.03655978035402166 0.33995911839653875 -0.02690071437296721
0.2780552929916359 0.011208672235168377 0.09650198193956822 0.030698386918221604 -0.0725786919168245 -0.24588798047033236 0.042239582047886325 0.1383579615335689
0.26075545285599594 0.2878757306359499 0.2931189471811537 0.014796310573007393 -0.07061177490021094 0.0935361532165611 -0.09860159871210718 -0.18819669333915143
-0.008074505782563577 -0.3290781495744121 0.26588832977381327 -0.008012681545346708 0.10868103572327854 0.24335576585789448 -0.09485741682568966 -0.2226058312591955
00000000: 24d5 3a14 bd66 dd3f 7c1e 0b23 4b9c c83f
00000010: b00f 04d3 807e c0bf 88e9 d62b cda2 c5bf
00000020: 3e54 9c20 3bd1 af3f fb5a 7d9a d0a5 ea3f
00000030: 5829 fb6f 3692 a0bf 8761 2843 f300 cf3f
00000040: 1e00 1c1b 4d0e d7bf 61dd a949 0aaa e2bf
00000050: 8dcb 3dd1 ac19 e3bf e4eb 14e8 54a1 5cbf
00000060: 8abb f9b5 12d3 d03f 4a53 d669 2011 a13f
00000070: 3423 87c8 26e7 81bf 3af4 6aa8 de4c cdbf
00000080: 5bc7 2b08 9ecc b83f dad5 617b 1de0 c73f
00000090: f31c 54d0 ee65 d9bf aed0 1046 8601 c93f
000000a0: f4f3 71d1 7cd4 d4bf 7855 7694 fb5e b2bf
000000b0: 3dd5 6b71 0f16 d0bf 988c 9f99 8019 dfbf
000000c0: d6df 36eb 38f8 a4bf 0e35 2df9 c456 c7bf
000000d0: 2a00 97fb e93e abbf 626a 26e3 b4b7 cbbf
000000e0: 16e7 62ae 4839 cb3f 312c e06a 6ab5 cc3f
000000f0: 1f84 38ea 4674 a73f d39a 3b6f 5c3a be3f
00000100: 37fe c448 06ae cfbf 0e96 dcc5 0b5c d03f
00000110: 4e67 50e6 5d28 ba3f 30cd f3d7 91ab e4bf
00000120: 852e 674c dc8a c8bf d951 d28d d6a2 bc3f
00000130: febc b207 7d1d db3f ef34 093f fbb4 d93f
00000140: 9063 ac96 1d2a da3f 5b65 765c 28ef d3bf
00000150: 70cb c117 c77b b13f ab12 62d5 7c8d c5bf
00000160: 86a5 2618 8704 b9bf b34f 6cd4 0411 a1bf
00000170: 843c fa5c 5c2e 3c3f a97e 366a a1f6 cf3f
00000180: a8ea a060 2090 abbf 93f4 3563 4fe7 ccbf
00000190: e50b 2f9a e26a cdbf 7544 d0e0 3565 d83f
000001a0: 539b 50ec e9f7 ccbf 2ece bbf8 e253 d83f
000001b0: 21d2 585b 5e3a cfbf 5ec3 7003 b313 8d3f
000001c0: 1689 ae52 c2ab b3bf c5f5 4d04 ca7d 96bf
000001d0: be4d 9890 7ba9 c83f 493d 9775 59e4 c53f
000001e0: 0244 9a41 a15c c8bf 9775 503e 8e8f b3bf
000001f0: b185 b268 4aab 95bf 0ebf 7c07 e8b1 c83f
00000200: 5053 b184 72b4 c4bf 79be f0ff 01c8 cb3f
00000210: b496 9bd1 4a65 cebf 8067 e094 59c0 d03f
00000220: a1be 6d06 645a d0bf 87ab 3b5a fb5c d23f
00000230: 0f5b 6f22 8e58 d23f b9d1 844a c610 cdbf
00000240: d958 46f0 fd6b 923f 81fd 1248 b987 b8bf
00000250: 964b 3c63 d960 d2bf c4ef 9277 7658 c63f
00000260: 1d40 252b 86c8 bd3f d357 67b0 95f7 b43f
00000270: d9f2 8c09 e248 afbf fa9e 9c51 2f59 c63f
00000280: af5e 120f 9906 cabf 6561 dcc9 a3ba ccbf
00000290: ca34 e535 edcd d7bf 922d 481e 25f3 d1bf
000002a0: 356e e412 c8da cbbf 5aae 403c 3dcf ccbf
000002b0: a2d2 7316 3884 9e3f 5b77 e46e 3e36 d53f
000002c0: af8d 2503 59c8 d23f 85e9 7874 55f4 b93f
000002d0: d864 d13f 3837 d03f 38ce 4000 a815 d03f
000002e0: fc31 96b9 8517 cd3f 22c7 0cf8 6d85 cbbf
000002f0: 5295 292a 1149 cd3f 9282 dd45 8e25 c4bf
00000300: 76e0 1d76 6102 c8bf a68c 322b f6a7 cdbf
00000310: c25a 85da e159 c0bf d53b 40b0 3a56 d23f
00000320: 3986 826c abcb 813f 72d9 ed81 59b9 d4bf
00000330: e346 9574 f999 8c3f ef74 0112 f8bb cebf
00000340: e38d ae6f 4a84 b53f c1c4 9e39 7228 b7bf
00000350: ef09 426b 156b b9bf 6d0b 43ba bd47 bcbf
00000360: 8daf 8eb6 b173 b43f d280 2fd9 b7fe a53f
00000370: cd2a 1c0a 6e88 cbbf b919 0364 c41d bb3f
00000380: b1ff f47a 8635 a03f 1c7c 3c5b eb3d bb3f
00000390: aa11 e7fe 2f7b b83f 6a44 4eda 956a cdbf
000003a0: 749d fbd5 40a1 cabf 4e6e b5d9 1604 d43f
000003b0: 185a 76db 351e d03f 0f42 db5a d322 ac3f
000003c0: 5561 9199 8b3e d43f b37b 9df2 e855 c0bf
000003d0: 84c0 c977 b0c6 d33f 635c 73ac 8b59 d0bf
000003e0: ded6 7851 3a10 b63f 13b0 6aeb 39a1 e23f
000003f0: bd6a f372 db54 b7bf 147d 1ddb 6c4b bbbf
00000400: f42b 12cf 474f d7bf c2ae 617c 1b20 debf
00000410: 2d65 c5c3 1dbb d5bf a0d0 76e9 fd8e d93f
00000420: 9b36 5be8 aa36 d63f 6958 8971 44b2 dbbf
00000430: dad3 5c65 ea00 c73f 7c79 f651 db11 b03f
00000440: 3cad 5bda 58b2 c6bf 935e e05c a05e b2bf
00000450: ecd8 0671 3823 c5bf 3f04 8b7d b912 ba3f
00000460: 330d 7440 b79e a9bf 2d84 0b54 0b35 cf3f
00000470: bdb8 a852 1345 923f c368 6860 a927 d3bf
00000480: 1a2b 0f7e daad c13f 4553 9fc5 0227 d4bf
00000490: b69d 06d5 4409 c0bf 7296 3518 54c8 acbf
000004a0: a0f5 08c8 c82a b43f 323e d07c 7c7a 8e3f
000004b0: 52d4 d239 6abb d2bf a274 5827 feec 79bf
000004c0: 966e 963e f272 c23f 9665 0957 847a c93f
000004d0: 1c7f 0360 be3c b93f cd18 07e1 c5c8 e0bf
000004e0: f29f 2c05 dbb8 c73f e519 34f9 bdfd c33f
000004f0: e5ed 72f4 aebc b1bf d3c1 abf3 d5e5 74bf
00000500: 98d0 4883 9b52 9bbf 369d 9498 c43b d8bf
00000510: b267 39cc c222 8abf 8f20 4f85 2d7e 6f3f
00000520: 1b35 8eec 5712 bdbf f8fb 19dd cc9e 83bf
00000530: a14c ef38 8e9e b9bf aff0 b1da 54b2 c03f
00000540: 285c 3e2b 8483 b13f 2970 6aa1 18fb d0bf
00000550: 5afa 85a9 3815 7a3f 18ac cc31 01dd a73f
00000560: 11c5 28f8 0592 c83f c09c 972f e30a cf3f
00000570: de99 a51d b75a c7bf ef1f c99f 751a ad3f
00000580: 7f26 1153 5e28 b03f e9ae 7e76 485a cdbf
00000590: f38b dc6c a5b0 b1bf 81d3 1ff8 5b8f cabf
000005a0: 97a5 f975 450a da3f 03f1 04f4 24b0 c13f
000005b0: 860a 6959 da03 b63f 52b0 ee25 a716 d3bf
000005c0: 3fc4 5b15 a146 cf3f 07ac 71a2 7e2e e33f
000005d0: b628 367e dfc6 d0bf 404d 2c4d eadb ba3f
000005e0: 32e6 947b 5c8a 6fbf e4ce a03e 9f1f d6bf
000005f0: 35d1 fb4f 2d4d d8bf 2222 7477 7068 db3f
00000600: ecac 7d9b f4c1 d93f 8e72 a985 f847 d7bf
00000610: 0e88 5b4c ce46 b0bf ce98 d915 c454 c2bf
00000620: 0e32 d925 7ead ca3f 3fb8 519f 6de5 d3bf
00000630: dc66 edc7 ac33 d1bf 4203 0d2d 5f31 b3bf
00000640: bfbd 7bea e358 c03f f4bf 72ab cb14 c33f
00000650: 0d46 fb94 2c91 d9bf a317 52bd 6647 c3bf
00000660: 23b4 48ec ff0d 973f 79cd fd87 7787 dabf
00000670: 4941 1139 5a3e c33f 2af5 907b 0907 c7bf
00000680: 0068 ae8b f1f5 bcbf baed 5fc2 7be8 d33f
00000690: 1388 b5ba 0300 b03f 6656 86ee 12d7 cd3f
000006a0: 39ea fd4d f898 c13f 0a64 b479 9202 ac3f
000006b0: eb35 9baf f2d8 9b3f cf82 6853 93a4 c43f
000006c0: d0b4 f420 c149 b1bf 8f97 b833 798a cb3f
000006d0: 6895 c65d dc57 d63f 8342 7e5d 15bb a43f
000006e0: 077a 39c3 06dd c03f 792a 8595 d64d c9bf
000006f0: 1467 66ba ab50 d2bf eee2 05c3 a0a6 b4bf
00000700: b529 bfc1 7a1e a03f 036f 52d1 9382 b93f
00000710: 19ec 691f d9ea 3e3f cbdf e2e5 9fde b53f
00000720: 2b02 a84b 8f74 d0bf e45d f0a9 f6b7 a23f
00000730: 395e dfe3 e3c1 d53f d13b e261 dc8b 9bbf
00000740: d63d 786d a8cb d13f 2afb 7385 92f4 863f
00000750: 1cfc 6d98 5ab4 b83f 8834 6adf 656f 9f3f
00000760: 0e52 2b64 8494 b2bf 85be 4ce1 4179 cfbf
00000770: 4b19 fc2e 6da0 a53f 93c5 f6b3 b6b5 c13f
00000780: 814a 91a3 37b0 d03f 452f 1954 8e6c d23f
00000790: d0c8 fef8 75c2 d23f 1da7 1930 874d 8e3f
000007a0: f5ae e8ff 9c13 b2bf e30b 0f3f fcf1 b73f
000007b0: d143 cd51 f43d b9bf 0fb2 8d49 d416 c8bf
000007c0: 1fc9 23d2 5d89 80bf db04 90cc 9d0f d5bf
000007d0: d40f 317c 5004 d13f f132 86e9 f368 80bf
000007e0: cd7b 2036 85d2 bb3f 5a8b d31f 4826 cf3f
000007f0: fca3 0c5f 9348 b8bf 231d 940e 597e ccbf

bias f8 [30]
0.2031404850755326 -0.19101981384260053 -0.08420910298225082 0.14844450348910934 -0.11012843769485504 -0.09694945516980376 0.002716780456416099 -0.03908831392703656
0.0749328641507921 -0.012993025625042193 0.051245586311565346 0.11757044977112496 0.10129927317301267 0.17661284324321988 -0.08557886248295939 -0.0025017584642842592
-0.07424511864479548 -0.0191798297895766 -0.1602654495880925 0.046412942749711944 -0.01948430538914438 -0.2511483694140202 0.08094942051448188 -0.09143193243798396
0.21245060716626396 0.03169840802802685 0.008843729733289866 0.0738875806481428 -0.025627915190404298 -0.04524828030194998
00000000: 734d f2e5 8100 ca3f eac5 ab56 5673 c8bf
00000010: 4892 554f ba8e b5bf f9da e0bf 3a00 c33f
00000020: 414c 4296 6031 bcbf 4dbf 51f3 add1 b8bf
00000030: fb35 be66 8041 663f dade f12b 6203 a4bf
00000040: f55a ecd8 cc2e b33f aacd 1561 169c 8abf
00000050: 8987 8b8a dc3c aa3f c034 bed4 1819 be3f
00000060: 1ffc 62c9 bfee b93f 0740 e4e8 3f9b c63f
00000070: 6ddb 970f 7fe8 b5bf 26c3 2b59 917e 64bf
00000080: b38f 7764 ba01 b3bf ae9d c196 e0a3 93bf
00000090: 936d 5408 9483 c4bf 5c38 71ee 6fc3 a73f
000000a0: e502 ba99 b1f3 93bf a4ec 449c d012 d0bf
000000b0: e366 bde9 19b9 b43f cf97 a147 1568 b7bf
000000c0: 70b0 e5dc 9431 cb3f 759b a113 c63a a03f
000000d0: cf48 d54f a91c 823f b6de 76e6 4bea b23f
000000e0: de06 6e46 343e 9abf 36b9 3158 c82a a7bf

weight f8 [30, 30]
-0.17465757432376158 0.3329687940868027 -0.017672692283479268 0.27392854444516745 0.23826885100937195 -0.1393188235554408 -0.12427690241966734 0.24144193755959364
-0.24623943773720952 -0.006634063587666448 -0.24496064366684797 0.06544088631694113 -0.07046052998107846 -0.12004022571358211 -0.09830516842495418 -0.25422502298725175
0.044924471118457474 -0.0704346700791868 -0.18088374348480896 0.24624136906249447 -0.22610511169204223 -0.05436448159625731 -0.19921921843364807 -0.1995201430476292
0.2861748503397451 -0.1475190107965418 -0.19473659408457797 0.045636191824868354 -0.17775562004599638 0.29761876260900677 -0.053005668368429924 0.06935723071110192
0.1665877647217528 -0.2568196531423398 0.37533469403590763 -0.32896876200118913 0.2677073472066618 0.26995912261575394 -0.01941366377585423 0.03316016480715389
-0.19122439688566517 -0.30895241071884033 -0.22169997963672447 0.3423942447786127 -0.05346765769798534 -0.20791921666325214 0.044556918978352164 0.11479730939855863
0.09270338674203424 0.0895319456623136 0.04109337952756209 0.3678438675603333 0.08028004224901507 0.19424500535920877 0.37027687448629026 -0.33859585312788437
0.01989466559725999 0.1943437735215338 0.05761978433160579 -0.09445941044732174 0.32332955802166347 -0.3815677189581016 0.24065321469680218 0.033678596552142386
0.3442293764021513 -0.055577904032073334 0.28317432108783797 -0.2366536329697357 0.2813473623493001 -0.06039227961274066 0.030735981248172017 0.11477594353016697
-0.32048773487093907 0.04066453143925789 -0.1881335743759863 -0.13862057424215343 0.1617089734355536 -0.03379120890104503 0.288463071293039 -0.10745250549671626
-0.2776338907445147 0.3685163316040877 0.21801828397769712 -0.08848443020220219 0.3732824173119887 -0.23026640983396027 -0.4371941994431498 -0.29658495792338085
0.12653574297955242 0.12531525686312034 0.5119251329318655 -0.051561159360801176 0.12781365210527745 0.2066960065108007 0.4426818219461562 0.04791287706232295
0.18048901810431886 0.23351401954292805 0.27984917379735036 -0.26483035933006943 -0.07493519098621872 0.09977826332269733 -0.49700141930149927 0.10623964461210667
0.12093228160639875 -0.07269256980666547 -0.1478724396696041 -0.32690713661515836 -0.07931806160146919 -0.30979297288227087 -0.4091369225001973 0.5644419389894538
0.02578594500304766 -0.13048039288074686 0.4324312632887379 0.04262620578162378 -0.2336986781499753 0.24133618974170215 0.14006769115617718 -0.34608417435708244
0.2516198144525953 -0.30059843138293696 -0.3137239779971277 -0.02415502171529366 0.2100411861181216 0.2740966249591967 0.3087987865439684 -0.2446512110698372
0.1242658269777452 -0.3386278801653317 0.2041555234956654 -0.04586549806290125 -0.14451883889056977 0.40373646541968017 0.055678420979152835 -0.1681854894191805
0.09086864350432869 -0.3874901282354144 0.3250568041184074 -0.22543476809843535 -0.3897108911788868 0.8043547703099452 -0.3252995045841543 -0.3777490921565528
0.10713981202059661 0.17868431000323215 0.2461838589258817 -0.07351648934719225 -0.40999996103939357 -0.071340123425292 -0.024399158511433684 -0.13554271966902445
0.09614640750667677 0.0805716847277232 -0.33367249549391864 0.22473419274441517 -0.18286116481262815 0.13145843832434181 0.07898967636768804 -0.21163735866606936
0.2376773799327596 -0.10555560799816527 0.14290967046083644 0.15079201796199204 -0.1264965633621657 -0.202890686646838 -0.2167991838617902 -0.17436046591398185
-0.040519098550368844 -0.19558633350407037 0.3799811465716666 -0.08625876606162479 -0.11302541818253682 -0.08406383718237875 0.03533926197477419 -0.25885686853621354
0.2589549296720862 0.1478938722698655 0.20355773476855368 0.28220600241970606 0.1972124674077993 -0.3484426760766711 -0.2120613378358312 -0.00954681317486302
0.3320009647365931 -0.15882095425307566 0.43762618891182753 0.1438794102561265 -0.01827358675570041 0.2521423584884007 -0.14994510096724034 -0.051897152686938695
-0.04957768982017682 0.2312745254435296 -0.04353305613931641 0.042405036984509224 0.14903831763466777 -0.2863602737354742 -0.23028714163132785 -0.17510333126872574
-0.24109437022083374 0.1418731312830119 -0.18580761189333733 -0.15838537511105918 0.1213336536713034 0.20729837785735744 0.19803119400862657 0.13597709226335755
-0.038375318396288056 -0.2674255313713041 0.6794616542055706 -0.6486389705492603 0.316882878984777 0.2530187108426654 0.4869700930013436 -0.22513727852035495
0.5771609962528813 0.09524554210913627 0.33681779972354936 0.27506446475159985 -0.5466870591196402 0.354458865774891 -0.25716834867113425 0.1192511858708018
-0.12699569427847743 0.35396335567070136 0.15998286764489195 -0.11501651031637766 -0.0586395625519604 -0.14559293386174535 -0.102152874514141 -0.3502193422683808
0.13291587146691874 -0.184318770585276 0.8202703204809721 0.3739563163361734 -0.20701456152889086 0.10910361852616644 -0.26400456585344295 -0.5356573571487945
0.2430240903873227 -0.055162556418168134 0.22697608722277682 -0.28441703937699964 0.3231025163227212 -0.34865906487184717 0.06319898632442966 0.05211710997863166
-0.12172712311654979 -0.02896476766791964 -0.3808587315152521 0.1380561763431841 -0.023095854086696385 0.15387376897860347 0.13599938196526426 0.25616490390988234
00000000: 3b10 dcec 2d5b c6bf 803f 4c58 5c4f d53f
00000010: ab2b 8f4d ca18 92bf da4d f596 0b88 d13f
00000020: ded0 5efd 977f ce3f d9a3 71ff 32d5 c1bf
00000030: 5568 8a6f 9cd0 bfbf 24c5 d9c4 91e7 ce3f
00000040: 0a8b 081e c684 cfbf cbb6 60e2 512c 7bbf
00000050: ab98 add0 de5a cfbf b171 8de2 bbc0 b03f
00000060: 8a74 ed87 b309 b2bf 6af0 a4cb f4ba bebf
00000070: 18b7 690b 872a b9bf ab86 e307 3945 d0bf
00000080: b6dc 7c1c 5700 a73f d8a1 7eac 0108 b2bf
00000090: 7099 52d1 3227 c7bf d7d8 8551 d684 cf3f
000000a0: ee7e 1626 03f1 ccbf d332 0a4d a9d5 abbf
000000b0: 171f f4ed 0380 c9bf 1733 a444 e089 c9bf
000000c0: ce66 c951 b050 d23f cf67 7427 e7e1 c2bf
000000d0: 87be 76f3 20ed c8bf b3b7 cd7e a05d a73f
000000e0: 868d 6337 b2c0 c6bf 1c3a 0591 2f0c d33f
000000f0: 2341 4a18 8f23 abbf 0233 a53d 65c1 b13f
00000100: ce63 b274 bf52 c53f b6d9 cdb2 bb6f d0bf
00000110: 930e fcce 7b05 d83f 83d8 8cfe d20d d5bf
00000120: a8b2 49ff 1d22 d13f 9e0e b9a0 0247 d13f
00000130: 4d24 0dec 2ce1 93bf 50de c07e 5efa a03f
00000140: ec1e 6981 0a7a c8bf a7b2 0355 e0c5 d3bf
00000150: f723 0839 aa60 ccbf aa6a ea8c c9e9 d53f
00000160: 80c3 69e2 1c60 abbf 5ea9 e3cd 189d cabf
00000170: 8624 a51b 2ad0 a63f 431d 8941 5b63 bd3f
00000180: 0615 49be 68bb b73f 701f 91ca 90eb b63f
00000190: 6055 4e02 310a a53f 9d2b 4d01 c18a d73f
000001a0: ff23 fb9b 3b8d b43f 45ee b634 05dd c83f
000001b0: c38e 98c6 9db2 d73f fdb5 eff0 8dab d5bf
000001c0: 2e9c 6b68 445f 943f 5e65 babb 41e0 c83f
000001d0: 8617 9d22 5780 ad3f 2fb2 abee 7d2e b8bf
000001e0: 9b1f 6275 6eb1 d43f 7299 8802 9b6b d8bf
000001f0: 7267 667b b9cd ce3f b783 882d 523e a13f
00000200: cb0f 7ea6 da07 d63f d55d 6500 b574 acbf
00000210: c1e9 0830 871f d23f 3fd4 0a8f aa4a cebf
00000220: 6fca 065e 9801 d23f 3437 bca3 bceb aebf
00000230: 83e1 15c9 4079 9f3f 5161 d4cb f461 bd3f
00000240: 1e8c 02fd de82 d4bf b50d 4741 fbd1 a43f
00000250: 9bba 9cce c214 c8bf f31d 76a8 51be c1bf
00000260: 450e 3030 e1b2 c43f 209d 3ed2 144d a1bf
00000270: 1dab 53d0 2d76 d23f d84d fbe4 0182 bbbf
00000280: 4692 40f0 c0c4 d1bf 3e03 1286 c595 d73f
00000290: be9f ceeb 05e8 cb3f 8774 ec65 eaa6 b6bf
000002a0: 59b7 a1ef dbe3 d73f 2b56 cda5 5e79 cdbf
000002b0: 9ffd 2661 fdfa dbbf a10d b179 3ffb d2bf
000002c0: 89a5 efbe 5232 c03f 565e f590 540a c03f
000002d0: 8a2b fed0 b061 e03f de9f 656a 3966 aabf
000002e0: 6e22 e39f 325c c03f 9dbe 16c6 0375 ca3f
000002f0: 45b7 f222 e654 dc3f c173 1460 0988 a83f
00000300: 29c9 059f 431a c73f ac14 8c92 c9e3 cd3f
00000310: 616c 5182 0ce9 d13f 7de0 1309 fbf2 d0bf
00000320: 79f6 9ae2 f32e b3bf ef99 d279 118b b93f
00000330: 1fcb 7d0a dfce dfbf 18cd 2577 8532 bb3f
00000340: 95b7 8702 6bf5 be3f e658 fbf1 fa9b b2bf
00000350: d92a 2eee 7bed c2bf bcd4 25e9 0bec d4bf
00000360: eb77 8f40 304e b4bf 85d6 c3e7 a5d3 d3bf
00000370: 205d 6ea1 4c2f dabf c16a 8e8a e80f e23f
00000380: 632c f079 a167 9a3f bc94 18de 94b3 c0bf
00000390: 43f5 652d f4ac db3f 5ebc 911f 1ad3 a53f
000003a0: b2e3 e299 d6e9 cdbf 0914 24b1 1ae4 ce3f
000003b0: 2afa 5ef4 bced c13f 99b7 a13c 3e26 d6bf
000003c0: f65d 86fe 891a d03f fa30 0134 013d d3bf
000003d0: f8fe 5dbc 0d14 d4bf b196 3411 18bc 98bf
000003e0: 6b5e 982c a1e2 ca3f d332 0992 cc8a d13f
000003f0: 960d 50fc 5bc3 d33f 1b62 3c1b bb50 cfbf
00000400: 3d3b e19e e2cf bf3f e3ba b445 14ac d5bf
00000410: 1a17 5ba8 c421 ca3f 89cb 63bc ae7b a7bf
00000420: 166f 58e3 977f c2bf c387 cb78 d1d6 d93f
00000430: 4a92 65ca e181 ac3f 0ecb 5b24 1a87 c5bf
00000440: d23d 15dc 2a43 b73f 18d0 1265 a3cc d8bf
00000450: 40f9 c10d bbcd d43f 9d9b 2ee6 0bdb ccbf
00000460: 8a88 20f3 05f1 d8bf 1c9c 1b37 46bd e93f
00000470: 3103 6603 b5d1 d4bf 49fd 3987 0a2d d8bf
00000480: 7e61 bac4 836d bb3f b4d7 e2a1 20df c63f
00000490: fde2 71e3 f382 cf3f 2182 7605 fad1 b2bf
000004a0: 4ba1 017a 703d dabf 6415 01a9 5843 b2bf
000004b0: 9a15 6dcf 17fc 98bf d13c 18be 7659 c1bf
000004c0: 167b de0b 0d9d b83f 35a2 e38e 58a0 b43f
000004d0: 4e26 eee1 e35a d5bf 2bab 100c 17c4 cc3f
000004e0: f812 4aa1 fe67 c7bf a971 b14e a1d3 c03f
000004f0: 3f89 b8dc aa38 b43f 5092 0ad7 ee16 cbbf
00000500: a0b3 e75e 366c ce3f b4f2 423c b105 bbbf
00000510: bba9 7434 dd4a c23f 4482 d220 274d c33f
00000520: ce33 5915 0a31 c0bf ddd3 e76f 52f8 c9bf
00000530: 5031 3e5e 13c0 cbbf 966e 6899 7151 c6bf
00000540: b143 4656 ebbe a4bf 67e6 f814 f908 c9bf
00000550: 0ecd 6771 9c51 d83f c35d 3af3 0d15 b6bf
00000560: b5f1 b5da 3bef bcbf 707e 7927 3585 b5bf
00000570: ac92 e4dc fc17 a23f 0350 2d66 1c91 d0bf
00000580: 0218 85b2 b792 d03f 90c4 56b8 2fee c23f
00000590: 45e2 d60a 2e0e ca3f 8629 c8c3 a90f d23f
000005a0: a8a2 f014 423e c93f eaeb 9182 e24c d6bf
000005b0: 921d 606f d324 cbbf 6bbc ef92 478d 83bf
000005c0: f72e 72f9 803f d53f 51de 37ba 3e54 c4bf
000005d0: 73f6 4f46 1102 dc3f 1015 cff8 a36a c23f
000005e0: b343 fca5 4fb6 92bf 1e37 e9b3 1923 d03f
000005f0: 78c3 6cac 6631 c3bf db82 177b 4392 aabf
00000600: cc1c c738 3f62 a9bf c2c4 9655 679a cd3f
00000610: 899b d3f8 f649 a6bf 7b7a 11ee 1cb6 a53f
00000620: bbbe 0b06 b013 c33f 6b51 a40a ba53 d2bf
00000630: c678 ff8e 0c7a cdbf 6e23 9c34 c969 c6bf
00000640: ba91 ac29 2edc cebf cf54 8515 e628 c23f
00000650: de01 3738 8bc8 c7bf f322 22d3 f845 c4bf
00000660: ed24 6cea b80f bf3f 3aa2 b4d4 c088 ca3f
00000670: c86c ed0e 1659 c93f a55d 2386 b267 c13f
00000680: 61a6 f802 eea5 a3bf 28bb d6f9 7f1d d1bf
00000690: 195e f65d 26be e53f 1e72 ad83 a6c1 e4bf
000006a0: 6fb9 7920 cf47 d43f dd19 1664 7531 d03f
000006b0: cb88 e49b 842a df3f b17c 2d60 4cd1 ccbf
000006c0: 59da 6d56 1a78 e23f f0d2 7208 0362 b83f
000006d0: 1d7e a13e 6c8e d53f 6897 19fc a79a d13f
000006e0: b816 02dc 757e e1bf 3ff2 113d 74af d63f
000006f0: 58f7 c63b 7275 d0bf 0c06 53e7 3e87 be3f
00000700: 0356 d418 6541 c0bf 14a3 25eb 55a7 d63f
00000710: f640 3a90 517a c43f 5413 4fd6 b871 bdbf
00000720: 3828 d336 0106 aebf 6d81 bb0c caa2 c2bf
00000730: 670a 3bd7 b026 babf 7009 5e63 fe69 d6bf
00000740: c0ed 8824 6303 c13f a7f1 d9e9 c197 c7bf
00000750: ff0b 0b8b a73f ea3f c7f9 3279 e6ee d73f
00000760: 9cfb c701 747f cabf fff4 71f9 36ee bb3f
00000770: 2d74 1568 73e5 d0bf 8f1b dae5 1a24 e1bf
00000780: 0246 2dd4 691b cf3f 3f40 8f3f 443e acbf
00000790: 7745 cc6b 8d0d cd3f ad28 a386 e333 d2bf
000007a0: 1321 372d b6ad d43f 9206 451c 6e50 d6bf
000007b0: e85d 670b cf2d b03f 162c d705 18af aa3f
000007c0: 025e d23c 8229 bfbf f8d4 7aa7 f0a8 9dbf
000007d0: 6542 104d fd5f d8bf fbcf 3325 d3ab c13f
000007e0: 4cf6 e687 70a6 97bf a3d8 bcba 22b2 c33f
000007f0: 2f94 e880 6d68 c13f 6442 2b7b 0165 d03f

bias f8 [30]
0.05471364615134951 -0.07074198783489108 -0.07605065051885761 -0.0010008001460243398 0.017058490880396536 0.046929725055618425 0.09911324764821751 0.0483124821541841
0.001429413680561942 0.1363415605685396 0.030084299958971435 0.05174570655660686 0.02437028471682255 -0.032500987437589925 0.07096600289951131 0.0038472454476810784
0.016427973433246937 -0.030435654476947564 -0.03643664438542723 0.10164392482648246 0.06856579003464242 0.014651654129178427 -0.023467353581104626 0.018859788242700282
-0.05093079572578879 -0.0033953329533868088 -0.016243691779103137 -0.013077914069604077 -0.063546576536032 -0.10891543317483053
00000000: 5adc ba51 6d03 ac3f 7a73 349c 251c b2bf
00000010: af69 d130 0e78 b3bf 388e 68f9 a865 50bf
00000020: 363a cdf1 c777 913f 5ff7 a544 2c07 a83f
00000030: 81db 3f5d 7c5f b93f e87d aee5 69bc a83f
00000040: 3484 ab40 656b 573f 171e dde7 a373 c13f
00000050: 7f8f c931 6bce 9e3f b6f2 bcca 697e aa3f
00000060: bc6e 691f 86f4 983f e5a9 432c f8a3 a0bf
00000070: 4bcc 94f5 d32a b23f af46 142c 4284 6f3f
00000080: d499 8aa2 7ed2 903f 8e81 7132 862a 9fbf
00000090: 2bd5 05e8 d2a7 a2bf d281 f714 5605 ba3f
000000a0: b4bc d211 878d b13f ad78 89ba af01 8e3f
000000b0: 9e38 9e70 d307 98bf ddf7 d8f6 fa4f 933f
000000c0: 28c7 00ec 9913 aabf 326f cd7f 87d0 6bbf
000000d0: 8588 d4b3 2fa2 90bf 25ae d4e9 97c8 8abf
000000e0: 87b9 fea3 9644 b0bf 6ffc 83bf e1e1 bbbf

weight f8 [1, 30]
-0.18917261092160811 -0.4277948877015878 -0.8475041540559415 -1.0992908545081626 -1.0275675514414964 -0.07397597522374597 -0.6014189451582065 -1.2531664292209999
-0.15999887039061578 0.459464021896032 -0.09772397883636323 -0.3501784979778382 0.38823221653800666 -0.6449806184705585 0.4542631938425719 0.5371654061730603
0.5570622185461996 0.12519941551933259 -0.41368734272105456 -0.46880800180686694 -0.35029379474927164 0.333114070622408 0.5965518225357925 0.20916081707621348
1.0542750321115908 -0.2836019646316011 0.13071387701533177 -0.4649022329800851 0.5480558855627902 1.0045739677528918
00000000: d186 9ae0 ce36 c8bf 88c1 04cf fd60 dbbf
00000010: 0b9f 1c08 c11e ebbf a378 ce01 b296 f1bf
00000020: d0f3 3dac ea70 f0bf f693 46ea 16f0 b2bf
00000030: 2fc7 94f1 d23e e3bf 4e30 df3d f80c f4bf
00000040: ecc0 dccd d77a c4bf 7dda eec8 db67 dd3f
00000050: fb1d 234d 7004 b9bf 20f1 2413 5369 d6bf
00000060: 7232 52f0 cbd8 d83f 1f51 dc64 aea3 e4bf
00000070: 8924 55ee a512 dd3f 87c9 8181 7530 e13f
00000080: bdc7 4f25 74d3 e13f f121 91d1 8806 c03f
00000090: 8063 f079 da79 dabf 4345 f746 f300 debf
000000a0: a326 1caa 366b d6bf 8748 caad bd51 d53f
000000b0: 3322 05d9 f316 e33f 7c36 791a c8c5 ca3f
000000c0: c289 fe7e 4fde f03f 0d24 cbda 8826 d2bf
000000d0: 0805 7579 3bbb c03f 5b28 9f4b f5c0 ddbf
000000e0: 8aeb 1b7f ac89 e13f 0896 1e27 bc12 f03f

bias f8 [1]
0.08728712816764832
00000000: db80 d700 7358 b63f
